fn (%input_ids: Tensor[(1, 128), int64], %attention_mask: Tensor[(1, 128), int64], %token_type_ids: Tensor[(1, 128), int64], param_virtual_devices=[VirtualDevice(device_type=1, virtual_device_id=0, target=Target(kind='llvm', keys={'cpu'}, attrs={'link-params': (bool)0, 'mcpu': "cascadelake"}, host=Target(kind='llvm', keys={'cpu'}, attrs={'link-params': (bool)0, 'mcpu': "cascadelake"}))), VirtualDevice(device_type=1, virtual_device_id=0, target=Target(kind='llvm', keys={'cpu'}, attrs={'link-params': (bool)0, 'mcpu': "cascadelake"}, host=Target(kind='llvm', keys={'cpu'}, attrs={'link-params': (bool)0, 'mcpu': "cascadelake"}))), VirtualDevice(device_type=1, virtual_device_id=0, target=Target(kind='llvm', keys={'cpu'}, attrs={'link-params': (bool)0, 'mcpu': "cascadelake"}, host=Target(kind='llvm', keys={'cpu'}, attrs={'link-params': (bool)0, 'mcpu': "cascadelake"})))], hash="0cee980c94d9c680", result_virtual_device=VirtualDevice(device_type=1, virtual_device_id=0, target=Target(kind='llvm', keys={'cpu'}, attrs={'link-params': (bool)0, 'mcpu': "cascadelake"}, host=Target(kind='llvm', keys={'cpu'}, attrs={'link-params': (bool)0, 'mcpu': "cascadelake"})))) -> (Tensor[(1, 128), float32], Tensor[(1, 128), float32]) {
  %2880 = fn (%p0534: Tensor[(1, 128), int64], %p1364: Tensor[(30522, 1024), float32], %p2241: Tensor[(1, 128, 1024), float32], %p349: Tensor[(1, 128), int64], %p4: Tensor[(2, 1024), float32], Primitive=1, hash="83c66aa52442aa68") -> Tensor[(1, 128, 1024), float32] {
    %2871 = less(%p0534, 0 /* ty=int64 */) /* ty=Tensor[(1, 128), bool] */;
    %2872 = add(%p0534, 30522 /* ty=int64 */) /* ty=Tensor[(1, 128), int64] */;
    %2873 = where(%2871, %2872, %p0534) /* ty=Tensor[(1, 128), int64] */;
    %2874 = take(%p1364, %2873, axis=0) /* ty=Tensor[(1, 128, 1024), float32] */;
    %2875 = less(%p349, 0 /* ty=int64 */) /* ty=Tensor[(1, 128), bool] */;
    %2876 = add(%p349, 2 /* ty=int64 */) /* ty=Tensor[(1, 128), int64] */;
    %2877 = where(%2875, %2876, %p349) /* ty=Tensor[(1, 128), int64] */;
    %2878 = add(%2874, %p2241) /* ty=Tensor[(1, 128, 1024), float32] */;
    %2879 = take(%p4, %2877, axis=0) /* ty=Tensor[(1, 128, 1024), float32] */;
    add(%2878, %2879) /* ty=Tensor[(1, 128, 1024), float32] */
  };
  %2881 = %2880(%input_ids, meta[relay.Constant][0] /* ty=Tensor[(30522, 1024), float32] */, meta[relay.Constant][1] /* ty=Tensor[(1, 128, 1024), float32] */, %token_type_ids, meta[relay.Constant][2] /* ty=Tensor[(2, 1024), float32] */) /* ty=Tensor[(1, 128, 1024), float32] */;
  %2882 = fn (%p0535: Tensor[(1, 128, 1024), float32], Primitive=1, hash="2c2db313332ac77e") -> Tensor[(1, 128, 1), float32] {
    mean(%p0535, axis=[-1], keepdims=True) /* ty=Tensor[(1, 128, 1), float32] */
  };
  %2883 = %2882(%2881) /* ty=Tensor[(1, 128, 1), float32] */;
  %2884 = fn (%p0533: Tensor[(1, 128, 1024), float32], %p1363: Tensor[(1, 128, 1), float32], Primitive=1, hash="d63ceec029ccca0c") -> Tensor[(1, 128, 1024), float32] {
    subtract(%p0533, %p1363) /* ty=Tensor[(1, 128, 1024), float32] */
  };
  %2885 = %2884(%2881, %2883) /* ty=Tensor[(1, 128, 1024), float32] */;
  %2886 = fn (%p0532: Tensor[(1, 128, 1024), float32], Primitive=1, hash="1f22efdffe5555e9") -> Tensor[(1, 128, 1), float32] {
    %2870 = power(%p0532, 2f /* ty=float32 */) /* ty=Tensor[(1, 128, 1024), float32] */;
    mean(%2870, axis=[-1], keepdims=True) /* ty=Tensor[(1, 128, 1), float32] */
  };
  %2887 = %2886(%2885) /* ty=Tensor[(1, 128, 1), float32] */;
  %2888 = fn (%p0531: Tensor[(1, 128, 1), float32], %p1362: Tensor[(1, 128, 1024), float32], %p2240: Tensor[(1024), float32], %p348: Tensor[(1024), float32], Primitive=1, hash="39117b306efffb81") -> Tensor[(1, 128, 1024), int8] {
    %2862 = add(%p0531, 1e-12f /* ty=float32 */) /* ty=Tensor[(1, 128, 1), float32] */;
    %2863 = sqrt(%2862) /* ty=Tensor[(1, 128, 1), float32] */;
    %2864 = divide(%p1362, %2863) /* ty=Tensor[(1, 128, 1024), float32] */;
    %2865 = multiply(%2864, %p2240) /* ty=Tensor[(1, 128, 1024), float32] */;
    %2866 = add(%2865, %p348) /* ty=Tensor[(1, 128, 1024), float32] */;
    %2867 = divide(%2866, 0.0196148f /* ty=float32 */) /* ty=Tensor[(1, 128, 1024), float32] */;
    %2868 = clip(%2867, a_min=-128f, a_max=127f) /* ty=Tensor[(1, 128, 1024), float32] */;
    %2869 = round(%2868) /* ty=Tensor[(1, 128, 1024), float32] */;
    cast(%2869, dtype="int8") /* ty=Tensor[(1, 128, 1024), int8] */
  };
  %2889 = %2888(%2887, %2885, meta[relay.Constant][3] /* ty=Tensor[(1024), float32] */, meta[relay.Constant][4] /* ty=Tensor[(1024), float32] */) /* ty=Tensor[(1, 128, 1024), int8] */;
  %2890 = fn (%p0530: Tensor[(1, 128, 1024), int8], Primitive=1, hash="165a7eb60476bae6") -> Tensor[(128, 1024), uint8] {
    %2859 = reshape(%p0530, newshape=[-1, 1024]) /* ty=Tensor[(128, 1024), int8] */;
    %2860 = cast(%2859, dtype="int32") /* ty=Tensor[(128, 1024), int32] */;
    %2861 = add(%2860, 128 /* ty=int32 */) /* ty=Tensor[(128, 1024), int32] */;
    cast(%2861, dtype="uint8") /* ty=Tensor[(128, 1024), uint8] */
  };
  %2891 = %2890(%2889) /* ty=Tensor[(128, 1024), uint8] */;
  %2892 = fn (%p0529: Tensor[(128, 1024), uint8], %p1361: Tensor[(64, 256, 16, 4), int8], %p2239: Tensor[(1, 1024), int32], Primitive=1, hash="a41f099f91287173", weight_layout="NC16n4c") -> Tensor[(128, 1024), int32] {
    %2858 = nn.contrib_dense_pack(%p0529, %p1361, units=None, out_dtype="int32", weight_layout="NC16n4c") /* ty=Tensor[(128, 1024), int32] */;
    subtract(%2858, %p2239) /* ty=Tensor[(128, 1024), int32] */
  };
  %2893 = %2892(%2891, meta[relay.Constant][5] /* ty=Tensor[(64, 256, 16, 4), int8] */, meta[relay.Constant][6] /* ty=Tensor[(1, 1024), int32] */) /* ty=Tensor[(128, 1024), int32] */;
  %2894 = fn (%p0528: Tensor[(128, 1024), int32], %p1360: Tensor[(1024), int32], Primitive=1, hash="b84868b6e6bb1a6d") -> Tensor[(16, 128, 64), uint8] {
    %2842 = reshape(%p0528, newshape=[1, 128, 1024]) /* ty=Tensor[(1, 128, 1024), int32] */;
    %2843 = add(%2842, %p1360) /* ty=Tensor[(1, 128, 1024), int32] */;
    %2844 = clip(%2843, a_min=-2.14748e+09f, a_max=2.14748e+09f) /* ty=Tensor[(1, 128, 1024), int32] */;
    %2845 = reshape(%2844, newshape=[1, 128, 16, 64]) /* ty=Tensor[(1, 128, 16, 64), int32] */;
    %2846 = transpose(%2845, axes=[0, 2, 1, 3]) /* ty=Tensor[(1, 16, 128, 64), int32] */;
    %2847 = cast(%2846, dtype="float32") /* ty=Tensor[(1, 16, 128, 64), float32] */;
    %2848 = multiply(0.00198058f /* ty=float32 */, %2847) /* ty=Tensor[(1, 16, 128, 64), float32] */;
    %2849 = add(%2848, 0.5f /* ty=float32 */) /* ty=Tensor[(1, 16, 128, 64), float32] */;
    %2850 = floor(%2849) /* ty=Tensor[(1, 16, 128, 64), float32] */;
    %2851 = cast(%2850, dtype="int32") /* ty=Tensor[(1, 16, 128, 64), int32] */;
    %2852 = clip(%2851, a_min=-128f, a_max=127f) /* ty=Tensor[(1, 16, 128, 64), int32] */;
    %2853 = cast(%2852, dtype="int8") /* ty=Tensor[(1, 16, 128, 64), int8] */;
    %2854 = broadcast_to(%2853, shape=[1, 16, 128, 64]) /* ty=Tensor[(1, 16, 128, 64), int8] */;
    %2855 = reshape(%2854, newshape=[-1, 128, 64]) /* ty=Tensor[(16, 128, 64), int8] */;
    %2856 = cast(%2855, dtype="int32") /* ty=Tensor[(16, 128, 64), int32] */;
    %2857 = add(%2856, 128 /* ty=int32 */) /* ty=Tensor[(16, 128, 64), int32] */;
    cast(%2857, dtype="uint8") /* ty=Tensor[(16, 128, 64), uint8] */
  };
  %2910 = fn (%p0537: Tensor[(128, 1024), uint8], %p1366: Tensor[(64, 256, 16, 4), int8], %p2242: Tensor[(1, 1024), int32], Primitive=1, hash="a41f099f91287173", weight_layout="NC16n4c") -> Tensor[(128, 1024), int32] {
    %2909 = nn.contrib_dense_pack(%p0537, %p1366, units=None, out_dtype="int32", weight_layout="NC16n4c") /* ty=Tensor[(128, 1024), int32] */;
    subtract(%2909, %p2242) /* ty=Tensor[(128, 1024), int32] */
  };
  %2911 = %2910(%2891, meta[relay.Constant][8] /* ty=Tensor[(64, 256, 16, 4), int8] */, meta[relay.Constant][9] /* ty=Tensor[(1, 1024), int32] */) /* ty=Tensor[(128, 1024), int32] */;
  %2912 = fn (%p0536: Tensor[(128, 1024), int32], %p1365: Tensor[(1024), int32], Primitive=1, hash="d88b9bf14c47d410") -> Tensor[(16, 128, 64), int8] {
    %2895 = reshape(%p0536, newshape=[1, 128, 1024]) /* ty=Tensor[(1, 128, 1024), int32] */;
    %2896 = add(%2895, %p1365) /* ty=Tensor[(1, 128, 1024), int32] */;
    %2897 = clip(%2896, a_min=-2.14748e+09f, a_max=2.14748e+09f) /* ty=Tensor[(1, 128, 1024), int32] */;
    %2898 = reshape(%2897, newshape=[1, 128, 16, 64]) /* ty=Tensor[(1, 128, 16, 64), int32] */;
    %2899 = transpose(%2898, axes=[0, 2, 3, 1]) /* ty=Tensor[(1, 16, 64, 128), int32] */;
    %2900 = cast(%2899, dtype="float32") /* ty=Tensor[(1, 16, 64, 128), float32] */;
    %2901 = multiply(0.00198058f /* ty=float32 */, %2900) /* ty=Tensor[(1, 16, 64, 128), float32] */;
    %2902 = add(%2901, 0.5f /* ty=float32 */) /* ty=Tensor[(1, 16, 64, 128), float32] */;
    %2903 = floor(%2902) /* ty=Tensor[(1, 16, 64, 128), float32] */;
    %2904 = cast(%2903, dtype="int32") /* ty=Tensor[(1, 16, 64, 128), int32] */;
    %2905 = clip(%2904, a_min=-128f, a_max=127f) /* ty=Tensor[(1, 16, 64, 128), int32] */;
    %2906 = cast(%2905, dtype="int8") /* ty=Tensor[(1, 16, 64, 128), int8] */;
    %2907 = broadcast_to(%2906, shape=[1, 16, 64, 128]) /* ty=Tensor[(1, 16, 64, 128), int8] */;
    %2908 = reshape(%2907, newshape=[-1, 64, 128]) /* ty=Tensor[(16, 64, 128), int8] */;
    transpose(%2908, axes=[0, 2, 1]) /* ty=Tensor[(16, 128, 64), int8] */
  };
  %2914 = %2912(%2911, meta[relay.Constant][10] /* ty=Tensor[(1024), int32] */) /* ty=Tensor[(16, 128, 64), int8] */;
  %2915 = fn (%p0538: Tensor[(16, 128, 64), int8], Primitive=1, hash="730fc163d25a20bf") -> Tensor[(16, 128), int32] {
    %2913 = cast(%p0538, dtype="int32") /* ty=Tensor[(16, 128, 64), int32] */;
    sum(%2913, axis=[-1]) /* ty=Tensor[(16, 128), int32] */
  };
  %2916 = %2894(%2893, meta[relay.Constant][7] /* ty=Tensor[(1024), int32] */) /* ty=Tensor[(16, 128, 64), uint8] */;
  %2917 = %2915(%2914) /* ty=Tensor[(16, 128), int32] */;
  %2918 = fn (%p0527: Tensor[(16, 128, 64), uint8], %p1359: Tensor[(16, 128, 64), int8], %p2238: Tensor[(16, 128), int32], Primitive=1, hash="6fff1eb43119fc91") -> Tensor[(16, 128, 128), int32] {
    %2839 = multiply(128 /* ty=int32 */, %p2238) /* ty=Tensor[(16, 128), int32] */;
    %2840 = nn.batch_matmul(%p0527, %p1359, out_dtype="int32", transpose_b=True) /* ty=Tensor[(16, 128, 128), int32] */;
    %2841 = expand_dims(%2839, axis=1) /* ty=Tensor[(16, 1, 128), int32] */;
    subtract(%2840, %2841) /* ty=Tensor[(16, 128, 128), int32] */
  };
  %2923 = fn (%p0539: Tensor[(1, 128), int64], Primitive=1, hash="b49ed9818f20d4ec") -> Tensor[(1, 1, 1, 128), float32] {
    %2919 = expand_dims(%p0539, axis=1) /* ty=Tensor[(1, 1, 128), int64] */;
    %2920 = expand_dims(%2919, axis=2) /* ty=Tensor[(1, 1, 1, 128), int64] */;
    %2921 = cast(%2920, dtype="float32") /* ty=Tensor[(1, 1, 1, 128), float32] */;
    %2922 = subtract(1f /* ty=float32 */, %2921) /* ty=Tensor[(1, 1, 1, 128), float32] */;
    multiply(%2922, -10000f /* ty=float32 */) /* ty=Tensor[(1, 1, 1, 128), float32] */
  };
  %2924 = %2918(%2916, %2914, %2917) /* ty=Tensor[(16, 128, 128), int32] */;
  %2925 = %2923(%attention_mask) /* ty=Tensor[(1, 1, 1, 128), float32] */;
  %2926 = fn (%p0526: Tensor[(16, 128, 128), int32], %p1358: Tensor[(1, 1, 1, 128), float32], Primitive=1, hash="3c3463244de8e68d") -> Tensor[(1, 16, 128, 128), float32] {
    %2835 = reshape(%p0526, newshape=[1, 16, 128, 128]) /* ty=Tensor[(1, 16, 128, 128), int32] */;
    %2836 = cast(%2835, dtype="float32") /* ty=Tensor[(1, 16, 128, 128), float32] */;
    %2837 = multiply(%2836, 0.00308908f /* ty=float32 */) /* ty=Tensor[(1, 16, 128, 128), float32] */;
    %2838 = divide(%2837, 8f /* ty=float32 */) /* ty=Tensor[(1, 16, 128, 128), float32] */;
    add(%2838, %p1358) /* ty=Tensor[(1, 16, 128, 128), float32] */
  };
  %2927 = %2926(%2924, %2925) /* ty=Tensor[(1, 16, 128, 128), float32] */;
  %2928 = fn (%p0525: Tensor[(1, 16, 128, 128), float32], Primitive=1, hash="6fa4d81622c6fdee") -> Tensor[(1, 16, 128, 128), int8] {
    %2831 = nn.softmax(%p0525, axis=3) /* ty=Tensor[(1, 16, 128, 128), float32] */;
    %2832 = divide(%2831, 0.00847973f /* ty=float32 */) /* ty=Tensor[(1, 16, 128, 128), float32] */;
    %2833 = clip(%2832, a_min=-128f, a_max=127f) /* ty=Tensor[(1, 16, 128, 128), float32] */;
    %2834 = round(%2833) /* ty=Tensor[(1, 16, 128, 128), float32] */;
    cast(%2834, dtype="int8") /* ty=Tensor[(1, 16, 128, 128), int8] */
  };
  %2929 = %2928(%2927) /* ty=Tensor[(1, 16, 128, 128), int8] */;
  %2930 = fn (%p0524: Tensor[(1, 16, 128, 128), int8], Primitive=1, hash="1e01d52113b0d8e6") -> Tensor[(16, 128, 128), uint8] {
    %2827 = broadcast_to(%p0524, shape=[1, 16, 128, 128]) /* ty=Tensor[(1, 16, 128, 128), int8] */;
    %2828 = reshape(%2827, newshape=[-1, 128, 128]) /* ty=Tensor[(16, 128, 128), int8] */;
    %2829 = cast(%2828, dtype="int32") /* ty=Tensor[(16, 128, 128), int32] */;
    %2830 = add(%2829, 128 /* ty=int32 */) /* ty=Tensor[(16, 128, 128), int32] */;
    cast(%2830, dtype="uint8") /* ty=Tensor[(16, 128, 128), uint8] */
  };
  %2946 = fn (%p0541: Tensor[(128, 1024), uint8], %p1368: Tensor[(64, 256, 16, 4), int8], %p2243: Tensor[(1, 1024), int32], Primitive=1, hash="a41f099f91287173", weight_layout="NC16n4c") -> Tensor[(128, 1024), int32] {
    %2945 = nn.contrib_dense_pack(%p0541, %p1368, units=None, out_dtype="int32", weight_layout="NC16n4c") /* ty=Tensor[(128, 1024), int32] */;
    subtract(%2945, %p2243) /* ty=Tensor[(128, 1024), int32] */
  };
  %2947 = %2946(%2891, meta[relay.Constant][11] /* ty=Tensor[(64, 256, 16, 4), int8] */, meta[relay.Constant][12] /* ty=Tensor[(1, 1024), int32] */) /* ty=Tensor[(128, 1024), int32] */;
  %2948 = fn (%p0540: Tensor[(128, 1024), int32], %p1367: Tensor[(1024), int32], Primitive=1, hash="aa7c5418431bb6fd") -> Tensor[(16, 64, 128), int8] {
    %2931 = reshape(%p0540, newshape=[1, 128, 1024]) /* ty=Tensor[(1, 128, 1024), int32] */;
    %2932 = add(%2931, %p1367) /* ty=Tensor[(1, 128, 1024), int32] */;
    %2933 = clip(%2932, a_min=-2.14748e+09f, a_max=2.14748e+09f) /* ty=Tensor[(1, 128, 1024), int32] */;
    %2934 = reshape(%2933, newshape=[1, 128, 16, 64]) /* ty=Tensor[(1, 128, 16, 64), int32] */;
    %2935 = transpose(%2934, axes=[0, 2, 1, 3]) /* ty=Tensor[(1, 16, 128, 64), int32] */;
    %2936 = cast(%2935, dtype="float32") /* ty=Tensor[(1, 16, 128, 64), float32] */;
    %2937 = multiply(0.00198058f /* ty=float32 */, %2936) /* ty=Tensor[(1, 16, 128, 64), float32] */;
    %2938 = add(%2937, 0.5f /* ty=float32 */) /* ty=Tensor[(1, 16, 128, 64), float32] */;
    %2939 = floor(%2938) /* ty=Tensor[(1, 16, 128, 64), float32] */;
    %2940 = cast(%2939, dtype="int32") /* ty=Tensor[(1, 16, 128, 64), int32] */;
    %2941 = clip(%2940, a_min=-128f, a_max=127f) /* ty=Tensor[(1, 16, 128, 64), int32] */;
    %2942 = cast(%2941, dtype="int8") /* ty=Tensor[(1, 16, 128, 64), int8] */;
    %2943 = broadcast_to(%2942, shape=[1, 16, 128, 64]) /* ty=Tensor[(1, 16, 128, 64), int8] */;
    %2944 = reshape(%2943, newshape=[-1, 128, 64]) /* ty=Tensor[(16, 128, 64), int8] */;
    transpose(%2944, axes=[0, 2, 1]) /* ty=Tensor[(16, 64, 128), int8] */
  };
  %2950 = %2948(%2947, meta[relay.Constant][13] /* ty=Tensor[(1024), int32] */) /* ty=Tensor[(16, 64, 128), int8] */;
  %2951 = fn (%p0542: Tensor[(16, 64, 128), int8], Primitive=1, hash="01b1b769a1f35abd") -> Tensor[(16, 64), int32] {
    %2949 = cast(%p0542, dtype="int32") /* ty=Tensor[(16, 64, 128), int32] */;
    sum(%2949, axis=[-1]) /* ty=Tensor[(16, 64), int32] */
  };
  %2952 = %2930(%2929) /* ty=Tensor[(16, 128, 128), uint8] */;
  %2953 = %2951(%2950) /* ty=Tensor[(16, 64), int32] */;
  %2954 = fn (%p0523: Tensor[(16, 128, 128), uint8], %p1357: Tensor[(16, 64, 128), int8], %p2237: Tensor[(16, 64), int32], Primitive=1, hash="8d8117dbe1fc815a") -> Tensor[(16, 128, 64), int32] {
    %2824 = multiply(128 /* ty=int32 */, %p2237) /* ty=Tensor[(16, 64), int32] */;
    %2825 = nn.batch_matmul(%p0523, %p1357, out_dtype="int32", transpose_b=True) /* ty=Tensor[(16, 128, 64), int32] */;
    %2826 = expand_dims(%2824, axis=1) /* ty=Tensor[(16, 1, 64), int32] */;
    subtract(%2825, %2826) /* ty=Tensor[(16, 128, 64), int32] */
  };
  %2955 = %2954(%2952, %2950, %2953) /* ty=Tensor[(16, 128, 64), int32] */;
  %2956 = fn (%p0522: Tensor[(16, 128, 64), int32], Primitive=1, hash="478de1c4f545314e") -> Tensor[(128, 1024), uint8] {
    %2811 = reshape(%p0522, newshape=[1, 16, 128, 64]) /* ty=Tensor[(1, 16, 128, 64), int32] */;
    %2812 = transpose(%2811, axes=[0, 2, 1, 3]) /* ty=Tensor[(1, 128, 16, 64), int32] */;
    %2813 = reshape(%2812, newshape=[1, 128, 1024]) /* ty=Tensor[(1, 128, 1024), int32] */;
    %2814 = cast(%2813, dtype="float32") /* ty=Tensor[(1, 128, 1024), float32] */;
    %2815 = multiply(0.0386445f /* ty=float32 */, %2814) /* ty=Tensor[(1, 128, 1024), float32] */;
    %2816 = add(%2815, 0.5f /* ty=float32 */) /* ty=Tensor[(1, 128, 1024), float32] */;
    %2817 = floor(%2816) /* ty=Tensor[(1, 128, 1024), float32] */;
    %2818 = cast(%2817, dtype="int32") /* ty=Tensor[(1, 128, 1024), int32] */;
    %2819 = clip(%2818, a_min=-128f, a_max=127f) /* ty=Tensor[(1, 128, 1024), int32] */;
    %2820 = cast(%2819, dtype="int8") /* ty=Tensor[(1, 128, 1024), int8] */;
    %2821 = reshape(%2820, newshape=[-1, 1024]) /* ty=Tensor[(128, 1024), int8] */;
    %2822 = cast(%2821, dtype="int32") /* ty=Tensor[(128, 1024), int32] */;
    %2823 = add(%2822, 128 /* ty=int32 */) /* ty=Tensor[(128, 1024), int32] */;
    cast(%2823, dtype="uint8") /* ty=Tensor[(128, 1024), uint8] */
  };
  %2957 = %2956(%2955) /* ty=Tensor[(128, 1024), uint8] */;
  %2958 = fn (%p0521: Tensor[(128, 1024), uint8], %p1356: Tensor[(64, 256, 16, 4), int8], %p2236: Tensor[(1, 1024), int32], Primitive=1, hash="a41f099f91287173", weight_layout="NC16n4c") -> Tensor[(128, 1024), int32] {
    %2810 = nn.contrib_dense_pack(%p0521, %p1356, units=None, out_dtype="int32", weight_layout="NC16n4c") /* ty=Tensor[(128, 1024), int32] */;
    subtract(%2810, %p2236) /* ty=Tensor[(128, 1024), int32] */
  };
  %2959 = %2958(%2957, meta[relay.Constant][14] /* ty=Tensor[(64, 256, 16, 4), int8] */, meta[relay.Constant][15] /* ty=Tensor[(1, 1024), int32] */) /* ty=Tensor[(128, 1024), int32] */;
  %2960 = fn (%p0520: Tensor[(128, 1024), int32], %p1355: Tensor[(1024), int32], %p2235: Tensor[(1, 128, 1024), int8], Primitive=1, hash="05caf6ce48376fa4") -> Tensor[(1, 128, 1024), float32] {
    %2796 = reshape(%p0520, newshape=[1, 128, 1024]) /* ty=Tensor[(1, 128, 1024), int32] */;
    %2797 = add(%2796, %p1355) /* ty=Tensor[(1, 128, 1024), int32] */;
    %2798 = clip(%2797, a_min=-2.14748e+09f, a_max=2.14748e+09f) /* ty=Tensor[(1, 128, 1024), int32] */;
    %2799 = cast(%2798, dtype="float32") /* ty=Tensor[(1, 128, 1024), float32] */;
    %2800 = multiply(0.00479155f /* ty=float32 */, %2799) /* ty=Tensor[(1, 128, 1024), float32] */;
    %2801 = add(%2800, 0.5f /* ty=float32 */) /* ty=Tensor[(1, 128, 1024), float32] */;
    %2802 = floor(%2801) /* ty=Tensor[(1, 128, 1024), float32] */;
    %2803 = cast(%2802, dtype="int32") /* ty=Tensor[(1, 128, 1024), int32] */;
    %2804 = clip(%2803, a_min=-128f, a_max=127f) /* ty=Tensor[(1, 128, 1024), int32] */;
    %2805 = cast(%2804, dtype="int8") /* ty=Tensor[(1, 128, 1024), int8] */;
    %2806 = cast(%2805, dtype="float32") /* ty=Tensor[(1, 128, 1024), float32] */;
    %2807 = cast(%p2235, dtype="float32") /* ty=Tensor[(1, 128, 1024), float32] */;
    %2808 = multiply(%2806, 0.0200163f /* ty=float32 */) /* ty=Tensor[(1, 128, 1024), float32] */;
    %2809 = multiply(%2807, 0.0196148f /* ty=float32 */) /* ty=Tensor[(1, 128, 1024), float32] */;
    add(%2808, %2809) /* ty=Tensor[(1, 128, 1024), float32] */
  };
  %2961 = %2960(%2959, meta[relay.Constant][16] /* ty=Tensor[(1024), int32] */, %2889) /* ty=Tensor[(1, 128, 1024), float32] */;
  %2962 = fn (%p0543: Tensor[(1, 128, 1024), float32], Primitive=1, hash="2c2db313332ac77e") -> Tensor[(1, 128, 1), float32] {
    mean(%p0543, axis=[-1], keepdims=True) /* ty=Tensor[(1, 128, 1), float32] */
  };
  %2963 = %2962(%2961) /* ty=Tensor[(1, 128, 1), float32] */;
  %2964 = fn (%p0519: Tensor[(1, 128, 1024), float32], %p1354: Tensor[(1, 128, 1), float32], Primitive=1, hash="d63ceec029ccca0c") -> Tensor[(1, 128, 1024), float32] {
    subtract(%p0519, %p1354) /* ty=Tensor[(1, 128, 1024), float32] */
  };
  %2965 = %2964(%2961, %2963) /* ty=Tensor[(1, 128, 1024), float32] */;
  %2966 = fn (%p0518: Tensor[(1, 128, 1024), float32], Primitive=1, hash="1f22efdffe5555e9") -> Tensor[(1, 128, 1), float32] {
    %2795 = power(%p0518, 2f /* ty=float32 */) /* ty=Tensor[(1, 128, 1024), float32] */;
    mean(%2795, axis=[-1], keepdims=True) /* ty=Tensor[(1, 128, 1), float32] */
  };
  %2967 = %2966(%2965) /* ty=Tensor[(1, 128, 1), float32] */;
  %2968 = fn (%p0517: Tensor[(1, 128, 1), float32], %p1353: Tensor[(1, 128, 1024), float32], %p2234: Tensor[(1024), float32], %p347: Tensor[(1024), float32], Primitive=1, hash="c5e7e67a0628fa51") -> Tensor[(1, 128, 1024), int8] {
    %2787 = add(%p0517, 1e-12f /* ty=float32 */) /* ty=Tensor[(1, 128, 1), float32] */;
    %2788 = sqrt(%2787) /* ty=Tensor[(1, 128, 1), float32] */;
    %2789 = divide(%p1353, %2788) /* ty=Tensor[(1, 128, 1024), float32] */;
    %2790 = multiply(%2789, %p2234) /* ty=Tensor[(1, 128, 1024), float32] */;
    %2791 = add(%2790, %p347) /* ty=Tensor[(1, 128, 1024), float32] */;
    %2792 = divide(%2791, 0.251408f /* ty=float32 */) /* ty=Tensor[(1, 128, 1024), float32] */;
    %2793 = clip(%2792, a_min=-128f, a_max=127f) /* ty=Tensor[(1, 128, 1024), float32] */;
    %2794 = round(%2793) /* ty=Tensor[(1, 128, 1024), float32] */;
    cast(%2794, dtype="int8") /* ty=Tensor[(1, 128, 1024), int8] */
  };
  %2969 = %2968(%2967, %2965, meta[relay.Constant][17] /* ty=Tensor[(1024), float32] */, meta[relay.Constant][18] /* ty=Tensor[(1024), float32] */) /* ty=Tensor[(1, 128, 1024), int8] */;
  %2970 = fn (%p0516: Tensor[(1, 128, 1024), int8], Primitive=1, hash="165a7eb60476bae6") -> Tensor[(128, 1024), uint8] {
    %2784 = reshape(%p0516, newshape=[-1, 1024]) /* ty=Tensor[(128, 1024), int8] */;
    %2785 = cast(%2784, dtype="int32") /* ty=Tensor[(128, 1024), int32] */;
    %2786 = add(%2785, 128 /* ty=int32 */) /* ty=Tensor[(128, 1024), int32] */;
    cast(%2786, dtype="uint8") /* ty=Tensor[(128, 1024), uint8] */
  };
  %2971 = %2970(%2969) /* ty=Tensor[(128, 1024), uint8] */;
  %2972 = fn (%p0515: Tensor[(128, 1024), uint8], %p1352: Tensor[(256, 256, 16, 4), int8], %p2233: Tensor[(1, 4096), int32], Primitive=1, hash="7df485f4b3219f11", weight_layout="NC16n4c") -> Tensor[(128, 4096), int32] {
    %2783 = nn.contrib_dense_pack(%p0515, %p1352, units=None, out_dtype="int32", weight_layout="NC16n4c") /* ty=Tensor[(128, 4096), int32] */;
    subtract(%2783, %p2233) /* ty=Tensor[(128, 4096), int32] */
  };
  %2973 = %2972(%2971, meta[relay.Constant][19] /* ty=Tensor[(256, 256, 16, 4), int8] */, meta[relay.Constant][20] /* ty=Tensor[(1, 4096), int32] */) /* ty=Tensor[(128, 4096), int32] */;
  %2974 = fn (%p0514: Tensor[(128, 4096), int32], %p1351: Tensor[(4096), float32], Primitive=1, hash="3d2e8b51e8ce6ee0") -> Tensor[(128, 4096), uint8] {
    %2767 = reshape(%p0514, newshape=[1, 128, 4096]) /* ty=Tensor[(1, 128, 4096), int32] */;
    %2768 = cast(%2767, dtype="float32") /* ty=Tensor[(1, 128, 4096), float32] */;
    %2769 = multiply(%2768, 0.000813513f /* ty=float32 */) /* ty=Tensor[(1, 128, 4096), float32] */;
    %2770 = add(%2769, %p1351) /* ty=Tensor[(1, 128, 4096), float32] */;
    %2771 = divide(%2770, 1.41421f /* ty=float32 */) /* ty=Tensor[(1, 128, 4096), float32] */;
    %2772 = erf(%2771) /* ty=Tensor[(1, 128, 4096), float32] */;
    %2773 = multiply(%2770, 0.5f /* ty=float32 */) /* ty=Tensor[(1, 128, 4096), float32] */;
    %2774 = add(%2772, 1f /* ty=float32 */) /* ty=Tensor[(1, 128, 4096), float32] */;
    %2775 = multiply(%2773, %2774) /* ty=Tensor[(1, 128, 4096), float32] */;
    %2776 = divide(%2775, 0.0391822f /* ty=float32 */) /* ty=Tensor[(1, 128, 4096), float32] */;
    %2777 = clip(%2776, a_min=-128f, a_max=127f) /* ty=Tensor[(1, 128, 4096), float32] */;
    %2778 = round(%2777) /* ty=Tensor[(1, 128, 4096), float32] */;
    %2779 = cast(%2778, dtype="int8") /* ty=Tensor[(1, 128, 4096), int8] */;
    %2780 = reshape(%2779, newshape=[-1, 4096]) /* ty=Tensor[(128, 4096), int8] */;
    %2781 = cast(%2780, dtype="int32") /* ty=Tensor[(128, 4096), int32] */;
    %2782 = add(%2781, 128 /* ty=int32 */) /* ty=Tensor[(128, 4096), int32] */;
    cast(%2782, dtype="uint8") /* ty=Tensor[(128, 4096), uint8] */
  };
  %2975 = %2974(%2973, meta[relay.Constant][21] /* ty=Tensor[(4096), float32] */) /* ty=Tensor[(128, 4096), uint8] */;
  %2976 = fn (%p0513: Tensor[(128, 4096), uint8], %p1350: Tensor[(64, 1024, 16, 4), int8], %p2232: Tensor[(1, 1024), int32], Primitive=1, hash="bcbc065dbaa86fe4", weight_layout="NC16n4c") -> Tensor[(128, 1024), int32] {
    %2766 = nn.contrib_dense_pack(%p0513, %p1350, units=None, out_dtype="int32", weight_layout="NC16n4c") /* ty=Tensor[(128, 1024), int32] */;
    subtract(%2766, %p2232) /* ty=Tensor[(128, 1024), int32] */
  };
  %2977 = %2976(%2975, meta[relay.Constant][22] /* ty=Tensor[(64, 1024, 16, 4), int8] */, meta[relay.Constant][23] /* ty=Tensor[(1, 1024), int32] */) /* ty=Tensor[(128, 1024), int32] */;
  %2978 = fn (%p0512: Tensor[(128, 1024), int32], %p1349: Tensor[(1024), int32], %p2231: Tensor[(1, 128, 1024), int8], Primitive=1, hash="85dcb5dd66dc2efb") -> Tensor[(1, 128, 1024), float32] {
    %2752 = reshape(%p0512, newshape=[1, 128, 1024]) /* ty=Tensor[(1, 128, 1024), int32] */;
    %2753 = add(%2752, %p1349) /* ty=Tensor[(1, 128, 1024), int32] */;
    %2754 = clip(%2753, a_min=-2.14748e+09f, a_max=2.14748e+09f) /* ty=Tensor[(1, 128, 1024), int32] */;
    %2755 = cast(%2754, dtype="float32") /* ty=Tensor[(1, 128, 1024), float32] */;
    %2756 = multiply(0.00566541f /* ty=float32 */, %2755) /* ty=Tensor[(1, 128, 1024), float32] */;
    %2757 = add(%2756, 0.5f /* ty=float32 */) /* ty=Tensor[(1, 128, 1024), float32] */;
    %2758 = floor(%2757) /* ty=Tensor[(1, 128, 1024), float32] */;
    %2759 = cast(%2758, dtype="int32") /* ty=Tensor[(1, 128, 1024), int32] */;
    %2760 = clip(%2759, a_min=-128f, a_max=127f) /* ty=Tensor[(1, 128, 1024), int32] */;
    %2761 = cast(%2760, dtype="int8") /* ty=Tensor[(1, 128, 1024), int8] */;
    %2762 = cast(%2761, dtype="float32") /* ty=Tensor[(1, 128, 1024), float32] */;
    %2763 = cast(%p2231, dtype="float32") /* ty=Tensor[(1, 128, 1024), float32] */;
    %2764 = multiply(%2762, 0.153159f /* ty=float32 */) /* ty=Tensor[(1, 128, 1024), float32] */;
    %2765 = multiply(%2763, 0.251408f /* ty=float32 */) /* ty=Tensor[(1, 128, 1024), float32] */;
    add(%2764, %2765) /* ty=Tensor[(1, 128, 1024), float32] */
  };
  %2979 = %2978(%2977, meta[relay.Constant][24] /* ty=Tensor[(1024), int32] */, %2969) /* ty=Tensor[(1, 128, 1024), float32] */;
  %2980 = fn (%p0544: Tensor[(1, 128, 1024), float32], Primitive=1, hash="2c2db313332ac77e") -> Tensor[(1, 128, 1), float32] {
    mean(%p0544, axis=[-1], keepdims=True) /* ty=Tensor[(1, 128, 1), float32] */
  };
  %2981 = %2980(%2979) /* ty=Tensor[(1, 128, 1), float32] */;
  %2982 = fn (%p0511: Tensor[(1, 128, 1024), float32], %p1348: Tensor[(1, 128, 1), float32], Primitive=1, hash="d63ceec029ccca0c") -> Tensor[(1, 128, 1024), float32] {
    subtract(%p0511, %p1348) /* ty=Tensor[(1, 128, 1024), float32] */
  };
  %2983 = %2982(%2979, %2981) /* ty=Tensor[(1, 128, 1024), float32] */;
  %2984 = fn (%p0510: Tensor[(1, 128, 1024), float32], Primitive=1, hash="1f22efdffe5555e9") -> Tensor[(1, 128, 1), float32] {
    %2751 = power(%p0510, 2f /* ty=float32 */) /* ty=Tensor[(1, 128, 1024), float32] */;
    mean(%2751, axis=[-1], keepdims=True) /* ty=Tensor[(1, 128, 1), float32] */
  };
  %2985 = %2984(%2983) /* ty=Tensor[(1, 128, 1), float32] */;
  %2986 = fn (%p0509: Tensor[(1, 128, 1), float32], %p1347: Tensor[(1, 128, 1024), float32], %p2230: Tensor[(1024), float32], %p346: Tensor[(1024), float32], Primitive=1, hash="854bbfaaf2dc25f8") -> Tensor[(1, 128, 1024), int8] {
    %2743 = add(%p0509, 1e-12f /* ty=float32 */) /* ty=Tensor[(1, 128, 1), float32] */;
    %2744 = sqrt(%2743) /* ty=Tensor[(1, 128, 1), float32] */;
    %2745 = divide(%p1347, %2744) /* ty=Tensor[(1, 128, 1024), float32] */;
    %2746 = multiply(%2745, %p2230) /* ty=Tensor[(1, 128, 1024), float32] */;
    %2747 = add(%2746, %p346) /* ty=Tensor[(1, 128, 1024), float32] */;
    %2748 = divide(%2747, 0.0728465f /* ty=float32 */) /* ty=Tensor[(1, 128, 1024), float32] */;
    %2749 = clip(%2748, a_min=-128f, a_max=127f) /* ty=Tensor[(1, 128, 1024), float32] */;
    %2750 = round(%2749) /* ty=Tensor[(1, 128, 1024), float32] */;
    cast(%2750, dtype="int8") /* ty=Tensor[(1, 128, 1024), int8] */
  };
  %2987 = %2986(%2985, %2983, meta[relay.Constant][25] /* ty=Tensor[(1024), float32] */, meta[relay.Constant][26] /* ty=Tensor[(1024), float32] */) /* ty=Tensor[(1, 128, 1024), int8] */;
  %2988 = fn (%p0508: Tensor[(1, 128, 1024), int8], Primitive=1, hash="165a7eb60476bae6") -> Tensor[(128, 1024), uint8] {
    %2740 = reshape(%p0508, newshape=[-1, 1024]) /* ty=Tensor[(128, 1024), int8] */;
    %2741 = cast(%2740, dtype="int32") /* ty=Tensor[(128, 1024), int32] */;
    %2742 = add(%2741, 128 /* ty=int32 */) /* ty=Tensor[(128, 1024), int32] */;
    cast(%2742, dtype="uint8") /* ty=Tensor[(128, 1024), uint8] */
  };
  %2989 = %2988(%2987) /* ty=Tensor[(128, 1024), uint8] */;
  %2990 = fn (%p0507: Tensor[(128, 1024), uint8], %p1346: Tensor[(64, 256, 16, 4), int8], %p2229: Tensor[(1, 1024), int32], Primitive=1, hash="a41f099f91287173", weight_layout="NC16n4c") -> Tensor[(128, 1024), int32] {
    %2739 = nn.contrib_dense_pack(%p0507, %p1346, units=None, out_dtype="int32", weight_layout="NC16n4c") /* ty=Tensor[(128, 1024), int32] */;
    subtract(%2739, %p2229) /* ty=Tensor[(128, 1024), int32] */
  };
  %2991 = %2990(%2989, meta[relay.Constant][27] /* ty=Tensor[(64, 256, 16, 4), int8] */, meta[relay.Constant][28] /* ty=Tensor[(1, 1024), int32] */) /* ty=Tensor[(128, 1024), int32] */;
  %2992 = fn (%p0506: Tensor[(128, 1024), int32], %p1345: Tensor[(1024), int32], Primitive=1, hash="4f1ec6073a2ad835") -> Tensor[(16, 128, 64), uint8] {
    %2723 = reshape(%p0506, newshape=[1, 128, 1024]) /* ty=Tensor[(1, 128, 1024), int32] */;
    %2724 = add(%2723, %p1345) /* ty=Tensor[(1, 128, 1024), int32] */;
    %2725 = clip(%2724, a_min=-2.14748e+09f, a_max=2.14748e+09f) /* ty=Tensor[(1, 128, 1024), int32] */;
    %2726 = reshape(%2725, newshape=[1, 128, 16, 64]) /* ty=Tensor[(1, 128, 16, 64), int32] */;
    %2727 = transpose(%2726, axes=[0, 2, 1, 3]) /* ty=Tensor[(1, 16, 128, 64), int32] */;
    %2728 = cast(%2727, dtype="float32") /* ty=Tensor[(1, 16, 128, 64), float32] */;
    %2729 = multiply(0.00468979f /* ty=float32 */, %2728) /* ty=Tensor[(1, 16, 128, 64), float32] */;
    %2730 = add(%2729, 0.5f /* ty=float32 */) /* ty=Tensor[(1, 16, 128, 64), float32] */;
    %2731 = floor(%2730) /* ty=Tensor[(1, 16, 128, 64), float32] */;
    %2732 = cast(%2731, dtype="int32") /* ty=Tensor[(1, 16, 128, 64), int32] */;
    %2733 = clip(%2732, a_min=-128f, a_max=127f) /* ty=Tensor[(1, 16, 128, 64), int32] */;
    %2734 = cast(%2733, dtype="int8") /* ty=Tensor[(1, 16, 128, 64), int8] */;
    %2735 = broadcast_to(%2734, shape=[1, 16, 128, 64]) /* ty=Tensor[(1, 16, 128, 64), int8] */;
    %2736 = reshape(%2735, newshape=[-1, 128, 64]) /* ty=Tensor[(16, 128, 64), int8] */;
    %2737 = cast(%2736, dtype="int32") /* ty=Tensor[(16, 128, 64), int32] */;
    %2738 = add(%2737, 128 /* ty=int32 */) /* ty=Tensor[(16, 128, 64), int32] */;
    cast(%2738, dtype="uint8") /* ty=Tensor[(16, 128, 64), uint8] */
  };
  %3008 = fn (%p0546: Tensor[(128, 1024), uint8], %p1370: Tensor[(64, 256, 16, 4), int8], %p2244: Tensor[(1, 1024), int32], Primitive=1, hash="a41f099f91287173", weight_layout="NC16n4c") -> Tensor[(128, 1024), int32] {
    %3007 = nn.contrib_dense_pack(%p0546, %p1370, units=None, out_dtype="int32", weight_layout="NC16n4c") /* ty=Tensor[(128, 1024), int32] */;
    subtract(%3007, %p2244) /* ty=Tensor[(128, 1024), int32] */
  };
  %3009 = %3008(%2989, meta[relay.Constant][30] /* ty=Tensor[(64, 256, 16, 4), int8] */, meta[relay.Constant][31] /* ty=Tensor[(1, 1024), int32] */) /* ty=Tensor[(128, 1024), int32] */;
  %3010 = fn (%p0545: Tensor[(128, 1024), int32], %p1369: Tensor[(1024), int32], Primitive=1, hash="5deb2d699f36748f") -> Tensor[(16, 128, 64), int8] {
    %2993 = reshape(%p0545, newshape=[1, 128, 1024]) /* ty=Tensor[(1, 128, 1024), int32] */;
    %2994 = add(%2993, %p1369) /* ty=Tensor[(1, 128, 1024), int32] */;
    %2995 = clip(%2994, a_min=-2.14748e+09f, a_max=2.14748e+09f) /* ty=Tensor[(1, 128, 1024), int32] */;
    %2996 = reshape(%2995, newshape=[1, 128, 16, 64]) /* ty=Tensor[(1, 128, 16, 64), int32] */;
    %2997 = transpose(%2996, axes=[0, 2, 3, 1]) /* ty=Tensor[(1, 16, 64, 128), int32] */;
    %2998 = cast(%2997, dtype="float32") /* ty=Tensor[(1, 16, 64, 128), float32] */;
    %2999 = multiply(0.00468979f /* ty=float32 */, %2998) /* ty=Tensor[(1, 16, 64, 128), float32] */;
    %3000 = add(%2999, 0.5f /* ty=float32 */) /* ty=Tensor[(1, 16, 64, 128), float32] */;
    %3001 = floor(%3000) /* ty=Tensor[(1, 16, 64, 128), float32] */;
    %3002 = cast(%3001, dtype="int32") /* ty=Tensor[(1, 16, 64, 128), int32] */;
    %3003 = clip(%3002, a_min=-128f, a_max=127f) /* ty=Tensor[(1, 16, 64, 128), int32] */;
    %3004 = cast(%3003, dtype="int8") /* ty=Tensor[(1, 16, 64, 128), int8] */;
    %3005 = broadcast_to(%3004, shape=[1, 16, 64, 128]) /* ty=Tensor[(1, 16, 64, 128), int8] */;
    %3006 = reshape(%3005, newshape=[-1, 64, 128]) /* ty=Tensor[(16, 64, 128), int8] */;
    transpose(%3006, axes=[0, 2, 1]) /* ty=Tensor[(16, 128, 64), int8] */
  };
  %3012 = %3010(%3009, meta[relay.Constant][32] /* ty=Tensor[(1024), int32] */) /* ty=Tensor[(16, 128, 64), int8] */;
  %3013 = fn (%p0547: Tensor[(16, 128, 64), int8], Primitive=1, hash="730fc163d25a20bf") -> Tensor[(16, 128), int32] {
    %3011 = cast(%p0547, dtype="int32") /* ty=Tensor[(16, 128, 64), int32] */;
    sum(%3011, axis=[-1]) /* ty=Tensor[(16, 128), int32] */
  };
  %3014 = %2992(%2991, meta[relay.Constant][29] /* ty=Tensor[(1024), int32] */) /* ty=Tensor[(16, 128, 64), uint8] */;
  %3015 = %3013(%3012) /* ty=Tensor[(16, 128), int32] */;
  %3016 = fn (%p0505: Tensor[(16, 128, 64), uint8], %p1344: Tensor[(16, 128, 64), int8], %p2228: Tensor[(16, 128), int32], Primitive=1, hash="6fff1eb43119fc91") -> Tensor[(16, 128, 128), int32] {
    %2720 = multiply(128 /* ty=int32 */, %p2228) /* ty=Tensor[(16, 128), int32] */;
    %2721 = nn.batch_matmul(%p0505, %p1344, out_dtype="int32", transpose_b=True) /* ty=Tensor[(16, 128, 128), int32] */;
    %2722 = expand_dims(%2720, axis=1) /* ty=Tensor[(16, 1, 128), int32] */;
    subtract(%2721, %2722) /* ty=Tensor[(16, 128, 128), int32] */
  };
  %3017 = %3016(%3014, %3012, %3015) /* ty=Tensor[(16, 128, 128), int32] */;
  %3018 = fn (%p0504: Tensor[(16, 128, 128), int32], %p1343: Tensor[(1, 1, 1, 128), float32], Primitive=1, hash="94f31727e9eddc54") -> Tensor[(1, 16, 128, 128), float32] {
    %2716 = reshape(%p0504, newshape=[1, 16, 128, 128]) /* ty=Tensor[(1, 16, 128, 128), int32] */;
    %2717 = cast(%2716, dtype="float32") /* ty=Tensor[(1, 16, 128, 128), float32] */;
    %2718 = multiply(%2717, 0.00266737f /* ty=float32 */) /* ty=Tensor[(1, 16, 128, 128), float32] */;
    %2719 = divide(%2718, 8f /* ty=float32 */) /* ty=Tensor[(1, 16, 128, 128), float32] */;
    add(%2719, %p1343) /* ty=Tensor[(1, 16, 128, 128), float32] */
  };
  %3019 = %3018(%3017, %2925) /* ty=Tensor[(1, 16, 128, 128), float32] */;
  %3020 = fn (%p0503: Tensor[(1, 16, 128, 128), float32], Primitive=1, hash="39667036f6b5a41a") -> Tensor[(1, 16, 128, 128), int8] {
    %2712 = nn.softmax(%p0503, axis=3) /* ty=Tensor[(1, 16, 128, 128), float32] */;
    %2713 = divide(%2712, 0.00811722f /* ty=float32 */) /* ty=Tensor[(1, 16, 128, 128), float32] */;
    %2714 = clip(%2713, a_min=-128f, a_max=127f) /* ty=Tensor[(1, 16, 128, 128), float32] */;
    %2715 = round(%2714) /* ty=Tensor[(1, 16, 128, 128), float32] */;
    cast(%2715, dtype="int8") /* ty=Tensor[(1, 16, 128, 128), int8] */
  };
  %3021 = %3020(%3019) /* ty=Tensor[(1, 16, 128, 128), int8] */;
  %3022 = fn (%p0502: Tensor[(1, 16, 128, 128), int8], Primitive=1, hash="1e01d52113b0d8e6") -> Tensor[(16, 128, 128), uint8] {
    %2708 = broadcast_to(%p0502, shape=[1, 16, 128, 128]) /* ty=Tensor[(1, 16, 128, 128), int8] */;
    %2709 = reshape(%2708, newshape=[-1, 128, 128]) /* ty=Tensor[(16, 128, 128), int8] */;
    %2710 = cast(%2709, dtype="int32") /* ty=Tensor[(16, 128, 128), int32] */;
    %2711 = add(%2710, 128 /* ty=int32 */) /* ty=Tensor[(16, 128, 128), int32] */;
    cast(%2711, dtype="uint8") /* ty=Tensor[(16, 128, 128), uint8] */
  };
  %3038 = fn (%p0549: Tensor[(128, 1024), uint8], %p1372: Tensor[(64, 256, 16, 4), int8], %p2245: Tensor[(1, 1024), int32], Primitive=1, hash="a41f099f91287173", weight_layout="NC16n4c") -> Tensor[(128, 1024), int32] {
    %3037 = nn.contrib_dense_pack(%p0549, %p1372, units=None, out_dtype="int32", weight_layout="NC16n4c") /* ty=Tensor[(128, 1024), int32] */;
    subtract(%3037, %p2245) /* ty=Tensor[(128, 1024), int32] */
  };
  %3039 = %3038(%2989, meta[relay.Constant][33] /* ty=Tensor[(64, 256, 16, 4), int8] */, meta[relay.Constant][34] /* ty=Tensor[(1, 1024), int32] */) /* ty=Tensor[(128, 1024), int32] */;
  %3040 = fn (%p0548: Tensor[(128, 1024), int32], %p1371: Tensor[(1024), int32], Primitive=1, hash="fe15566066b9715a") -> Tensor[(16, 64, 128), int8] {
    %3023 = reshape(%p0548, newshape=[1, 128, 1024]) /* ty=Tensor[(1, 128, 1024), int32] */;
    %3024 = add(%3023, %p1371) /* ty=Tensor[(1, 128, 1024), int32] */;
    %3025 = clip(%3024, a_min=-2.14748e+09f, a_max=2.14748e+09f) /* ty=Tensor[(1, 128, 1024), int32] */;
    %3026 = reshape(%3025, newshape=[1, 128, 16, 64]) /* ty=Tensor[(1, 128, 16, 64), int32] */;
    %3027 = transpose(%3026, axes=[0, 2, 1, 3]) /* ty=Tensor[(1, 16, 128, 64), int32] */;
    %3028 = cast(%3027, dtype="float32") /* ty=Tensor[(1, 16, 128, 64), float32] */;
    %3029 = multiply(0.00468979f /* ty=float32 */, %3028) /* ty=Tensor[(1, 16, 128, 64), float32] */;
    %3030 = add(%3029, 0.5f /* ty=float32 */) /* ty=Tensor[(1, 16, 128, 64), float32] */;
    %3031 = floor(%3030) /* ty=Tensor[(1, 16, 128, 64), float32] */;
    %3032 = cast(%3031, dtype="int32") /* ty=Tensor[(1, 16, 128, 64), int32] */;
    %3033 = clip(%3032, a_min=-128f, a_max=127f) /* ty=Tensor[(1, 16, 128, 64), int32] */;
    %3034 = cast(%3033, dtype="int8") /* ty=Tensor[(1, 16, 128, 64), int8] */;
    %3035 = broadcast_to(%3034, shape=[1, 16, 128, 64]) /* ty=Tensor[(1, 16, 128, 64), int8] */;
    %3036 = reshape(%3035, newshape=[-1, 128, 64]) /* ty=Tensor[(16, 128, 64), int8] */;
    transpose(%3036, axes=[0, 2, 1]) /* ty=Tensor[(16, 64, 128), int8] */
  };
  %3042 = %3040(%3039, meta[relay.Constant][35] /* ty=Tensor[(1024), int32] */) /* ty=Tensor[(16, 64, 128), int8] */;
  %3043 = fn (%p0550: Tensor[(16, 64, 128), int8], Primitive=1, hash="01b1b769a1f35abd") -> Tensor[(16, 64), int32] {
    %3041 = cast(%p0550, dtype="int32") /* ty=Tensor[(16, 64, 128), int32] */;
    sum(%3041, axis=[-1]) /* ty=Tensor[(16, 64), int32] */
  };
  %3044 = %3022(%3021) /* ty=Tensor[(16, 128, 128), uint8] */;
  %3045 = %3043(%3042) /* ty=Tensor[(16, 64), int32] */;
  %3046 = fn (%p0501: Tensor[(16, 128, 128), uint8], %p1342: Tensor[(16, 64, 128), int8], %p2227: Tensor[(16, 64), int32], Primitive=1, hash="8d8117dbe1fc815a") -> Tensor[(16, 128, 64), int32] {
    %2705 = multiply(128 /* ty=int32 */, %p2227) /* ty=Tensor[(16, 64), int32] */;
    %2706 = nn.batch_matmul(%p0501, %p1342, out_dtype="int32", transpose_b=True) /* ty=Tensor[(16, 128, 64), int32] */;
    %2707 = expand_dims(%2705, axis=1) /* ty=Tensor[(16, 1, 64), int32] */;
    subtract(%2706, %2707) /* ty=Tensor[(16, 128, 64), int32] */
  };
  %3047 = %3046(%3044, %3042, %3045) /* ty=Tensor[(16, 128, 64), int32] */;
  %3048 = fn (%p0500: Tensor[(16, 128, 64), int32], Primitive=1, hash="5df36617520cd3c2") -> Tensor[(128, 1024), uint8] {
    %2692 = reshape(%p0500, newshape=[1, 16, 128, 64]) /* ty=Tensor[(1, 16, 128, 64), int32] */;
    %2693 = transpose(%2692, axes=[0, 2, 1, 3]) /* ty=Tensor[(1, 128, 16, 64), int32] */;
    %2694 = reshape(%2693, newshape=[1, 128, 1024]) /* ty=Tensor[(1, 128, 1024), int32] */;
    %2695 = cast(%2694, dtype="float32") /* ty=Tensor[(1, 128, 1024), float32] */;
    %2696 = multiply(0.0290116f /* ty=float32 */, %2695) /* ty=Tensor[(1, 128, 1024), float32] */;
    %2697 = add(%2696, 0.5f /* ty=float32 */) /* ty=Tensor[(1, 128, 1024), float32] */;
    %2698 = floor(%2697) /* ty=Tensor[(1, 128, 1024), float32] */;
    %2699 = cast(%2698, dtype="int32") /* ty=Tensor[(1, 128, 1024), int32] */;
    %2700 = clip(%2699, a_min=-128f, a_max=127f) /* ty=Tensor[(1, 128, 1024), int32] */;
    %2701 = cast(%2700, dtype="int8") /* ty=Tensor[(1, 128, 1024), int8] */;
    %2702 = reshape(%2701, newshape=[-1, 1024]) /* ty=Tensor[(128, 1024), int8] */;
    %2703 = cast(%2702, dtype="int32") /* ty=Tensor[(128, 1024), int32] */;
    %2704 = add(%2703, 128 /* ty=int32 */) /* ty=Tensor[(128, 1024), int32] */;
    cast(%2704, dtype="uint8") /* ty=Tensor[(128, 1024), uint8] */
  };
  %3049 = %3048(%3047) /* ty=Tensor[(128, 1024), uint8] */;
  %3050 = fn (%p0499: Tensor[(128, 1024), uint8], %p1341: Tensor[(64, 256, 16, 4), int8], %p2226: Tensor[(1, 1024), int32], Primitive=1, hash="a41f099f91287173", weight_layout="NC16n4c") -> Tensor[(128, 1024), int32] {
    %2691 = nn.contrib_dense_pack(%p0499, %p1341, units=None, out_dtype="int32", weight_layout="NC16n4c") /* ty=Tensor[(128, 1024), int32] */;
    subtract(%2691, %p2226) /* ty=Tensor[(128, 1024), int32] */
  };
  %3051 = %3050(%3049, meta[relay.Constant][36] /* ty=Tensor[(64, 256, 16, 4), int8] */, meta[relay.Constant][37] /* ty=Tensor[(1, 1024), int32] */) /* ty=Tensor[(128, 1024), int32] */;
  %3052 = fn (%p0498: Tensor[(128, 1024), int32], %p1340: Tensor[(1024), int32], %p2225: Tensor[(1, 128, 1024), int8], Primitive=1, hash="2c1d10acb0be217e") -> Tensor[(1, 128, 1024), float32] {
    %2677 = reshape(%p0498, newshape=[1, 128, 1024]) /* ty=Tensor[(1, 128, 1024), int32] */;
    %2678 = add(%2677, %p1340) /* ty=Tensor[(1, 128, 1024), int32] */;
    %2679 = clip(%2678, a_min=-2.14748e+09f, a_max=2.14748e+09f) /* ty=Tensor[(1, 128, 1024), int32] */;
    %2680 = cast(%2679, dtype="float32") /* ty=Tensor[(1, 128, 1024), float32] */;
    %2681 = multiply(0.00712019f /* ty=float32 */, %2680) /* ty=Tensor[(1, 128, 1024), float32] */;
    %2682 = add(%2681, 0.5f /* ty=float32 */) /* ty=Tensor[(1, 128, 1024), float32] */;
    %2683 = floor(%2682) /* ty=Tensor[(1, 128, 1024), float32] */;
    %2684 = cast(%2683, dtype="int32") /* ty=Tensor[(1, 128, 1024), int32] */;
    %2685 = clip(%2684, a_min=-128f, a_max=127f) /* ty=Tensor[(1, 128, 1024), int32] */;
    %2686 = cast(%2685, dtype="int8") /* ty=Tensor[(1, 128, 1024), int8] */;
    %2687 = cast(%2686, dtype="float32") /* ty=Tensor[(1, 128, 1024), float32] */;
    %2688 = cast(%p2225, dtype="float32") /* ty=Tensor[(1, 128, 1024), float32] */;
    %2689 = multiply(%2687, 0.0144237f /* ty=float32 */) /* ty=Tensor[(1, 128, 1024), float32] */;
    %2690 = multiply(%2688, 0.0728465f /* ty=float32 */) /* ty=Tensor[(1, 128, 1024), float32] */;
    add(%2689, %2690) /* ty=Tensor[(1, 128, 1024), float32] */
  };
  %3053 = %3052(%3051, meta[relay.Constant][38] /* ty=Tensor[(1024), int32] */, %2987) /* ty=Tensor[(1, 128, 1024), float32] */;
  %3054 = fn (%p0551: Tensor[(1, 128, 1024), float32], Primitive=1, hash="2c2db313332ac77e") -> Tensor[(1, 128, 1), float32] {
    mean(%p0551, axis=[-1], keepdims=True) /* ty=Tensor[(1, 128, 1), float32] */
  };
  %3055 = %3054(%3053) /* ty=Tensor[(1, 128, 1), float32] */;
  %3056 = fn (%p0497: Tensor[(1, 128, 1024), float32], %p1339: Tensor[(1, 128, 1), float32], Primitive=1, hash="d63ceec029ccca0c") -> Tensor[(1, 128, 1024), float32] {
    subtract(%p0497, %p1339) /* ty=Tensor[(1, 128, 1024), float32] */
  };
  %3057 = %3056(%3053, %3055) /* ty=Tensor[(1, 128, 1024), float32] */;
  %3058 = fn (%p0496: Tensor[(1, 128, 1024), float32], Primitive=1, hash="1f22efdffe5555e9") -> Tensor[(1, 128, 1), float32] {
    %2676 = power(%p0496, 2f /* ty=float32 */) /* ty=Tensor[(1, 128, 1024), float32] */;
    mean(%2676, axis=[-1], keepdims=True) /* ty=Tensor[(1, 128, 1), float32] */
  };
  %3059 = %3058(%3057) /* ty=Tensor[(1, 128, 1), float32] */;
  %3060 = fn (%p0495: Tensor[(1, 128, 1), float32], %p1338: Tensor[(1, 128, 1024), float32], %p2224: Tensor[(1024), float32], %p345: Tensor[(1024), float32], Primitive=1, hash="174718a0f1f8933e") -> Tensor[(1, 128, 1024), int8] {
    %2668 = add(%p0495, 1e-12f /* ty=float32 */) /* ty=Tensor[(1, 128, 1), float32] */;
    %2669 = sqrt(%2668) /* ty=Tensor[(1, 128, 1), float32] */;
    %2670 = divide(%p1338, %2669) /* ty=Tensor[(1, 128, 1024), float32] */;
    %2671 = multiply(%2670, %p2224) /* ty=Tensor[(1, 128, 1024), float32] */;
    %2672 = add(%2671, %p345) /* ty=Tensor[(1, 128, 1024), float32] */;
    %2673 = divide(%2672, 0.378437f /* ty=float32 */) /* ty=Tensor[(1, 128, 1024), float32] */;
    %2674 = clip(%2673, a_min=-128f, a_max=127f) /* ty=Tensor[(1, 128, 1024), float32] */;
    %2675 = round(%2674) /* ty=Tensor[(1, 128, 1024), float32] */;
    cast(%2675, dtype="int8") /* ty=Tensor[(1, 128, 1024), int8] */
  };
  %3061 = %3060(%3059, %3057, meta[relay.Constant][39] /* ty=Tensor[(1024), float32] */, meta[relay.Constant][40] /* ty=Tensor[(1024), float32] */) /* ty=Tensor[(1, 128, 1024), int8] */;
  %3062 = fn (%p0494: Tensor[(1, 128, 1024), int8], Primitive=1, hash="165a7eb60476bae6") -> Tensor[(128, 1024), uint8] {
    %2665 = reshape(%p0494, newshape=[-1, 1024]) /* ty=Tensor[(128, 1024), int8] */;
    %2666 = cast(%2665, dtype="int32") /* ty=Tensor[(128, 1024), int32] */;
    %2667 = add(%2666, 128 /* ty=int32 */) /* ty=Tensor[(128, 1024), int32] */;
    cast(%2667, dtype="uint8") /* ty=Tensor[(128, 1024), uint8] */
  };
  %3063 = %3062(%3061) /* ty=Tensor[(128, 1024), uint8] */;
  %3064 = fn (%p0493: Tensor[(128, 1024), uint8], %p1337: Tensor[(256, 256, 16, 4), int8], %p2223: Tensor[(1, 4096), int32], Primitive=1, hash="7df485f4b3219f11", weight_layout="NC16n4c") -> Tensor[(128, 4096), int32] {
    %2664 = nn.contrib_dense_pack(%p0493, %p1337, units=None, out_dtype="int32", weight_layout="NC16n4c") /* ty=Tensor[(128, 4096), int32] */;
    subtract(%2664, %p2223) /* ty=Tensor[(128, 4096), int32] */
  };
  %3065 = %3064(%3063, meta[relay.Constant][41] /* ty=Tensor[(256, 256, 16, 4), int8] */, meta[relay.Constant][42] /* ty=Tensor[(1, 4096), int32] */) /* ty=Tensor[(128, 4096), int32] */;
  %3066 = fn (%p0492: Tensor[(128, 4096), int32], %p1336: Tensor[(4096), float32], Primitive=1, hash="f9152877d0173418") -> Tensor[(128, 4096), uint8] {
    %2648 = reshape(%p0492, newshape=[1, 128, 4096]) /* ty=Tensor[(1, 128, 4096), int32] */;
    %2649 = cast(%2648, dtype="float32") /* ty=Tensor[(1, 128, 4096), float32] */;
    %2650 = multiply(%2649, 0.000720115f /* ty=float32 */) /* ty=Tensor[(1, 128, 4096), float32] */;
    %2651 = add(%2650, %p1336) /* ty=Tensor[(1, 128, 4096), float32] */;
    %2652 = divide(%2651, 1.41421f /* ty=float32 */) /* ty=Tensor[(1, 128, 4096), float32] */;
    %2653 = erf(%2652) /* ty=Tensor[(1, 128, 4096), float32] */;
    %2654 = multiply(%2651, 0.5f /* ty=float32 */) /* ty=Tensor[(1, 128, 4096), float32] */;
    %2655 = add(%2653, 1f /* ty=float32 */) /* ty=Tensor[(1, 128, 4096), float32] */;
    %2656 = multiply(%2654, %2655) /* ty=Tensor[(1, 128, 4096), float32] */;
    %2657 = divide(%2656, 0.048838f /* ty=float32 */) /* ty=Tensor[(1, 128, 4096), float32] */;
    %2658 = clip(%2657, a_min=-128f, a_max=127f) /* ty=Tensor[(1, 128, 4096), float32] */;
    %2659 = round(%2658) /* ty=Tensor[(1, 128, 4096), float32] */;
    %2660 = cast(%2659, dtype="int8") /* ty=Tensor[(1, 128, 4096), int8] */;
    %2661 = reshape(%2660, newshape=[-1, 4096]) /* ty=Tensor[(128, 4096), int8] */;
    %2662 = cast(%2661, dtype="int32") /* ty=Tensor[(128, 4096), int32] */;
    %2663 = add(%2662, 128 /* ty=int32 */) /* ty=Tensor[(128, 4096), int32] */;
    cast(%2663, dtype="uint8") /* ty=Tensor[(128, 4096), uint8] */
  };
  %3067 = %3066(%3065, meta[relay.Constant][43] /* ty=Tensor[(4096), float32] */) /* ty=Tensor[(128, 4096), uint8] */;
  %3068 = fn (%p0491: Tensor[(128, 4096), uint8], %p1335: Tensor[(64, 1024, 16, 4), int8], %p2222: Tensor[(1, 1024), int32], Primitive=1, hash="bcbc065dbaa86fe4", weight_layout="NC16n4c") -> Tensor[(128, 1024), int32] {
    %2647 = nn.contrib_dense_pack(%p0491, %p1335, units=None, out_dtype="int32", weight_layout="NC16n4c") /* ty=Tensor[(128, 1024), int32] */;
    subtract(%2647, %p2222) /* ty=Tensor[(128, 1024), int32] */
  };
  %3069 = %3068(%3067, meta[relay.Constant][44] /* ty=Tensor[(64, 1024, 16, 4), int8] */, meta[relay.Constant][45] /* ty=Tensor[(1, 1024), int32] */) /* ty=Tensor[(128, 1024), int32] */;
  %3070 = fn (%p0490: Tensor[(128, 1024), int32], %p1334: Tensor[(1024), int32], %p2221: Tensor[(1, 128, 1024), int8], Primitive=1, hash="23333cd2472fc604") -> Tensor[(1, 128, 1024), float32] {
    %2633 = reshape(%p0490, newshape=[1, 128, 1024]) /* ty=Tensor[(1, 128, 1024), int32] */;
    %2634 = add(%2633, %p1334) /* ty=Tensor[(1, 128, 1024), int32] */;
    %2635 = clip(%2634, a_min=-2.14748e+09f, a_max=2.14748e+09f) /* ty=Tensor[(1, 128, 1024), int32] */;
    %2636 = cast(%2635, dtype="float32") /* ty=Tensor[(1, 128, 1024), float32] */;
    %2637 = multiply(0.00634834f /* ty=float32 */, %2636) /* ty=Tensor[(1, 128, 1024), float32] */;
    %2638 = add(%2637, 0.5f /* ty=float32 */) /* ty=Tensor[(1, 128, 1024), float32] */;
    %2639 = floor(%2638) /* ty=Tensor[(1, 128, 1024), float32] */;
    %2640 = cast(%2639, dtype="int32") /* ty=Tensor[(1, 128, 1024), int32] */;
    %2641 = clip(%2640, a_min=-128f, a_max=127f) /* ty=Tensor[(1, 128, 1024), int32] */;
    %2642 = cast(%2641, dtype="int8") /* ty=Tensor[(1, 128, 1024), int8] */;
    %2643 = cast(%2642, dtype="float32") /* ty=Tensor[(1, 128, 1024), float32] */;
    %2644 = cast(%p2221, dtype="float32") /* ty=Tensor[(1, 128, 1024), float32] */;
    %2645 = multiply(%2643, 0.10394f /* ty=float32 */) /* ty=Tensor[(1, 128, 1024), float32] */;
    %2646 = multiply(%2644, 0.378437f /* ty=float32 */) /* ty=Tensor[(1, 128, 1024), float32] */;
    add(%2645, %2646) /* ty=Tensor[(1, 128, 1024), float32] */
  };
  %3071 = %3070(%3069, meta[relay.Constant][46] /* ty=Tensor[(1024), int32] */, %3061) /* ty=Tensor[(1, 128, 1024), float32] */;
  %3072 = fn (%p0552: Tensor[(1, 128, 1024), float32], Primitive=1, hash="2c2db313332ac77e") -> Tensor[(1, 128, 1), float32] {
    mean(%p0552, axis=[-1], keepdims=True) /* ty=Tensor[(1, 128, 1), float32] */
  };
  %3073 = %3072(%3071) /* ty=Tensor[(1, 128, 1), float32] */;
  %3074 = fn (%p0489: Tensor[(1, 128, 1024), float32], %p1333: Tensor[(1, 128, 1), float32], Primitive=1, hash="d63ceec029ccca0c") -> Tensor[(1, 128, 1024), float32] {
    subtract(%p0489, %p1333) /* ty=Tensor[(1, 128, 1024), float32] */
  };
  %3075 = %3074(%3071, %3073) /* ty=Tensor[(1, 128, 1024), float32] */;
  %3076 = fn (%p0488: Tensor[(1, 128, 1024), float32], Primitive=1, hash="1f22efdffe5555e9") -> Tensor[(1, 128, 1), float32] {
    %2632 = power(%p0488, 2f /* ty=float32 */) /* ty=Tensor[(1, 128, 1024), float32] */;
    mean(%2632, axis=[-1], keepdims=True) /* ty=Tensor[(1, 128, 1), float32] */
  };
  %3077 = %3076(%3075) /* ty=Tensor[(1, 128, 1), float32] */;
  %3078 = fn (%p0487: Tensor[(1, 128, 1), float32], %p1332: Tensor[(1, 128, 1024), float32], %p2220: Tensor[(1024), float32], %p344: Tensor[(1024), float32], Primitive=1, hash="ffbfe3fd92bb722d") -> Tensor[(1, 128, 1024), int8] {
    %2624 = add(%p0487, 1e-12f /* ty=float32 */) /* ty=Tensor[(1, 128, 1), float32] */;
    %2625 = sqrt(%2624) /* ty=Tensor[(1, 128, 1), float32] */;
    %2626 = divide(%p1332, %2625) /* ty=Tensor[(1, 128, 1024), float32] */;
    %2627 = multiply(%2626, %p2220) /* ty=Tensor[(1, 128, 1024), float32] */;
    %2628 = add(%2627, %p344) /* ty=Tensor[(1, 128, 1024), float32] */;
    %2629 = divide(%2628, 0.0871962f /* ty=float32 */) /* ty=Tensor[(1, 128, 1024), float32] */;
    %2630 = clip(%2629, a_min=-128f, a_max=127f) /* ty=Tensor[(1, 128, 1024), float32] */;
    %2631 = round(%2630) /* ty=Tensor[(1, 128, 1024), float32] */;
    cast(%2631, dtype="int8") /* ty=Tensor[(1, 128, 1024), int8] */
  };
  %3079 = %3078(%3077, %3075, meta[relay.Constant][47] /* ty=Tensor[(1024), float32] */, meta[relay.Constant][48] /* ty=Tensor[(1024), float32] */) /* ty=Tensor[(1, 128, 1024), int8] */;
  %3080 = fn (%p0486: Tensor[(1, 128, 1024), int8], Primitive=1, hash="165a7eb60476bae6") -> Tensor[(128, 1024), uint8] {
    %2621 = reshape(%p0486, newshape=[-1, 1024]) /* ty=Tensor[(128, 1024), int8] */;
    %2622 = cast(%2621, dtype="int32") /* ty=Tensor[(128, 1024), int32] */;
    %2623 = add(%2622, 128 /* ty=int32 */) /* ty=Tensor[(128, 1024), int32] */;
    cast(%2623, dtype="uint8") /* ty=Tensor[(128, 1024), uint8] */
  };
  %3081 = %3080(%3079) /* ty=Tensor[(128, 1024), uint8] */;
  %3082 = fn (%p0485: Tensor[(128, 1024), uint8], %p1331: Tensor[(64, 256, 16, 4), int8], %p2219: Tensor[(1, 1024), int32], Primitive=1, hash="a41f099f91287173", weight_layout="NC16n4c") -> Tensor[(128, 1024), int32] {
    %2620 = nn.contrib_dense_pack(%p0485, %p1331, units=None, out_dtype="int32", weight_layout="NC16n4c") /* ty=Tensor[(128, 1024), int32] */;
    subtract(%2620, %p2219) /* ty=Tensor[(128, 1024), int32] */
  };
  %3083 = %3082(%3081, meta[relay.Constant][49] /* ty=Tensor[(64, 256, 16, 4), int8] */, meta[relay.Constant][50] /* ty=Tensor[(1, 1024), int32] */) /* ty=Tensor[(128, 1024), int32] */;
  %3084 = fn (%p0484: Tensor[(128, 1024), int32], %p1330: Tensor[(1024), int32], Primitive=1, hash="e34bd219c98598d5") -> Tensor[(16, 128, 64), uint8] {
    %2604 = reshape(%p0484, newshape=[1, 128, 1024]) /* ty=Tensor[(1, 128, 1024), int32] */;
    %2605 = add(%2604, %p1330) /* ty=Tensor[(1, 128, 1024), int32] */;
    %2606 = clip(%2605, a_min=-2.14748e+09f, a_max=2.14748e+09f) /* ty=Tensor[(1, 128, 1024), int32] */;
    %2607 = reshape(%2606, newshape=[1, 128, 16, 64]) /* ty=Tensor[(1, 128, 16, 64), int32] */;
    %2608 = transpose(%2607, axes=[0, 2, 1, 3]) /* ty=Tensor[(1, 16, 128, 64), int32] */;
    %2609 = cast(%2608, dtype="float32") /* ty=Tensor[(1, 16, 128, 64), float32] */;
    %2610 = multiply(0.00394265f /* ty=float32 */, %2609) /* ty=Tensor[(1, 16, 128, 64), float32] */;
    %2611 = add(%2610, 0.5f /* ty=float32 */) /* ty=Tensor[(1, 16, 128, 64), float32] */;
    %2612 = floor(%2611) /* ty=Tensor[(1, 16, 128, 64), float32] */;
    %2613 = cast(%2612, dtype="int32") /* ty=Tensor[(1, 16, 128, 64), int32] */;
    %2614 = clip(%2613, a_min=-128f, a_max=127f) /* ty=Tensor[(1, 16, 128, 64), int32] */;
    %2615 = cast(%2614, dtype="int8") /* ty=Tensor[(1, 16, 128, 64), int8] */;
    %2616 = broadcast_to(%2615, shape=[1, 16, 128, 64]) /* ty=Tensor[(1, 16, 128, 64), int8] */;
    %2617 = reshape(%2616, newshape=[-1, 128, 64]) /* ty=Tensor[(16, 128, 64), int8] */;
    %2618 = cast(%2617, dtype="int32") /* ty=Tensor[(16, 128, 64), int32] */;
    %2619 = add(%2618, 128 /* ty=int32 */) /* ty=Tensor[(16, 128, 64), int32] */;
    cast(%2619, dtype="uint8") /* ty=Tensor[(16, 128, 64), uint8] */
  };
  %3100 = fn (%p0554: Tensor[(128, 1024), uint8], %p1374: Tensor[(64, 256, 16, 4), int8], %p2246: Tensor[(1, 1024), int32], Primitive=1, hash="a41f099f91287173", weight_layout="NC16n4c") -> Tensor[(128, 1024), int32] {
    %3099 = nn.contrib_dense_pack(%p0554, %p1374, units=None, out_dtype="int32", weight_layout="NC16n4c") /* ty=Tensor[(128, 1024), int32] */;
    subtract(%3099, %p2246) /* ty=Tensor[(128, 1024), int32] */
  };
  %3101 = %3100(%3081, meta[relay.Constant][52] /* ty=Tensor[(64, 256, 16, 4), int8] */, meta[relay.Constant][53] /* ty=Tensor[(1, 1024), int32] */) /* ty=Tensor[(128, 1024), int32] */;
  %3102 = fn (%p0553: Tensor[(128, 1024), int32], %p1373: Tensor[(1024), int32], Primitive=1, hash="aa246f932215d7a9") -> Tensor[(16, 128, 64), int8] {
    %3085 = reshape(%p0553, newshape=[1, 128, 1024]) /* ty=Tensor[(1, 128, 1024), int32] */;
    %3086 = add(%3085, %p1373) /* ty=Tensor[(1, 128, 1024), int32] */;
    %3087 = clip(%3086, a_min=-2.14748e+09f, a_max=2.14748e+09f) /* ty=Tensor[(1, 128, 1024), int32] */;
    %3088 = reshape(%3087, newshape=[1, 128, 16, 64]) /* ty=Tensor[(1, 128, 16, 64), int32] */;
    %3089 = transpose(%3088, axes=[0, 2, 3, 1]) /* ty=Tensor[(1, 16, 64, 128), int32] */;
    %3090 = cast(%3089, dtype="float32") /* ty=Tensor[(1, 16, 64, 128), float32] */;
    %3091 = multiply(0.00394265f /* ty=float32 */, %3090) /* ty=Tensor[(1, 16, 64, 128), float32] */;
    %3092 = add(%3091, 0.5f /* ty=float32 */) /* ty=Tensor[(1, 16, 64, 128), float32] */;
    %3093 = floor(%3092) /* ty=Tensor[(1, 16, 64, 128), float32] */;
    %3094 = cast(%3093, dtype="int32") /* ty=Tensor[(1, 16, 64, 128), int32] */;
    %3095 = clip(%3094, a_min=-128f, a_max=127f) /* ty=Tensor[(1, 16, 64, 128), int32] */;
    %3096 = cast(%3095, dtype="int8") /* ty=Tensor[(1, 16, 64, 128), int8] */;
    %3097 = broadcast_to(%3096, shape=[1, 16, 64, 128]) /* ty=Tensor[(1, 16, 64, 128), int8] */;
    %3098 = reshape(%3097, newshape=[-1, 64, 128]) /* ty=Tensor[(16, 64, 128), int8] */;
    transpose(%3098, axes=[0, 2, 1]) /* ty=Tensor[(16, 128, 64), int8] */
  };
  %3104 = %3102(%3101, meta[relay.Constant][54] /* ty=Tensor[(1024), int32] */) /* ty=Tensor[(16, 128, 64), int8] */;
  %3105 = fn (%p0555: Tensor[(16, 128, 64), int8], Primitive=1, hash="730fc163d25a20bf") -> Tensor[(16, 128), int32] {
    %3103 = cast(%p0555, dtype="int32") /* ty=Tensor[(16, 128, 64), int32] */;
    sum(%3103, axis=[-1]) /* ty=Tensor[(16, 128), int32] */
  };
  %3106 = %3084(%3083, meta[relay.Constant][51] /* ty=Tensor[(1024), int32] */) /* ty=Tensor[(16, 128, 64), uint8] */;
  %3107 = %3105(%3104) /* ty=Tensor[(16, 128), int32] */;
  %3108 = fn (%p0483: Tensor[(16, 128, 64), uint8], %p1329: Tensor[(16, 128, 64), int8], %p2218: Tensor[(16, 128), int32], Primitive=1, hash="6fff1eb43119fc91") -> Tensor[(16, 128, 128), int32] {
    %2601 = multiply(128 /* ty=int32 */, %p2218) /* ty=Tensor[(16, 128), int32] */;
    %2602 = nn.batch_matmul(%p0483, %p1329, out_dtype="int32", transpose_b=True) /* ty=Tensor[(16, 128, 128), int32] */;
    %2603 = expand_dims(%2601, axis=1) /* ty=Tensor[(16, 1, 128), int32] */;
    subtract(%2602, %2603) /* ty=Tensor[(16, 128, 128), int32] */
  };
  %3109 = %3108(%3106, %3104, %3107) /* ty=Tensor[(16, 128, 128), int32] */;
  %3110 = fn (%p0482: Tensor[(16, 128, 128), int32], %p1328: Tensor[(1, 1, 1, 128), float32], Primitive=1, hash="fdbee054ecc2caaf") -> Tensor[(1, 16, 128, 128), float32] {
    %2597 = reshape(%p0482, newshape=[1, 16, 128, 128]) /* ty=Tensor[(1, 16, 128, 128), int32] */;
    %2598 = cast(%2597, dtype="float32") /* ty=Tensor[(1, 16, 128, 128), float32] */;
    %2599 = multiply(%2598, 0.00331f /* ty=float32 */) /* ty=Tensor[(1, 16, 128, 128), float32] */;
    %2600 = divide(%2599, 8f /* ty=float32 */) /* ty=Tensor[(1, 16, 128, 128), float32] */;
    add(%2600, %p1328) /* ty=Tensor[(1, 16, 128, 128), float32] */
  };
  %3111 = %3110(%3109, %2925) /* ty=Tensor[(1, 16, 128, 128), float32] */;
  %3112 = fn (%p0481: Tensor[(1, 16, 128, 128), float32], Primitive=1, hash="7b27a0ff1671dd9e") -> Tensor[(1, 16, 128, 128), int8] {
    %2593 = nn.softmax(%p0481, axis=3) /* ty=Tensor[(1, 16, 128, 128), float32] */;
    %2594 = divide(%2593, 0.0078178f /* ty=float32 */) /* ty=Tensor[(1, 16, 128, 128), float32] */;
    %2595 = clip(%2594, a_min=-128f, a_max=127f) /* ty=Tensor[(1, 16, 128, 128), float32] */;
    %2596 = round(%2595) /* ty=Tensor[(1, 16, 128, 128), float32] */;
    cast(%2596, dtype="int8") /* ty=Tensor[(1, 16, 128, 128), int8] */
  };
  %3113 = %3112(%3111) /* ty=Tensor[(1, 16, 128, 128), int8] */;
  %3114 = fn (%p0480: Tensor[(1, 16, 128, 128), int8], Primitive=1, hash="1e01d52113b0d8e6") -> Tensor[(16, 128, 128), uint8] {
    %2589 = broadcast_to(%p0480, shape=[1, 16, 128, 128]) /* ty=Tensor[(1, 16, 128, 128), int8] */;
    %2590 = reshape(%2589, newshape=[-1, 128, 128]) /* ty=Tensor[(16, 128, 128), int8] */;
    %2591 = cast(%2590, dtype="int32") /* ty=Tensor[(16, 128, 128), int32] */;
    %2592 = add(%2591, 128 /* ty=int32 */) /* ty=Tensor[(16, 128, 128), int32] */;
    cast(%2592, dtype="uint8") /* ty=Tensor[(16, 128, 128), uint8] */
  };
  %3130 = fn (%p0557: Tensor[(128, 1024), uint8], %p1376: Tensor[(64, 256, 16, 4), int8], %p2247: Tensor[(1, 1024), int32], Primitive=1, hash="a41f099f91287173", weight_layout="NC16n4c") -> Tensor[(128, 1024), int32] {
    %3129 = nn.contrib_dense_pack(%p0557, %p1376, units=None, out_dtype="int32", weight_layout="NC16n4c") /* ty=Tensor[(128, 1024), int32] */;
    subtract(%3129, %p2247) /* ty=Tensor[(128, 1024), int32] */
  };
  %3131 = %3130(%3081, meta[relay.Constant][55] /* ty=Tensor[(64, 256, 16, 4), int8] */, meta[relay.Constant][56] /* ty=Tensor[(1, 1024), int32] */) /* ty=Tensor[(128, 1024), int32] */;
  %3132 = fn (%p0556: Tensor[(128, 1024), int32], %p1375: Tensor[(1024), int32], Primitive=1, hash="85e7c6801cd30b34") -> Tensor[(16, 64, 128), int8] {
    %3115 = reshape(%p0556, newshape=[1, 128, 1024]) /* ty=Tensor[(1, 128, 1024), int32] */;
    %3116 = add(%3115, %p1375) /* ty=Tensor[(1, 128, 1024), int32] */;
    %3117 = clip(%3116, a_min=-2.14748e+09f, a_max=2.14748e+09f) /* ty=Tensor[(1, 128, 1024), int32] */;
    %3118 = reshape(%3117, newshape=[1, 128, 16, 64]) /* ty=Tensor[(1, 128, 16, 64), int32] */;
    %3119 = transpose(%3118, axes=[0, 2, 1, 3]) /* ty=Tensor[(1, 16, 128, 64), int32] */;
    %3120 = cast(%3119, dtype="float32") /* ty=Tensor[(1, 16, 128, 64), float32] */;
    %3121 = multiply(0.00394265f /* ty=float32 */, %3120) /* ty=Tensor[(1, 16, 128, 64), float32] */;
    %3122 = add(%3121, 0.5f /* ty=float32 */) /* ty=Tensor[(1, 16, 128, 64), float32] */;
    %3123 = floor(%3122) /* ty=Tensor[(1, 16, 128, 64), float32] */;
    %3124 = cast(%3123, dtype="int32") /* ty=Tensor[(1, 16, 128, 64), int32] */;
    %3125 = clip(%3124, a_min=-128f, a_max=127f) /* ty=Tensor[(1, 16, 128, 64), int32] */;
    %3126 = cast(%3125, dtype="int8") /* ty=Tensor[(1, 16, 128, 64), int8] */;
    %3127 = broadcast_to(%3126, shape=[1, 16, 128, 64]) /* ty=Tensor[(1, 16, 128, 64), int8] */;
    %3128 = reshape(%3127, newshape=[-1, 128, 64]) /* ty=Tensor[(16, 128, 64), int8] */;
    transpose(%3128, axes=[0, 2, 1]) /* ty=Tensor[(16, 64, 128), int8] */
  };
  %3134 = %3132(%3131, meta[relay.Constant][57] /* ty=Tensor[(1024), int32] */) /* ty=Tensor[(16, 64, 128), int8] */;
  %3135 = fn (%p0558: Tensor[(16, 64, 128), int8], Primitive=1, hash="01b1b769a1f35abd") -> Tensor[(16, 64), int32] {
    %3133 = cast(%p0558, dtype="int32") /* ty=Tensor[(16, 64, 128), int32] */;
    sum(%3133, axis=[-1]) /* ty=Tensor[(16, 64), int32] */
  };
  %3136 = %3114(%3113) /* ty=Tensor[(16, 128, 128), uint8] */;
  %3137 = %3135(%3134) /* ty=Tensor[(16, 64), int32] */;
  %3138 = fn (%p0479: Tensor[(16, 128, 128), uint8], %p1327: Tensor[(16, 64, 128), int8], %p2217: Tensor[(16, 64), int32], Primitive=1, hash="8d8117dbe1fc815a") -> Tensor[(16, 128, 64), int32] {
    %2586 = multiply(128 /* ty=int32 */, %p2217) /* ty=Tensor[(16, 64), int32] */;
    %2587 = nn.batch_matmul(%p0479, %p1327, out_dtype="int32", transpose_b=True) /* ty=Tensor[(16, 128, 64), int32] */;
    %2588 = expand_dims(%2586, axis=1) /* ty=Tensor[(16, 1, 64), int32] */;
    subtract(%2587, %2588) /* ty=Tensor[(16, 128, 64), int32] */
  };
  %3139 = %3138(%3136, %3134, %3137) /* ty=Tensor[(16, 128, 64), int32] */;
  %3140 = fn (%p0478: Tensor[(16, 128, 64), int32], Primitive=1, hash="0042ac59fb1ae70f") -> Tensor[(128, 1024), uint8] {
    %2573 = reshape(%p0478, newshape=[1, 16, 128, 64]) /* ty=Tensor[(1, 16, 128, 64), int32] */;
    %2574 = transpose(%2573, axes=[0, 2, 1, 3]) /* ty=Tensor[(1, 128, 16, 64), int32] */;
    %2575 = reshape(%2574, newshape=[1, 128, 1024]) /* ty=Tensor[(1, 128, 1024), int32] */;
    %2576 = cast(%2575, dtype="float32") /* ty=Tensor[(1, 128, 1024), float32] */;
    %2577 = multiply(0.0329001f /* ty=float32 */, %2576) /* ty=Tensor[(1, 128, 1024), float32] */;
    %2578 = add(%2577, 0.5f /* ty=float32 */) /* ty=Tensor[(1, 128, 1024), float32] */;
    %2579 = floor(%2578) /* ty=Tensor[(1, 128, 1024), float32] */;
    %2580 = cast(%2579, dtype="int32") /* ty=Tensor[(1, 128, 1024), int32] */;
    %2581 = clip(%2580, a_min=-128f, a_max=127f) /* ty=Tensor[(1, 128, 1024), int32] */;
    %2582 = cast(%2581, dtype="int8") /* ty=Tensor[(1, 128, 1024), int8] */;
    %2583 = reshape(%2582, newshape=[-1, 1024]) /* ty=Tensor[(128, 1024), int8] */;
    %2584 = cast(%2583, dtype="int32") /* ty=Tensor[(128, 1024), int32] */;
    %2585 = add(%2584, 128 /* ty=int32 */) /* ty=Tensor[(128, 1024), int32] */;
    cast(%2585, dtype="uint8") /* ty=Tensor[(128, 1024), uint8] */
  };
  %3141 = %3140(%3139) /* ty=Tensor[(128, 1024), uint8] */;
  %3142 = fn (%p0477: Tensor[(128, 1024), uint8], %p1326: Tensor[(64, 256, 16, 4), int8], %p2216: Tensor[(1, 1024), int32], Primitive=1, hash="a41f099f91287173", weight_layout="NC16n4c") -> Tensor[(128, 1024), int32] {
    %2572 = nn.contrib_dense_pack(%p0477, %p1326, units=None, out_dtype="int32", weight_layout="NC16n4c") /* ty=Tensor[(128, 1024), int32] */;
    subtract(%2572, %p2216) /* ty=Tensor[(128, 1024), int32] */
  };
  %3143 = %3142(%3141, meta[relay.Constant][58] /* ty=Tensor[(64, 256, 16, 4), int8] */, meta[relay.Constant][59] /* ty=Tensor[(1, 1024), int32] */) /* ty=Tensor[(128, 1024), int32] */;
  %3144 = fn (%p0476: Tensor[(128, 1024), int32], %p1325: Tensor[(1024), int32], %p2215: Tensor[(1, 128, 1024), int8], Primitive=1, hash="579b5c486283a647") -> Tensor[(1, 128, 1024), float32] {
    %2558 = reshape(%p0476, newshape=[1, 128, 1024]) /* ty=Tensor[(1, 128, 1024), int32] */;
    %2559 = add(%2558, %p1325) /* ty=Tensor[(1, 128, 1024), int32] */;
    %2560 = clip(%2559, a_min=-2.14748e+09f, a_max=2.14748e+09f) /* ty=Tensor[(1, 128, 1024), int32] */;
    %2561 = cast(%2560, dtype="float32") /* ty=Tensor[(1, 128, 1024), float32] */;
    %2562 = multiply(0.00528628f /* ty=float32 */, %2561) /* ty=Tensor[(1, 128, 1024), float32] */;
    %2563 = add(%2562, 0.5f /* ty=float32 */) /* ty=Tensor[(1, 128, 1024), float32] */;
    %2564 = floor(%2563) /* ty=Tensor[(1, 128, 1024), float32] */;
    %2565 = cast(%2564, dtype="int32") /* ty=Tensor[(1, 128, 1024), int32] */;
    %2566 = clip(%2565, a_min=-128f, a_max=127f) /* ty=Tensor[(1, 128, 1024), int32] */;
    %2567 = cast(%2566, dtype="int8") /* ty=Tensor[(1, 128, 1024), int8] */;
    %2568 = cast(%2567, dtype="float32") /* ty=Tensor[(1, 128, 1024), float32] */;
    %2569 = cast(%p2215, dtype="float32") /* ty=Tensor[(1, 128, 1024), float32] */;
    %2570 = multiply(%2568, 0.00873957f /* ty=float32 */) /* ty=Tensor[(1, 128, 1024), float32] */;
    %2571 = multiply(%2569, 0.0871962f /* ty=float32 */) /* ty=Tensor[(1, 128, 1024), float32] */;
    add(%2570, %2571) /* ty=Tensor[(1, 128, 1024), float32] */
  };
  %3145 = %3144(%3143, meta[relay.Constant][60] /* ty=Tensor[(1024), int32] */, %3079) /* ty=Tensor[(1, 128, 1024), float32] */;
  %3146 = fn (%p0559: Tensor[(1, 128, 1024), float32], Primitive=1, hash="2c2db313332ac77e") -> Tensor[(1, 128, 1), float32] {
    mean(%p0559, axis=[-1], keepdims=True) /* ty=Tensor[(1, 128, 1), float32] */
  };
  %3147 = %3146(%3145) /* ty=Tensor[(1, 128, 1), float32] */;
  %3148 = fn (%p0475: Tensor[(1, 128, 1024), float32], %p1324: Tensor[(1, 128, 1), float32], Primitive=1, hash="d63ceec029ccca0c") -> Tensor[(1, 128, 1024), float32] {
    subtract(%p0475, %p1324) /* ty=Tensor[(1, 128, 1024), float32] */
  };
  %3149 = %3148(%3145, %3147) /* ty=Tensor[(1, 128, 1024), float32] */;
  %3150 = fn (%p0474: Tensor[(1, 128, 1024), float32], Primitive=1, hash="1f22efdffe5555e9") -> Tensor[(1, 128, 1), float32] {
    %2557 = power(%p0474, 2f /* ty=float32 */) /* ty=Tensor[(1, 128, 1024), float32] */;
    mean(%2557, axis=[-1], keepdims=True) /* ty=Tensor[(1, 128, 1), float32] */
  };
  %3151 = %3150(%3149) /* ty=Tensor[(1, 128, 1), float32] */;
  %3152 = fn (%p0473: Tensor[(1, 128, 1), float32], %p1323: Tensor[(1, 128, 1024), float32], %p2214: Tensor[(1024), float32], %p343: Tensor[(1024), float32], Primitive=1, hash="791ef6ca5c21b097") -> Tensor[(1, 128, 1024), int8] {
    %2549 = add(%p0473, 1e-12f /* ty=float32 */) /* ty=Tensor[(1, 128, 1), float32] */;
    %2550 = sqrt(%2549) /* ty=Tensor[(1, 128, 1), float32] */;
    %2551 = divide(%p1323, %2550) /* ty=Tensor[(1, 128, 1024), float32] */;
    %2552 = multiply(%2551, %p2214) /* ty=Tensor[(1, 128, 1024), float32] */;
    %2553 = add(%2552, %p343) /* ty=Tensor[(1, 128, 1024), float32] */;
    %2554 = divide(%2553, 0.412015f /* ty=float32 */) /* ty=Tensor[(1, 128, 1024), float32] */;
    %2555 = clip(%2554, a_min=-128f, a_max=127f) /* ty=Tensor[(1, 128, 1024), float32] */;
    %2556 = round(%2555) /* ty=Tensor[(1, 128, 1024), float32] */;
    cast(%2556, dtype="int8") /* ty=Tensor[(1, 128, 1024), int8] */
  };
  %3153 = %3152(%3151, %3149, meta[relay.Constant][61] /* ty=Tensor[(1024), float32] */, meta[relay.Constant][62] /* ty=Tensor[(1024), float32] */) /* ty=Tensor[(1, 128, 1024), int8] */;
  %3154 = fn (%p0472: Tensor[(1, 128, 1024), int8], Primitive=1, hash="165a7eb60476bae6") -> Tensor[(128, 1024), uint8] {
    %2546 = reshape(%p0472, newshape=[-1, 1024]) /* ty=Tensor[(128, 1024), int8] */;
    %2547 = cast(%2546, dtype="int32") /* ty=Tensor[(128, 1024), int32] */;
    %2548 = add(%2547, 128 /* ty=int32 */) /* ty=Tensor[(128, 1024), int32] */;
    cast(%2548, dtype="uint8") /* ty=Tensor[(128, 1024), uint8] */
  };
  %3155 = %3154(%3153) /* ty=Tensor[(128, 1024), uint8] */;
  %3156 = fn (%p0471: Tensor[(128, 1024), uint8], %p1322: Tensor[(256, 256, 16, 4), int8], %p2213: Tensor[(1, 4096), int32], Primitive=1, hash="7df485f4b3219f11", weight_layout="NC16n4c") -> Tensor[(128, 4096), int32] {
    %2545 = nn.contrib_dense_pack(%p0471, %p1322, units=None, out_dtype="int32", weight_layout="NC16n4c") /* ty=Tensor[(128, 4096), int32] */;
    subtract(%2545, %p2213) /* ty=Tensor[(128, 4096), int32] */
  };
  %3157 = %3156(%3155, meta[relay.Constant][63] /* ty=Tensor[(256, 256, 16, 4), int8] */, meta[relay.Constant][64] /* ty=Tensor[(1, 4096), int32] */) /* ty=Tensor[(128, 4096), int32] */;
  %3158 = fn (%p0470: Tensor[(128, 4096), int32], %p1321: Tensor[(4096), float32], Primitive=1, hash="830a6603341d4330") -> Tensor[(128, 4096), uint8] {
    %2529 = reshape(%p0470, newshape=[1, 128, 4096]) /* ty=Tensor[(1, 128, 4096), int32] */;
    %2530 = cast(%2529, dtype="float32") /* ty=Tensor[(1, 128, 4096), float32] */;
    %2531 = multiply(%2530, 0.000816956f /* ty=float32 */) /* ty=Tensor[(1, 128, 4096), float32] */;
    %2532 = add(%2531, %p1321) /* ty=Tensor[(1, 128, 4096), float32] */;
    %2533 = divide(%2532, 1.41421f /* ty=float32 */) /* ty=Tensor[(1, 128, 4096), float32] */;
    %2534 = erf(%2533) /* ty=Tensor[(1, 128, 4096), float32] */;
    %2535 = multiply(%2532, 0.5f /* ty=float32 */) /* ty=Tensor[(1, 128, 4096), float32] */;
    %2536 = add(%2534, 1f /* ty=float32 */) /* ty=Tensor[(1, 128, 4096), float32] */;
    %2537 = multiply(%2535, %2536) /* ty=Tensor[(1, 128, 4096), float32] */;
    %2538 = divide(%2537, 0.0339606f /* ty=float32 */) /* ty=Tensor[(1, 128, 4096), float32] */;
    %2539 = clip(%2538, a_min=-128f, a_max=127f) /* ty=Tensor[(1, 128, 4096), float32] */;
    %2540 = round(%2539) /* ty=Tensor[(1, 128, 4096), float32] */;
    %2541 = cast(%2540, dtype="int8") /* ty=Tensor[(1, 128, 4096), int8] */;
    %2542 = reshape(%2541, newshape=[-1, 4096]) /* ty=Tensor[(128, 4096), int8] */;
    %2543 = cast(%2542, dtype="int32") /* ty=Tensor[(128, 4096), int32] */;
    %2544 = add(%2543, 128 /* ty=int32 */) /* ty=Tensor[(128, 4096), int32] */;
    cast(%2544, dtype="uint8") /* ty=Tensor[(128, 4096), uint8] */
  };
  %3159 = %3158(%3157, meta[relay.Constant][65] /* ty=Tensor[(4096), float32] */) /* ty=Tensor[(128, 4096), uint8] */;
  %3160 = fn (%p0469: Tensor[(128, 4096), uint8], %p1320: Tensor[(64, 1024, 16, 4), int8], %p2212: Tensor[(1, 1024), int32], Primitive=1, hash="bcbc065dbaa86fe4", weight_layout="NC16n4c") -> Tensor[(128, 1024), int32] {
    %2528 = nn.contrib_dense_pack(%p0469, %p1320, units=None, out_dtype="int32", weight_layout="NC16n4c") /* ty=Tensor[(128, 1024), int32] */;
    subtract(%2528, %p2212) /* ty=Tensor[(128, 1024), int32] */
  };
  %3161 = %3160(%3159, meta[relay.Constant][66] /* ty=Tensor[(64, 1024, 16, 4), int8] */, meta[relay.Constant][67] /* ty=Tensor[(1, 1024), int32] */) /* ty=Tensor[(128, 1024), int32] */;
  %3162 = fn (%p0468: Tensor[(128, 1024), int32], %p1319: Tensor[(1024), int32], %p2211: Tensor[(1, 128, 1024), int8], Primitive=1, hash="9576d945fddb39e4") -> Tensor[(1, 128, 1024), float32] {
    %2514 = reshape(%p0468, newshape=[1, 128, 1024]) /* ty=Tensor[(1, 128, 1024), int32] */;
    %2515 = add(%2514, %p1319) /* ty=Tensor[(1, 128, 1024), int32] */;
    %2516 = clip(%2515, a_min=-2.14748e+09f, a_max=2.14748e+09f) /* ty=Tensor[(1, 128, 1024), int32] */;
    %2517 = cast(%2516, dtype="float32") /* ty=Tensor[(1, 128, 1024), float32] */;
    %2518 = multiply(0.00666442f /* ty=float32 */, %2517) /* ty=Tensor[(1, 128, 1024), float32] */;
    %2519 = add(%2518, 0.5f /* ty=float32 */) /* ty=Tensor[(1, 128, 1024), float32] */;
    %2520 = floor(%2519) /* ty=Tensor[(1, 128, 1024), float32] */;
    %2521 = cast(%2520, dtype="int32") /* ty=Tensor[(1, 128, 1024), int32] */;
    %2522 = clip(%2521, a_min=-128f, a_max=127f) /* ty=Tensor[(1, 128, 1024), int32] */;
    %2523 = cast(%2522, dtype="int8") /* ty=Tensor[(1, 128, 1024), int8] */;
    %2524 = cast(%2523, dtype="float32") /* ty=Tensor[(1, 128, 1024), float32] */;
    %2525 = cast(%p2211, dtype="float32") /* ty=Tensor[(1, 128, 1024), float32] */;
    %2526 = multiply(%2524, 0.0619893f /* ty=float32 */) /* ty=Tensor[(1, 128, 1024), float32] */;
    %2527 = multiply(%2525, 0.412015f /* ty=float32 */) /* ty=Tensor[(1, 128, 1024), float32] */;
    add(%2526, %2527) /* ty=Tensor[(1, 128, 1024), float32] */
  };
  %3163 = %3162(%3161, meta[relay.Constant][68] /* ty=Tensor[(1024), int32] */, %3153) /* ty=Tensor[(1, 128, 1024), float32] */;
  %3164 = fn (%p0560: Tensor[(1, 128, 1024), float32], Primitive=1, hash="2c2db313332ac77e") -> Tensor[(1, 128, 1), float32] {
    mean(%p0560, axis=[-1], keepdims=True) /* ty=Tensor[(1, 128, 1), float32] */
  };
  %3165 = %3164(%3163) /* ty=Tensor[(1, 128, 1), float32] */;
  %3166 = fn (%p0467: Tensor[(1, 128, 1024), float32], %p1318: Tensor[(1, 128, 1), float32], Primitive=1, hash="d63ceec029ccca0c") -> Tensor[(1, 128, 1024), float32] {
    subtract(%p0467, %p1318) /* ty=Tensor[(1, 128, 1024), float32] */
  };
  %3167 = %3166(%3163, %3165) /* ty=Tensor[(1, 128, 1024), float32] */;
  %3168 = fn (%p0466: Tensor[(1, 128, 1024), float32], Primitive=1, hash="1f22efdffe5555e9") -> Tensor[(1, 128, 1), float32] {
    %2513 = power(%p0466, 2f /* ty=float32 */) /* ty=Tensor[(1, 128, 1024), float32] */;
    mean(%2513, axis=[-1], keepdims=True) /* ty=Tensor[(1, 128, 1), float32] */
  };
  %3169 = %3168(%3167) /* ty=Tensor[(1, 128, 1), float32] */;
  %3170 = fn (%p0465: Tensor[(1, 128, 1), float32], %p1317: Tensor[(1, 128, 1024), float32], %p2210: Tensor[(1024), float32], %p342: Tensor[(1024), float32], Primitive=1, hash="d7623c5e85abf805") -> Tensor[(1, 128, 1024), int8] {
    %2505 = add(%p0465, 1e-12f /* ty=float32 */) /* ty=Tensor[(1, 128, 1), float32] */;
    %2506 = sqrt(%2505) /* ty=Tensor[(1, 128, 1), float32] */;
    %2507 = divide(%p1317, %2506) /* ty=Tensor[(1, 128, 1024), float32] */;
    %2508 = multiply(%2507, %p2210) /* ty=Tensor[(1, 128, 1024), float32] */;
    %2509 = add(%2508, %p342) /* ty=Tensor[(1, 128, 1024), float32] */;
    %2510 = divide(%2509, 0.0925139f /* ty=float32 */) /* ty=Tensor[(1, 128, 1024), float32] */;
    %2511 = clip(%2510, a_min=-128f, a_max=127f) /* ty=Tensor[(1, 128, 1024), float32] */;
    %2512 = round(%2511) /* ty=Tensor[(1, 128, 1024), float32] */;
    cast(%2512, dtype="int8") /* ty=Tensor[(1, 128, 1024), int8] */
  };
  %3171 = %3170(%3169, %3167, meta[relay.Constant][69] /* ty=Tensor[(1024), float32] */, meta[relay.Constant][70] /* ty=Tensor[(1024), float32] */) /* ty=Tensor[(1, 128, 1024), int8] */;
  %3172 = fn (%p0464: Tensor[(1, 128, 1024), int8], Primitive=1, hash="165a7eb60476bae6") -> Tensor[(128, 1024), uint8] {
    %2502 = reshape(%p0464, newshape=[-1, 1024]) /* ty=Tensor[(128, 1024), int8] */;
    %2503 = cast(%2502, dtype="int32") /* ty=Tensor[(128, 1024), int32] */;
    %2504 = add(%2503, 128 /* ty=int32 */) /* ty=Tensor[(128, 1024), int32] */;
    cast(%2504, dtype="uint8") /* ty=Tensor[(128, 1024), uint8] */
  };
  %3173 = %3172(%3171) /* ty=Tensor[(128, 1024), uint8] */;
  %3174 = fn (%p0463: Tensor[(128, 1024), uint8], %p1316: Tensor[(64, 256, 16, 4), int8], %p2209: Tensor[(1, 1024), int32], Primitive=1, hash="a41f099f91287173", weight_layout="NC16n4c") -> Tensor[(128, 1024), int32] {
    %2501 = nn.contrib_dense_pack(%p0463, %p1316, units=None, out_dtype="int32", weight_layout="NC16n4c") /* ty=Tensor[(128, 1024), int32] */;
    subtract(%2501, %p2209) /* ty=Tensor[(128, 1024), int32] */
  };
  %3175 = %3174(%3173, meta[relay.Constant][71] /* ty=Tensor[(64, 256, 16, 4), int8] */, meta[relay.Constant][72] /* ty=Tensor[(1, 1024), int32] */) /* ty=Tensor[(128, 1024), int32] */;
  %3176 = fn (%p0462: Tensor[(128, 1024), int32], %p1315: Tensor[(1024), int32], Primitive=1, hash="fd6cf5524138f8e4") -> Tensor[(16, 128, 64), uint8] {
    %2485 = reshape(%p0462, newshape=[1, 128, 1024]) /* ty=Tensor[(1, 128, 1024), int32] */;
    %2486 = add(%2485, %p1315) /* ty=Tensor[(1, 128, 1024), int32] */;
    %2487 = clip(%2486, a_min=-2.14748e+09f, a_max=2.14748e+09f) /* ty=Tensor[(1, 128, 1024), int32] */;
    %2488 = reshape(%2487, newshape=[1, 128, 16, 64]) /* ty=Tensor[(1, 128, 16, 64), int32] */;
    %2489 = transpose(%2488, axes=[0, 2, 1, 3]) /* ty=Tensor[(1, 16, 128, 64), int32] */;
    %2490 = cast(%2489, dtype="float32") /* ty=Tensor[(1, 16, 128, 64), float32] */;
    %2491 = multiply(0.00400565f /* ty=float32 */, %2490) /* ty=Tensor[(1, 16, 128, 64), float32] */;
    %2492 = add(%2491, 0.5f /* ty=float32 */) /* ty=Tensor[(1, 16, 128, 64), float32] */;
    %2493 = floor(%2492) /* ty=Tensor[(1, 16, 128, 64), float32] */;
    %2494 = cast(%2493, dtype="int32") /* ty=Tensor[(1, 16, 128, 64), int32] */;
    %2495 = clip(%2494, a_min=-128f, a_max=127f) /* ty=Tensor[(1, 16, 128, 64), int32] */;
    %2496 = cast(%2495, dtype="int8") /* ty=Tensor[(1, 16, 128, 64), int8] */;
    %2497 = broadcast_to(%2496, shape=[1, 16, 128, 64]) /* ty=Tensor[(1, 16, 128, 64), int8] */;
    %2498 = reshape(%2497, newshape=[-1, 128, 64]) /* ty=Tensor[(16, 128, 64), int8] */;
    %2499 = cast(%2498, dtype="int32") /* ty=Tensor[(16, 128, 64), int32] */;
    %2500 = add(%2499, 128 /* ty=int32 */) /* ty=Tensor[(16, 128, 64), int32] */;
    cast(%2500, dtype="uint8") /* ty=Tensor[(16, 128, 64), uint8] */
  };
  %3192 = fn (%p0562: Tensor[(128, 1024), uint8], %p1378: Tensor[(64, 256, 16, 4), int8], %p2248: Tensor[(1, 1024), int32], Primitive=1, hash="a41f099f91287173", weight_layout="NC16n4c") -> Tensor[(128, 1024), int32] {
    %3191 = nn.contrib_dense_pack(%p0562, %p1378, units=None, out_dtype="int32", weight_layout="NC16n4c") /* ty=Tensor[(128, 1024), int32] */;
    subtract(%3191, %p2248) /* ty=Tensor[(128, 1024), int32] */
  };
  %3193 = %3192(%3173, meta[relay.Constant][74] /* ty=Tensor[(64, 256, 16, 4), int8] */, meta[relay.Constant][75] /* ty=Tensor[(1, 1024), int32] */) /* ty=Tensor[(128, 1024), int32] */;
  %3194 = fn (%p0561: Tensor[(128, 1024), int32], %p1377: Tensor[(1024), int32], Primitive=1, hash="0833676fa5d72d18") -> Tensor[(16, 128, 64), int8] {
    %3177 = reshape(%p0561, newshape=[1, 128, 1024]) /* ty=Tensor[(1, 128, 1024), int32] */;
    %3178 = add(%3177, %p1377) /* ty=Tensor[(1, 128, 1024), int32] */;
    %3179 = clip(%3178, a_min=-2.14748e+09f, a_max=2.14748e+09f) /* ty=Tensor[(1, 128, 1024), int32] */;
    %3180 = reshape(%3179, newshape=[1, 128, 16, 64]) /* ty=Tensor[(1, 128, 16, 64), int32] */;
    %3181 = transpose(%3180, axes=[0, 2, 3, 1]) /* ty=Tensor[(1, 16, 64, 128), int32] */;
    %3182 = cast(%3181, dtype="float32") /* ty=Tensor[(1, 16, 64, 128), float32] */;
    %3183 = multiply(0.00400565f /* ty=float32 */, %3182) /* ty=Tensor[(1, 16, 64, 128), float32] */;
    %3184 = add(%3183, 0.5f /* ty=float32 */) /* ty=Tensor[(1, 16, 64, 128), float32] */;
    %3185 = floor(%3184) /* ty=Tensor[(1, 16, 64, 128), float32] */;
    %3186 = cast(%3185, dtype="int32") /* ty=Tensor[(1, 16, 64, 128), int32] */;
    %3187 = clip(%3186, a_min=-128f, a_max=127f) /* ty=Tensor[(1, 16, 64, 128), int32] */;
    %3188 = cast(%3187, dtype="int8") /* ty=Tensor[(1, 16, 64, 128), int8] */;
    %3189 = broadcast_to(%3188, shape=[1, 16, 64, 128]) /* ty=Tensor[(1, 16, 64, 128), int8] */;
    %3190 = reshape(%3189, newshape=[-1, 64, 128]) /* ty=Tensor[(16, 64, 128), int8] */;
    transpose(%3190, axes=[0, 2, 1]) /* ty=Tensor[(16, 128, 64), int8] */
  };
  %3196 = %3194(%3193, meta[relay.Constant][76] /* ty=Tensor[(1024), int32] */) /* ty=Tensor[(16, 128, 64), int8] */;
  %3197 = fn (%p0563: Tensor[(16, 128, 64), int8], Primitive=1, hash="730fc163d25a20bf") -> Tensor[(16, 128), int32] {
    %3195 = cast(%p0563, dtype="int32") /* ty=Tensor[(16, 128, 64), int32] */;
    sum(%3195, axis=[-1]) /* ty=Tensor[(16, 128), int32] */
  };
  %3198 = %3176(%3175, meta[relay.Constant][73] /* ty=Tensor[(1024), int32] */) /* ty=Tensor[(16, 128, 64), uint8] */;
  %3199 = %3197(%3196) /* ty=Tensor[(16, 128), int32] */;
  %3200 = fn (%p0461: Tensor[(16, 128, 64), uint8], %p1314: Tensor[(16, 128, 64), int8], %p2208: Tensor[(16, 128), int32], Primitive=1, hash="6fff1eb43119fc91") -> Tensor[(16, 128, 128), int32] {
    %2482 = multiply(128 /* ty=int32 */, %p2208) /* ty=Tensor[(16, 128), int32] */;
    %2483 = nn.batch_matmul(%p0461, %p1314, out_dtype="int32", transpose_b=True) /* ty=Tensor[(16, 128, 128), int32] */;
    %2484 = expand_dims(%2482, axis=1) /* ty=Tensor[(16, 1, 128), int32] */;
    subtract(%2483, %2484) /* ty=Tensor[(16, 128, 128), int32] */
  };
  %3201 = %3200(%3198, %3196, %3199) /* ty=Tensor[(16, 128, 128), int32] */;
  %3202 = fn (%p0460: Tensor[(16, 128, 128), int32], %p1313: Tensor[(1, 1, 1, 128), float32], Primitive=1, hash="a95800e4e93063c0") -> Tensor[(1, 16, 128, 128), float32] {
    %2478 = reshape(%p0460, newshape=[1, 16, 128, 128]) /* ty=Tensor[(1, 16, 128, 128), int32] */;
    %2479 = cast(%2478, dtype="float32") /* ty=Tensor[(1, 16, 128, 128), float32] */;
    %2480 = multiply(%2479, 0.0032026f /* ty=float32 */) /* ty=Tensor[(1, 16, 128, 128), float32] */;
    %2481 = divide(%2480, 8f /* ty=float32 */) /* ty=Tensor[(1, 16, 128, 128), float32] */;
    add(%2481, %p1313) /* ty=Tensor[(1, 16, 128, 128), float32] */
  };
  %3203 = %3202(%3201, %2925) /* ty=Tensor[(1, 16, 128, 128), float32] */;
  %3204 = fn (%p0459: Tensor[(1, 16, 128, 128), float32], Primitive=1, hash="2bab550e3b826b80") -> Tensor[(1, 16, 128, 128), int8] {
    %2474 = nn.softmax(%p0459, axis=3) /* ty=Tensor[(1, 16, 128, 128), float32] */;
    %2475 = divide(%2474, 0.00731781f /* ty=float32 */) /* ty=Tensor[(1, 16, 128, 128), float32] */;
    %2476 = clip(%2475, a_min=-128f, a_max=127f) /* ty=Tensor[(1, 16, 128, 128), float32] */;
    %2477 = round(%2476) /* ty=Tensor[(1, 16, 128, 128), float32] */;
    cast(%2477, dtype="int8") /* ty=Tensor[(1, 16, 128, 128), int8] */
  };
  %3205 = %3204(%3203) /* ty=Tensor[(1, 16, 128, 128), int8] */;
  %3206 = fn (%p0458: Tensor[(1, 16, 128, 128), int8], Primitive=1, hash="1e01d52113b0d8e6") -> Tensor[(16, 128, 128), uint8] {
    %2470 = broadcast_to(%p0458, shape=[1, 16, 128, 128]) /* ty=Tensor[(1, 16, 128, 128), int8] */;
    %2471 = reshape(%2470, newshape=[-1, 128, 128]) /* ty=Tensor[(16, 128, 128), int8] */;
    %2472 = cast(%2471, dtype="int32") /* ty=Tensor[(16, 128, 128), int32] */;
    %2473 = add(%2472, 128 /* ty=int32 */) /* ty=Tensor[(16, 128, 128), int32] */;
    cast(%2473, dtype="uint8") /* ty=Tensor[(16, 128, 128), uint8] */
  };
  %3222 = fn (%p0565: Tensor[(128, 1024), uint8], %p1380: Tensor[(64, 256, 16, 4), int8], %p2249: Tensor[(1, 1024), int32], Primitive=1, hash="a41f099f91287173", weight_layout="NC16n4c") -> Tensor[(128, 1024), int32] {
    %3221 = nn.contrib_dense_pack(%p0565, %p1380, units=None, out_dtype="int32", weight_layout="NC16n4c") /* ty=Tensor[(128, 1024), int32] */;
    subtract(%3221, %p2249) /* ty=Tensor[(128, 1024), int32] */
  };
  %3223 = %3222(%3173, meta[relay.Constant][77] /* ty=Tensor[(64, 256, 16, 4), int8] */, meta[relay.Constant][78] /* ty=Tensor[(1, 1024), int32] */) /* ty=Tensor[(128, 1024), int32] */;
  %3224 = fn (%p0564: Tensor[(128, 1024), int32], %p1379: Tensor[(1024), int32], Primitive=1, hash="57d093c5c38a98f5") -> Tensor[(16, 64, 128), int8] {
    %3207 = reshape(%p0564, newshape=[1, 128, 1024]) /* ty=Tensor[(1, 128, 1024), int32] */;
    %3208 = add(%3207, %p1379) /* ty=Tensor[(1, 128, 1024), int32] */;
    %3209 = clip(%3208, a_min=-2.14748e+09f, a_max=2.14748e+09f) /* ty=Tensor[(1, 128, 1024), int32] */;
    %3210 = reshape(%3209, newshape=[1, 128, 16, 64]) /* ty=Tensor[(1, 128, 16, 64), int32] */;
    %3211 = transpose(%3210, axes=[0, 2, 1, 3]) /* ty=Tensor[(1, 16, 128, 64), int32] */;
    %3212 = cast(%3211, dtype="float32") /* ty=Tensor[(1, 16, 128, 64), float32] */;
    %3213 = multiply(0.00400565f /* ty=float32 */, %3212) /* ty=Tensor[(1, 16, 128, 64), float32] */;
    %3214 = add(%3213, 0.5f /* ty=float32 */) /* ty=Tensor[(1, 16, 128, 64), float32] */;
    %3215 = floor(%3214) /* ty=Tensor[(1, 16, 128, 64), float32] */;
    %3216 = cast(%3215, dtype="int32") /* ty=Tensor[(1, 16, 128, 64), int32] */;
    %3217 = clip(%3216, a_min=-128f, a_max=127f) /* ty=Tensor[(1, 16, 128, 64), int32] */;
    %3218 = cast(%3217, dtype="int8") /* ty=Tensor[(1, 16, 128, 64), int8] */;
    %3219 = broadcast_to(%3218, shape=[1, 16, 128, 64]) /* ty=Tensor[(1, 16, 128, 64), int8] */;
    %3220 = reshape(%3219, newshape=[-1, 128, 64]) /* ty=Tensor[(16, 128, 64), int8] */;
    transpose(%3220, axes=[0, 2, 1]) /* ty=Tensor[(16, 64, 128), int8] */
  };
  %3226 = %3224(%3223, meta[relay.Constant][79] /* ty=Tensor[(1024), int32] */) /* ty=Tensor[(16, 64, 128), int8] */;
  %3227 = fn (%p0566: Tensor[(16, 64, 128), int8], Primitive=1, hash="01b1b769a1f35abd") -> Tensor[(16, 64), int32] {
    %3225 = cast(%p0566, dtype="int32") /* ty=Tensor[(16, 64, 128), int32] */;
    sum(%3225, axis=[-1]) /* ty=Tensor[(16, 64), int32] */
  };
  %3228 = %3206(%3205) /* ty=Tensor[(16, 128, 128), uint8] */;
  %3229 = %3227(%3226) /* ty=Tensor[(16, 64), int32] */;
  %3230 = fn (%p0457: Tensor[(16, 128, 128), uint8], %p1312: Tensor[(16, 64, 128), int8], %p2207: Tensor[(16, 64), int32], Primitive=1, hash="8d8117dbe1fc815a") -> Tensor[(16, 128, 64), int32] {
    %2467 = multiply(128 /* ty=int32 */, %p2207) /* ty=Tensor[(16, 64), int32] */;
    %2468 = nn.batch_matmul(%p0457, %p1312, out_dtype="int32", transpose_b=True) /* ty=Tensor[(16, 128, 64), int32] */;
    %2469 = expand_dims(%2467, axis=1) /* ty=Tensor[(16, 1, 64), int32] */;
    subtract(%2468, %2469) /* ty=Tensor[(16, 128, 64), int32] */
  };
  %3231 = %3230(%3228, %3226, %3229) /* ty=Tensor[(16, 128, 64), int32] */;
  %3232 = fn (%p0456: Tensor[(16, 128, 64), int32], Primitive=1, hash="169fbe288cec771f") -> Tensor[(128, 1024), uint8] {
    %2454 = reshape(%p0456, newshape=[1, 16, 128, 64]) /* ty=Tensor[(1, 16, 128, 64), int32] */;
    %2455 = transpose(%2454, axes=[0, 2, 1, 3]) /* ty=Tensor[(1, 128, 16, 64), int32] */;
    %2456 = reshape(%2455, newshape=[1, 128, 1024]) /* ty=Tensor[(1, 128, 1024), int32] */;
    %2457 = cast(%2456, dtype="float32") /* ty=Tensor[(1, 128, 1024), float32] */;
    %2458 = multiply(0.0271663f /* ty=float32 */, %2457) /* ty=Tensor[(1, 128, 1024), float32] */;
    %2459 = add(%2458, 0.5f /* ty=float32 */) /* ty=Tensor[(1, 128, 1024), float32] */;
    %2460 = floor(%2459) /* ty=Tensor[(1, 128, 1024), float32] */;
    %2461 = cast(%2460, dtype="int32") /* ty=Tensor[(1, 128, 1024), int32] */;
    %2462 = clip(%2461, a_min=-128f, a_max=127f) /* ty=Tensor[(1, 128, 1024), int32] */;
    %2463 = cast(%2462, dtype="int8") /* ty=Tensor[(1, 128, 1024), int8] */;
    %2464 = reshape(%2463, newshape=[-1, 1024]) /* ty=Tensor[(128, 1024), int8] */;
    %2465 = cast(%2464, dtype="int32") /* ty=Tensor[(128, 1024), int32] */;
    %2466 = add(%2465, 128 /* ty=int32 */) /* ty=Tensor[(128, 1024), int32] */;
    cast(%2466, dtype="uint8") /* ty=Tensor[(128, 1024), uint8] */
  };
  %3233 = %3232(%3231) /* ty=Tensor[(128, 1024), uint8] */;
  %3234 = fn (%p0455: Tensor[(128, 1024), uint8], %p1311: Tensor[(64, 256, 16, 4), int8], %p2206: Tensor[(1, 1024), int32], Primitive=1, hash="a41f099f91287173", weight_layout="NC16n4c") -> Tensor[(128, 1024), int32] {
    %2453 = nn.contrib_dense_pack(%p0455, %p1311, units=None, out_dtype="int32", weight_layout="NC16n4c") /* ty=Tensor[(128, 1024), int32] */;
    subtract(%2453, %p2206) /* ty=Tensor[(128, 1024), int32] */
  };
  %3235 = %3234(%3233, meta[relay.Constant][80] /* ty=Tensor[(64, 256, 16, 4), int8] */, meta[relay.Constant][81] /* ty=Tensor[(1, 1024), int32] */) /* ty=Tensor[(128, 1024), int32] */;
  %3236 = fn (%p0454: Tensor[(128, 1024), int32], %p1310: Tensor[(1024), int32], %p2205: Tensor[(1, 128, 1024), int8], Primitive=1, hash="e96773192eb2284e") -> Tensor[(1, 128, 1024), float32] {
    %2439 = reshape(%p0454, newshape=[1, 128, 1024]) /* ty=Tensor[(1, 128, 1024), int32] */;
    %2440 = add(%2439, %p1310) /* ty=Tensor[(1, 128, 1024), int32] */;
    %2441 = clip(%2440, a_min=-2.14748e+09f, a_max=2.14748e+09f) /* ty=Tensor[(1, 128, 1024), int32] */;
    %2442 = cast(%2441, dtype="float32") /* ty=Tensor[(1, 128, 1024), float32] */;
    %2443 = multiply(0.0032064f /* ty=float32 */, %2442) /* ty=Tensor[(1, 128, 1024), float32] */;
    %2444 = add(%2443, 0.5f /* ty=float32 */) /* ty=Tensor[(1, 128, 1024), float32] */;
    %2445 = floor(%2444) /* ty=Tensor[(1, 128, 1024), float32] */;
    %2446 = cast(%2445, dtype="int32") /* ty=Tensor[(1, 128, 1024), int32] */;
    %2447 = clip(%2446, a_min=-128f, a_max=127f) /* ty=Tensor[(1, 128, 1024), int32] */;
    %2448 = cast(%2447, dtype="int8") /* ty=Tensor[(1, 128, 1024), int8] */;
    %2449 = cast(%2448, dtype="float32") /* ty=Tensor[(1, 128, 1024), float32] */;
    %2450 = cast(%p2205, dtype="float32") /* ty=Tensor[(1, 128, 1024), float32] */;
    %2451 = multiply(%2449, 0.00857786f /* ty=float32 */) /* ty=Tensor[(1, 128, 1024), float32] */;
    %2452 = multiply(%2450, 0.0925139f /* ty=float32 */) /* ty=Tensor[(1, 128, 1024), float32] */;
    add(%2451, %2452) /* ty=Tensor[(1, 128, 1024), float32] */
  };
  %3237 = %3236(%3235, meta[relay.Constant][82] /* ty=Tensor[(1024), int32] */, %3171) /* ty=Tensor[(1, 128, 1024), float32] */;
  %3238 = fn (%p0567: Tensor[(1, 128, 1024), float32], Primitive=1, hash="2c2db313332ac77e") -> Tensor[(1, 128, 1), float32] {
    mean(%p0567, axis=[-1], keepdims=True) /* ty=Tensor[(1, 128, 1), float32] */
  };
  %3239 = %3238(%3237) /* ty=Tensor[(1, 128, 1), float32] */;
  %3240 = fn (%p0453: Tensor[(1, 128, 1024), float32], %p1309: Tensor[(1, 128, 1), float32], Primitive=1, hash="d63ceec029ccca0c") -> Tensor[(1, 128, 1024), float32] {
    subtract(%p0453, %p1309) /* ty=Tensor[(1, 128, 1024), float32] */
  };
  %3241 = %3240(%3237, %3239) /* ty=Tensor[(1, 128, 1024), float32] */;
  %3242 = fn (%p0452: Tensor[(1, 128, 1024), float32], Primitive=1, hash="1f22efdffe5555e9") -> Tensor[(1, 128, 1), float32] {
    %2438 = power(%p0452, 2f /* ty=float32 */) /* ty=Tensor[(1, 128, 1024), float32] */;
    mean(%2438, axis=[-1], keepdims=True) /* ty=Tensor[(1, 128, 1), float32] */
  };
  %3243 = %3242(%3241) /* ty=Tensor[(1, 128, 1), float32] */;
  %3244 = fn (%p0451: Tensor[(1, 128, 1), float32], %p1308: Tensor[(1, 128, 1024), float32], %p2204: Tensor[(1024), float32], %p341: Tensor[(1024), float32], Primitive=1, hash="dc882dc0f59c1d4c") -> Tensor[(1, 128, 1024), int8] {
    %2430 = add(%p0451, 1e-12f /* ty=float32 */) /* ty=Tensor[(1, 128, 1), float32] */;
    %2431 = sqrt(%2430) /* ty=Tensor[(1, 128, 1), float32] */;
    %2432 = divide(%p1308, %2431) /* ty=Tensor[(1, 128, 1024), float32] */;
    %2433 = multiply(%2432, %p2204) /* ty=Tensor[(1, 128, 1024), float32] */;
    %2434 = add(%2433, %p341) /* ty=Tensor[(1, 128, 1024), float32] */;
    %2435 = divide(%2434, 0.410529f /* ty=float32 */) /* ty=Tensor[(1, 128, 1024), float32] */;
    %2436 = clip(%2435, a_min=-128f, a_max=127f) /* ty=Tensor[(1, 128, 1024), float32] */;
    %2437 = round(%2436) /* ty=Tensor[(1, 128, 1024), float32] */;
    cast(%2437, dtype="int8") /* ty=Tensor[(1, 128, 1024), int8] */
  };
  %3245 = %3244(%3243, %3241, meta[relay.Constant][83] /* ty=Tensor[(1024), float32] */, meta[relay.Constant][84] /* ty=Tensor[(1024), float32] */) /* ty=Tensor[(1, 128, 1024), int8] */;
  %3246 = fn (%p0450: Tensor[(1, 128, 1024), int8], Primitive=1, hash="165a7eb60476bae6") -> Tensor[(128, 1024), uint8] {
    %2427 = reshape(%p0450, newshape=[-1, 1024]) /* ty=Tensor[(128, 1024), int8] */;
    %2428 = cast(%2427, dtype="int32") /* ty=Tensor[(128, 1024), int32] */;
    %2429 = add(%2428, 128 /* ty=int32 */) /* ty=Tensor[(128, 1024), int32] */;
    cast(%2429, dtype="uint8") /* ty=Tensor[(128, 1024), uint8] */
  };
  %3247 = %3246(%3245) /* ty=Tensor[(128, 1024), uint8] */;
  %3248 = fn (%p0449: Tensor[(128, 1024), uint8], %p1307: Tensor[(256, 256, 16, 4), int8], %p2203: Tensor[(1, 4096), int32], Primitive=1, hash="7df485f4b3219f11", weight_layout="NC16n4c") -> Tensor[(128, 4096), int32] {
    %2426 = nn.contrib_dense_pack(%p0449, %p1307, units=None, out_dtype="int32", weight_layout="NC16n4c") /* ty=Tensor[(128, 4096), int32] */;
    subtract(%2426, %p2203) /* ty=Tensor[(128, 4096), int32] */
  };
  %3249 = %3248(%3247, meta[relay.Constant][85] /* ty=Tensor[(256, 256, 16, 4), int8] */, meta[relay.Constant][86] /* ty=Tensor[(1, 4096), int32] */) /* ty=Tensor[(128, 4096), int32] */;
  %3250 = fn (%p0448: Tensor[(128, 4096), int32], %p1306: Tensor[(4096), float32], Primitive=1, hash="2f65f189d6b13f42") -> Tensor[(128, 4096), uint8] {
    %2410 = reshape(%p0448, newshape=[1, 128, 4096]) /* ty=Tensor[(1, 128, 4096), int32] */;
    %2411 = cast(%2410, dtype="float32") /* ty=Tensor[(1, 128, 4096), float32] */;
    %2412 = multiply(%2411, 0.000686036f /* ty=float32 */) /* ty=Tensor[(1, 128, 4096), float32] */;
    %2413 = add(%2412, %p1306) /* ty=Tensor[(1, 128, 4096), float32] */;
    %2414 = divide(%2413, 1.41421f /* ty=float32 */) /* ty=Tensor[(1, 128, 4096), float32] */;
    %2415 = erf(%2414) /* ty=Tensor[(1, 128, 4096), float32] */;
    %2416 = multiply(%2413, 0.5f /* ty=float32 */) /* ty=Tensor[(1, 128, 4096), float32] */;
    %2417 = add(%2415, 1f /* ty=float32 */) /* ty=Tensor[(1, 128, 4096), float32] */;
    %2418 = multiply(%2416, %2417) /* ty=Tensor[(1, 128, 4096), float32] */;
    %2419 = divide(%2418, 0.0392786f /* ty=float32 */) /* ty=Tensor[(1, 128, 4096), float32] */;
    %2420 = clip(%2419, a_min=-128f, a_max=127f) /* ty=Tensor[(1, 128, 4096), float32] */;
    %2421 = round(%2420) /* ty=Tensor[(1, 128, 4096), float32] */;
    %2422 = cast(%2421, dtype="int8") /* ty=Tensor[(1, 128, 4096), int8] */;
    %2423 = reshape(%2422, newshape=[-1, 4096]) /* ty=Tensor[(128, 4096), int8] */;
    %2424 = cast(%2423, dtype="int32") /* ty=Tensor[(128, 4096), int32] */;
    %2425 = add(%2424, 128 /* ty=int32 */) /* ty=Tensor[(128, 4096), int32] */;
    cast(%2425, dtype="uint8") /* ty=Tensor[(128, 4096), uint8] */
  };
  %3251 = %3250(%3249, meta[relay.Constant][87] /* ty=Tensor[(4096), float32] */) /* ty=Tensor[(128, 4096), uint8] */;
  %3252 = fn (%p0447: Tensor[(128, 4096), uint8], %p1305: Tensor[(64, 1024, 16, 4), int8], %p2202: Tensor[(1, 1024), int32], Primitive=1, hash="bcbc065dbaa86fe4", weight_layout="NC16n4c") -> Tensor[(128, 1024), int32] {
    %2409 = nn.contrib_dense_pack(%p0447, %p1305, units=None, out_dtype="int32", weight_layout="NC16n4c") /* ty=Tensor[(128, 1024), int32] */;
    subtract(%2409, %p2202) /* ty=Tensor[(128, 1024), int32] */
  };
  %3253 = %3252(%3251, meta[relay.Constant][88] /* ty=Tensor[(64, 1024, 16, 4), int8] */, meta[relay.Constant][89] /* ty=Tensor[(1, 1024), int32] */) /* ty=Tensor[(128, 1024), int32] */;
  %3254 = fn (%p0446: Tensor[(128, 1024), int32], %p1304: Tensor[(1024), int32], %p2201: Tensor[(1, 128, 1024), int8], Primitive=1, hash="5440cd0fe03461c8") -> Tensor[(1, 128, 1024), float32] {
    %2395 = reshape(%p0446, newshape=[1, 128, 1024]) /* ty=Tensor[(1, 128, 1024), int32] */;
    %2396 = add(%2395, %p1304) /* ty=Tensor[(1, 128, 1024), int32] */;
    %2397 = clip(%2396, a_min=-2.14748e+09f, a_max=2.14748e+09f) /* ty=Tensor[(1, 128, 1024), int32] */;
    %2398 = cast(%2397, dtype="float32") /* ty=Tensor[(1, 128, 1024), float32] */;
    %2399 = multiply(0.00410772f /* ty=float32 */, %2398) /* ty=Tensor[(1, 128, 1024), float32] */;
    %2400 = add(%2399, 0.5f /* ty=float32 */) /* ty=Tensor[(1, 128, 1024), float32] */;
    %2401 = floor(%2400) /* ty=Tensor[(1, 128, 1024), float32] */;
    %2402 = cast(%2401, dtype="int32") /* ty=Tensor[(1, 128, 1024), int32] */;
    %2403 = clip(%2402, a_min=-128f, a_max=127f) /* ty=Tensor[(1, 128, 1024), int32] */;
    %2404 = cast(%2403, dtype="int8") /* ty=Tensor[(1, 128, 1024), int8] */;
    %2405 = cast(%2404, dtype="float32") /* ty=Tensor[(1, 128, 1024), float32] */;
    %2406 = cast(%p2201, dtype="float32") /* ty=Tensor[(1, 128, 1024), float32] */;
    %2407 = multiply(%2405, 0.0459845f /* ty=float32 */) /* ty=Tensor[(1, 128, 1024), float32] */;
    %2408 = multiply(%2406, 0.410529f /* ty=float32 */) /* ty=Tensor[(1, 128, 1024), float32] */;
    add(%2407, %2408) /* ty=Tensor[(1, 128, 1024), float32] */
  };
  %3255 = %3254(%3253, meta[relay.Constant][90] /* ty=Tensor[(1024), int32] */, %3245) /* ty=Tensor[(1, 128, 1024), float32] */;
  %3256 = fn (%p0568: Tensor[(1, 128, 1024), float32], Primitive=1, hash="2c2db313332ac77e") -> Tensor[(1, 128, 1), float32] {
    mean(%p0568, axis=[-1], keepdims=True) /* ty=Tensor[(1, 128, 1), float32] */
  };
  %3257 = %3256(%3255) /* ty=Tensor[(1, 128, 1), float32] */;
  %3258 = fn (%p0445: Tensor[(1, 128, 1024), float32], %p1303: Tensor[(1, 128, 1), float32], Primitive=1, hash="d63ceec029ccca0c") -> Tensor[(1, 128, 1024), float32] {
    subtract(%p0445, %p1303) /* ty=Tensor[(1, 128, 1024), float32] */
  };
  %3259 = %3258(%3255, %3257) /* ty=Tensor[(1, 128, 1024), float32] */;
  %3260 = fn (%p0444: Tensor[(1, 128, 1024), float32], Primitive=1, hash="1f22efdffe5555e9") -> Tensor[(1, 128, 1), float32] {
    %2394 = power(%p0444, 2f /* ty=float32 */) /* ty=Tensor[(1, 128, 1024), float32] */;
    mean(%2394, axis=[-1], keepdims=True) /* ty=Tensor[(1, 128, 1), float32] */
  };
  %3261 = %3260(%3259) /* ty=Tensor[(1, 128, 1), float32] */;
  %3262 = fn (%p0443: Tensor[(1, 128, 1), float32], %p1302: Tensor[(1, 128, 1024), float32], %p2200: Tensor[(1024), float32], %p340: Tensor[(1024), float32], Primitive=1, hash="a42fd00b975509ee") -> Tensor[(1, 128, 1024), int8] {
    %2386 = add(%p0443, 1e-12f /* ty=float32 */) /* ty=Tensor[(1, 128, 1), float32] */;
    %2387 = sqrt(%2386) /* ty=Tensor[(1, 128, 1), float32] */;
    %2388 = divide(%p1302, %2387) /* ty=Tensor[(1, 128, 1024), float32] */;
    %2389 = multiply(%2388, %p2200) /* ty=Tensor[(1, 128, 1024), float32] */;
    %2390 = add(%2389, %p340) /* ty=Tensor[(1, 128, 1024), float32] */;
    %2391 = divide(%2390, 0.0723975f /* ty=float32 */) /* ty=Tensor[(1, 128, 1024), float32] */;
    %2392 = clip(%2391, a_min=-128f, a_max=127f) /* ty=Tensor[(1, 128, 1024), float32] */;
    %2393 = round(%2392) /* ty=Tensor[(1, 128, 1024), float32] */;
    cast(%2393, dtype="int8") /* ty=Tensor[(1, 128, 1024), int8] */
  };
  %3263 = %3262(%3261, %3259, meta[relay.Constant][91] /* ty=Tensor[(1024), float32] */, meta[relay.Constant][92] /* ty=Tensor[(1024), float32] */) /* ty=Tensor[(1, 128, 1024), int8] */;
  %3264 = fn (%p0442: Tensor[(1, 128, 1024), int8], Primitive=1, hash="165a7eb60476bae6") -> Tensor[(128, 1024), uint8] {
    %2383 = reshape(%p0442, newshape=[-1, 1024]) /* ty=Tensor[(128, 1024), int8] */;
    %2384 = cast(%2383, dtype="int32") /* ty=Tensor[(128, 1024), int32] */;
    %2385 = add(%2384, 128 /* ty=int32 */) /* ty=Tensor[(128, 1024), int32] */;
    cast(%2385, dtype="uint8") /* ty=Tensor[(128, 1024), uint8] */
  };
  %3265 = %3264(%3263) /* ty=Tensor[(128, 1024), uint8] */;
  %3266 = fn (%p0441: Tensor[(128, 1024), uint8], %p1301: Tensor[(64, 256, 16, 4), int8], %p2199: Tensor[(1, 1024), int32], Primitive=1, hash="a41f099f91287173", weight_layout="NC16n4c") -> Tensor[(128, 1024), int32] {
    %2382 = nn.contrib_dense_pack(%p0441, %p1301, units=None, out_dtype="int32", weight_layout="NC16n4c") /* ty=Tensor[(128, 1024), int32] */;
    subtract(%2382, %p2199) /* ty=Tensor[(128, 1024), int32] */
  };
  %3267 = %3266(%3265, meta[relay.Constant][93] /* ty=Tensor[(64, 256, 16, 4), int8] */, meta[relay.Constant][94] /* ty=Tensor[(1, 1024), int32] */) /* ty=Tensor[(128, 1024), int32] */;
  %3268 = fn (%p0440: Tensor[(128, 1024), int32], %p1300: Tensor[(1024), int32], Primitive=1, hash="d0739f73548e4521") -> Tensor[(16, 128, 64), uint8] {
    %2366 = reshape(%p0440, newshape=[1, 128, 1024]) /* ty=Tensor[(1, 128, 1024), int32] */;
    %2367 = add(%2366, %p1300) /* ty=Tensor[(1, 128, 1024), int32] */;
    %2368 = clip(%2367, a_min=-2.14748e+09f, a_max=2.14748e+09f) /* ty=Tensor[(1, 128, 1024), int32] */;
    %2369 = reshape(%2368, newshape=[1, 128, 16, 64]) /* ty=Tensor[(1, 128, 16, 64), int32] */;
    %2370 = transpose(%2369, axes=[0, 2, 1, 3]) /* ty=Tensor[(1, 16, 128, 64), int32] */;
    %2371 = cast(%2370, dtype="float32") /* ty=Tensor[(1, 16, 128, 64), float32] */;
    %2372 = multiply(0.00354834f /* ty=float32 */, %2371) /* ty=Tensor[(1, 16, 128, 64), float32] */;
    %2373 = add(%2372, 0.5f /* ty=float32 */) /* ty=Tensor[(1, 16, 128, 64), float32] */;
    %2374 = floor(%2373) /* ty=Tensor[(1, 16, 128, 64), float32] */;
    %2375 = cast(%2374, dtype="int32") /* ty=Tensor[(1, 16, 128, 64), int32] */;
    %2376 = clip(%2375, a_min=-128f, a_max=127f) /* ty=Tensor[(1, 16, 128, 64), int32] */;
    %2377 = cast(%2376, dtype="int8") /* ty=Tensor[(1, 16, 128, 64), int8] */;
    %2378 = broadcast_to(%2377, shape=[1, 16, 128, 64]) /* ty=Tensor[(1, 16, 128, 64), int8] */;
    %2379 = reshape(%2378, newshape=[-1, 128, 64]) /* ty=Tensor[(16, 128, 64), int8] */;
    %2380 = cast(%2379, dtype="int32") /* ty=Tensor[(16, 128, 64), int32] */;
    %2381 = add(%2380, 128 /* ty=int32 */) /* ty=Tensor[(16, 128, 64), int32] */;
    cast(%2381, dtype="uint8") /* ty=Tensor[(16, 128, 64), uint8] */
  };
  %3284 = fn (%p0570: Tensor[(128, 1024), uint8], %p1382: Tensor[(64, 256, 16, 4), int8], %p2250: Tensor[(1, 1024), int32], Primitive=1, hash="a41f099f91287173", weight_layout="NC16n4c") -> Tensor[(128, 1024), int32] {
    %3283 = nn.contrib_dense_pack(%p0570, %p1382, units=None, out_dtype="int32", weight_layout="NC16n4c") /* ty=Tensor[(128, 1024), int32] */;
    subtract(%3283, %p2250) /* ty=Tensor[(128, 1024), int32] */
  };
  %3285 = %3284(%3265, meta[relay.Constant][96] /* ty=Tensor[(64, 256, 16, 4), int8] */, meta[relay.Constant][97] /* ty=Tensor[(1, 1024), int32] */) /* ty=Tensor[(128, 1024), int32] */;
  %3286 = fn (%p0569: Tensor[(128, 1024), int32], %p1381: Tensor[(1024), int32], Primitive=1, hash="c0c02f9f3efe9322") -> Tensor[(16, 128, 64), int8] {
    %3269 = reshape(%p0569, newshape=[1, 128, 1024]) /* ty=Tensor[(1, 128, 1024), int32] */;
    %3270 = add(%3269, %p1381) /* ty=Tensor[(1, 128, 1024), int32] */;
    %3271 = clip(%3270, a_min=-2.14748e+09f, a_max=2.14748e+09f) /* ty=Tensor[(1, 128, 1024), int32] */;
    %3272 = reshape(%3271, newshape=[1, 128, 16, 64]) /* ty=Tensor[(1, 128, 16, 64), int32] */;
    %3273 = transpose(%3272, axes=[0, 2, 3, 1]) /* ty=Tensor[(1, 16, 64, 128), int32] */;
    %3274 = cast(%3273, dtype="float32") /* ty=Tensor[(1, 16, 64, 128), float32] */;
    %3275 = multiply(0.00354834f /* ty=float32 */, %3274) /* ty=Tensor[(1, 16, 64, 128), float32] */;
    %3276 = add(%3275, 0.5f /* ty=float32 */) /* ty=Tensor[(1, 16, 64, 128), float32] */;
    %3277 = floor(%3276) /* ty=Tensor[(1, 16, 64, 128), float32] */;
    %3278 = cast(%3277, dtype="int32") /* ty=Tensor[(1, 16, 64, 128), int32] */;
    %3279 = clip(%3278, a_min=-128f, a_max=127f) /* ty=Tensor[(1, 16, 64, 128), int32] */;
    %3280 = cast(%3279, dtype="int8") /* ty=Tensor[(1, 16, 64, 128), int8] */;
    %3281 = broadcast_to(%3280, shape=[1, 16, 64, 128]) /* ty=Tensor[(1, 16, 64, 128), int8] */;
    %3282 = reshape(%3281, newshape=[-1, 64, 128]) /* ty=Tensor[(16, 64, 128), int8] */;
    transpose(%3282, axes=[0, 2, 1]) /* ty=Tensor[(16, 128, 64), int8] */
  };
  %3288 = %3286(%3285, meta[relay.Constant][98] /* ty=Tensor[(1024), int32] */) /* ty=Tensor[(16, 128, 64), int8] */;
  %3289 = fn (%p0571: Tensor[(16, 128, 64), int8], Primitive=1, hash="730fc163d25a20bf") -> Tensor[(16, 128), int32] {
    %3287 = cast(%p0571, dtype="int32") /* ty=Tensor[(16, 128, 64), int32] */;
    sum(%3287, axis=[-1]) /* ty=Tensor[(16, 128), int32] */
  };
  %3290 = %3268(%3267, meta[relay.Constant][95] /* ty=Tensor[(1024), int32] */) /* ty=Tensor[(16, 128, 64), uint8] */;
  %3291 = %3289(%3288) /* ty=Tensor[(16, 128), int32] */;
  %3292 = fn (%p0439: Tensor[(16, 128, 64), uint8], %p1299: Tensor[(16, 128, 64), int8], %p2198: Tensor[(16, 128), int32], Primitive=1, hash="6fff1eb43119fc91") -> Tensor[(16, 128, 128), int32] {
    %2363 = multiply(128 /* ty=int32 */, %p2198) /* ty=Tensor[(16, 128), int32] */;
    %2364 = nn.batch_matmul(%p0439, %p1299, out_dtype="int32", transpose_b=True) /* ty=Tensor[(16, 128, 128), int32] */;
    %2365 = expand_dims(%2363, axis=1) /* ty=Tensor[(16, 1, 128), int32] */;
    subtract(%2364, %2365) /* ty=Tensor[(16, 128, 128), int32] */
  };
  %3293 = %3292(%3290, %3288, %3291) /* ty=Tensor[(16, 128, 128), int32] */;
  %3294 = fn (%p0438: Tensor[(16, 128, 128), int32], %p1298: Tensor[(1, 1, 1, 128), float32], Primitive=1, hash="cf793d2b5abbcc51") -> Tensor[(1, 16, 128, 128), float32] {
    %2359 = reshape(%p0438, newshape=[1, 16, 128, 128]) /* ty=Tensor[(1, 16, 128, 128), int32] */;
    %2360 = cast(%2359, dtype="float32") /* ty=Tensor[(1, 16, 128, 128), float32] */;
    %2361 = multiply(%2360, 0.00272532f /* ty=float32 */) /* ty=Tensor[(1, 16, 128, 128), float32] */;
    %2362 = divide(%2361, 8f /* ty=float32 */) /* ty=Tensor[(1, 16, 128, 128), float32] */;
    add(%2362, %p1298) /* ty=Tensor[(1, 16, 128, 128), float32] */
  };
  %3295 = %3294(%3293, %2925) /* ty=Tensor[(1, 16, 128, 128), float32] */;
  %3296 = fn (%p0437: Tensor[(1, 16, 128, 128), float32], Primitive=1, hash="1c72b2d2bf5e7a8e") -> Tensor[(1, 16, 128, 128), int8] {
    %2355 = nn.softmax(%p0437, axis=3) /* ty=Tensor[(1, 16, 128, 128), float32] */;
    %2356 = divide(%2355, 0.00633571f /* ty=float32 */) /* ty=Tensor[(1, 16, 128, 128), float32] */;
    %2357 = clip(%2356, a_min=-128f, a_max=127f) /* ty=Tensor[(1, 16, 128, 128), float32] */;
    %2358 = round(%2357) /* ty=Tensor[(1, 16, 128, 128), float32] */;
    cast(%2358, dtype="int8") /* ty=Tensor[(1, 16, 128, 128), int8] */
  };
  %3297 = %3296(%3295) /* ty=Tensor[(1, 16, 128, 128), int8] */;
  %3298 = fn (%p0436: Tensor[(1, 16, 128, 128), int8], Primitive=1, hash="1e01d52113b0d8e6") -> Tensor[(16, 128, 128), uint8] {
    %2351 = broadcast_to(%p0436, shape=[1, 16, 128, 128]) /* ty=Tensor[(1, 16, 128, 128), int8] */;
    %2352 = reshape(%2351, newshape=[-1, 128, 128]) /* ty=Tensor[(16, 128, 128), int8] */;
    %2353 = cast(%2352, dtype="int32") /* ty=Tensor[(16, 128, 128), int32] */;
    %2354 = add(%2353, 128 /* ty=int32 */) /* ty=Tensor[(16, 128, 128), int32] */;
    cast(%2354, dtype="uint8") /* ty=Tensor[(16, 128, 128), uint8] */
  };
  %3314 = fn (%p0573: Tensor[(128, 1024), uint8], %p1384: Tensor[(64, 256, 16, 4), int8], %p2251: Tensor[(1, 1024), int32], Primitive=1, hash="a41f099f91287173", weight_layout="NC16n4c") -> Tensor[(128, 1024), int32] {
    %3313 = nn.contrib_dense_pack(%p0573, %p1384, units=None, out_dtype="int32", weight_layout="NC16n4c") /* ty=Tensor[(128, 1024), int32] */;
    subtract(%3313, %p2251) /* ty=Tensor[(128, 1024), int32] */
  };
  %3315 = %3314(%3265, meta[relay.Constant][99] /* ty=Tensor[(64, 256, 16, 4), int8] */, meta[relay.Constant][100] /* ty=Tensor[(1, 1024), int32] */) /* ty=Tensor[(128, 1024), int32] */;
  %3316 = fn (%p0572: Tensor[(128, 1024), int32], %p1383: Tensor[(1024), int32], Primitive=1, hash="a231710a1de54886") -> Tensor[(16, 64, 128), int8] {
    %3299 = reshape(%p0572, newshape=[1, 128, 1024]) /* ty=Tensor[(1, 128, 1024), int32] */;
    %3300 = add(%3299, %p1383) /* ty=Tensor[(1, 128, 1024), int32] */;
    %3301 = clip(%3300, a_min=-2.14748e+09f, a_max=2.14748e+09f) /* ty=Tensor[(1, 128, 1024), int32] */;
    %3302 = reshape(%3301, newshape=[1, 128, 16, 64]) /* ty=Tensor[(1, 128, 16, 64), int32] */;
    %3303 = transpose(%3302, axes=[0, 2, 1, 3]) /* ty=Tensor[(1, 16, 128, 64), int32] */;
    %3304 = cast(%3303, dtype="float32") /* ty=Tensor[(1, 16, 128, 64), float32] */;
    %3305 = multiply(0.00354834f /* ty=float32 */, %3304) /* ty=Tensor[(1, 16, 128, 64), float32] */;
    %3306 = add(%3305, 0.5f /* ty=float32 */) /* ty=Tensor[(1, 16, 128, 64), float32] */;
    %3307 = floor(%3306) /* ty=Tensor[(1, 16, 128, 64), float32] */;
    %3308 = cast(%3307, dtype="int32") /* ty=Tensor[(1, 16, 128, 64), int32] */;
    %3309 = clip(%3308, a_min=-128f, a_max=127f) /* ty=Tensor[(1, 16, 128, 64), int32] */;
    %3310 = cast(%3309, dtype="int8") /* ty=Tensor[(1, 16, 128, 64), int8] */;
    %3311 = broadcast_to(%3310, shape=[1, 16, 128, 64]) /* ty=Tensor[(1, 16, 128, 64), int8] */;
    %3312 = reshape(%3311, newshape=[-1, 128, 64]) /* ty=Tensor[(16, 128, 64), int8] */;
    transpose(%3312, axes=[0, 2, 1]) /* ty=Tensor[(16, 64, 128), int8] */
  };
  %3318 = %3316(%3315, meta[relay.Constant][101] /* ty=Tensor[(1024), int32] */) /* ty=Tensor[(16, 64, 128), int8] */;
  %3319 = fn (%p0574: Tensor[(16, 64, 128), int8], Primitive=1, hash="01b1b769a1f35abd") -> Tensor[(16, 64), int32] {
    %3317 = cast(%p0574, dtype="int32") /* ty=Tensor[(16, 64, 128), int32] */;
    sum(%3317, axis=[-1]) /* ty=Tensor[(16, 64), int32] */
  };
  %3320 = %3298(%3297) /* ty=Tensor[(16, 128, 128), uint8] */;
  %3321 = %3319(%3318) /* ty=Tensor[(16, 64), int32] */;
  %3322 = fn (%p0435: Tensor[(16, 128, 128), uint8], %p1297: Tensor[(16, 64, 128), int8], %p2197: Tensor[(16, 64), int32], Primitive=1, hash="8d8117dbe1fc815a") -> Tensor[(16, 128, 64), int32] {
    %2348 = multiply(128 /* ty=int32 */, %p2197) /* ty=Tensor[(16, 64), int32] */;
    %2349 = nn.batch_matmul(%p0435, %p1297, out_dtype="int32", transpose_b=True) /* ty=Tensor[(16, 128, 64), int32] */;
    %2350 = expand_dims(%2348, axis=1) /* ty=Tensor[(16, 1, 64), int32] */;
    subtract(%2349, %2350) /* ty=Tensor[(16, 128, 64), int32] */
  };
  %3323 = %3322(%3320, %3318, %3321) /* ty=Tensor[(16, 128, 64), int32] */;
  %3324 = fn (%p0434: Tensor[(16, 128, 64), int32], Primitive=1, hash="e89736a70192c645") -> Tensor[(128, 1024), uint8] {
    %2335 = reshape(%p0434, newshape=[1, 16, 128, 64]) /* ty=Tensor[(1, 16, 128, 64), int32] */;
    %2336 = transpose(%2335, axes=[0, 2, 1, 3]) /* ty=Tensor[(1, 128, 16, 64), int32] */;
    %2337 = reshape(%2336, newshape=[1, 128, 1024]) /* ty=Tensor[(1, 128, 1024), int32] */;
    %2338 = cast(%2337, dtype="float32") /* ty=Tensor[(1, 128, 1024), float32] */;
    %2339 = multiply(0.0277699f /* ty=float32 */, %2338) /* ty=Tensor[(1, 128, 1024), float32] */;
    %2340 = add(%2339, 0.5f /* ty=float32 */) /* ty=Tensor[(1, 128, 1024), float32] */;
    %2341 = floor(%2340) /* ty=Tensor[(1, 128, 1024), float32] */;
    %2342 = cast(%2341, dtype="int32") /* ty=Tensor[(1, 128, 1024), int32] */;
    %2343 = clip(%2342, a_min=-128f, a_max=127f) /* ty=Tensor[(1, 128, 1024), int32] */;
    %2344 = cast(%2343, dtype="int8") /* ty=Tensor[(1, 128, 1024), int8] */;
    %2345 = reshape(%2344, newshape=[-1, 1024]) /* ty=Tensor[(128, 1024), int8] */;
    %2346 = cast(%2345, dtype="int32") /* ty=Tensor[(128, 1024), int32] */;
    %2347 = add(%2346, 128 /* ty=int32 */) /* ty=Tensor[(128, 1024), int32] */;
    cast(%2347, dtype="uint8") /* ty=Tensor[(128, 1024), uint8] */
  };
  %3325 = %3324(%3323) /* ty=Tensor[(128, 1024), uint8] */;
  %3326 = fn (%p0433: Tensor[(128, 1024), uint8], %p1296: Tensor[(64, 256, 16, 4), int8], %p2196: Tensor[(1, 1024), int32], Primitive=1, hash="a41f099f91287173", weight_layout="NC16n4c") -> Tensor[(128, 1024), int32] {
    %2334 = nn.contrib_dense_pack(%p0433, %p1296, units=None, out_dtype="int32", weight_layout="NC16n4c") /* ty=Tensor[(128, 1024), int32] */;
    subtract(%2334, %p2196) /* ty=Tensor[(128, 1024), int32] */
  };
  %3327 = %3326(%3325, meta[relay.Constant][102] /* ty=Tensor[(64, 256, 16, 4), int8] */, meta[relay.Constant][103] /* ty=Tensor[(1, 1024), int32] */) /* ty=Tensor[(128, 1024), int32] */;
  %3328 = fn (%p0432: Tensor[(128, 1024), int32], %p1295: Tensor[(1024), int32], %p2195: Tensor[(1, 128, 1024), int8], Primitive=1, hash="a24ccc9ee9ffef8f") -> Tensor[(1, 128, 1024), float32] {
    %2320 = reshape(%p0432, newshape=[1, 128, 1024]) /* ty=Tensor[(1, 128, 1024), int32] */;
    %2321 = add(%2320, %p1295) /* ty=Tensor[(1, 128, 1024), int32] */;
    %2322 = clip(%2321, a_min=-2.14748e+09f, a_max=2.14748e+09f) /* ty=Tensor[(1, 128, 1024), int32] */;
    %2323 = cast(%2322, dtype="float32") /* ty=Tensor[(1, 128, 1024), float32] */;
    %2324 = multiply(0.00294047f /* ty=float32 */, %2323) /* ty=Tensor[(1, 128, 1024), float32] */;
    %2325 = add(%2324, 0.5f /* ty=float32 */) /* ty=Tensor[(1, 128, 1024), float32] */;
    %2326 = floor(%2325) /* ty=Tensor[(1, 128, 1024), float32] */;
    %2327 = cast(%2326, dtype="int32") /* ty=Tensor[(1, 128, 1024), int32] */;
    %2328 = clip(%2327, a_min=-128f, a_max=127f) /* ty=Tensor[(1, 128, 1024), int32] */;
    %2329 = cast(%2328, dtype="int8") /* ty=Tensor[(1, 128, 1024), int8] */;
    %2330 = cast(%2329, dtype="float32") /* ty=Tensor[(1, 128, 1024), float32] */;
    %2331 = cast(%p2195, dtype="float32") /* ty=Tensor[(1, 128, 1024), float32] */;
    %2332 = multiply(%2330, 0.00690104f /* ty=float32 */) /* ty=Tensor[(1, 128, 1024), float32] */;
    %2333 = multiply(%2331, 0.0723975f /* ty=float32 */) /* ty=Tensor[(1, 128, 1024), float32] */;
    add(%2332, %2333) /* ty=Tensor[(1, 128, 1024), float32] */
  };
  %3329 = %3328(%3327, meta[relay.Constant][104] /* ty=Tensor[(1024), int32] */, %3263) /* ty=Tensor[(1, 128, 1024), float32] */;
  %3330 = fn (%p0575: Tensor[(1, 128, 1024), float32], Primitive=1, hash="2c2db313332ac77e") -> Tensor[(1, 128, 1), float32] {
    mean(%p0575, axis=[-1], keepdims=True) /* ty=Tensor[(1, 128, 1), float32] */
  };
  %3331 = %3330(%3329) /* ty=Tensor[(1, 128, 1), float32] */;
  %3332 = fn (%p0431: Tensor[(1, 128, 1024), float32], %p1294: Tensor[(1, 128, 1), float32], Primitive=1, hash="d63ceec029ccca0c") -> Tensor[(1, 128, 1024), float32] {
    subtract(%p0431, %p1294) /* ty=Tensor[(1, 128, 1024), float32] */
  };
  %3333 = %3332(%3329, %3331) /* ty=Tensor[(1, 128, 1024), float32] */;
  %3334 = fn (%p0430: Tensor[(1, 128, 1024), float32], Primitive=1, hash="1f22efdffe5555e9") -> Tensor[(1, 128, 1), float32] {
    %2319 = power(%p0430, 2f /* ty=float32 */) /* ty=Tensor[(1, 128, 1024), float32] */;
    mean(%2319, axis=[-1], keepdims=True) /* ty=Tensor[(1, 128, 1), float32] */
  };
  %3335 = %3334(%3333) /* ty=Tensor[(1, 128, 1), float32] */;
  %3336 = fn (%p0429: Tensor[(1, 128, 1), float32], %p1293: Tensor[(1, 128, 1024), float32], %p2194: Tensor[(1024), float32], %p339: Tensor[(1024), float32], Primitive=1, hash="57f164e9d0a262cc") -> Tensor[(1, 128, 1024), int8] {
    %2311 = add(%p0429, 1e-12f /* ty=float32 */) /* ty=Tensor[(1, 128, 1), float32] */;
    %2312 = sqrt(%2311) /* ty=Tensor[(1, 128, 1), float32] */;
    %2313 = divide(%p1293, %2312) /* ty=Tensor[(1, 128, 1024), float32] */;
    %2314 = multiply(%2313, %p2194) /* ty=Tensor[(1, 128, 1024), float32] */;
    %2315 = add(%2314, %p339) /* ty=Tensor[(1, 128, 1024), float32] */;
    %2316 = divide(%2315, 0.373825f /* ty=float32 */) /* ty=Tensor[(1, 128, 1024), float32] */;
    %2317 = clip(%2316, a_min=-128f, a_max=127f) /* ty=Tensor[(1, 128, 1024), float32] */;
    %2318 = round(%2317) /* ty=Tensor[(1, 128, 1024), float32] */;
    cast(%2318, dtype="int8") /* ty=Tensor[(1, 128, 1024), int8] */
  };
  %3337 = %3336(%3335, %3333, meta[relay.Constant][105] /* ty=Tensor[(1024), float32] */, meta[relay.Constant][106] /* ty=Tensor[(1024), float32] */) /* ty=Tensor[(1, 128, 1024), int8] */;
  %3338 = fn (%p0428: Tensor[(1, 128, 1024), int8], Primitive=1, hash="165a7eb60476bae6") -> Tensor[(128, 1024), uint8] {
    %2308 = reshape(%p0428, newshape=[-1, 1024]) /* ty=Tensor[(128, 1024), int8] */;
    %2309 = cast(%2308, dtype="int32") /* ty=Tensor[(128, 1024), int32] */;
    %2310 = add(%2309, 128 /* ty=int32 */) /* ty=Tensor[(128, 1024), int32] */;
    cast(%2310, dtype="uint8") /* ty=Tensor[(128, 1024), uint8] */
  };
  %3339 = %3338(%3337) /* ty=Tensor[(128, 1024), uint8] */;
  %3340 = fn (%p0427: Tensor[(128, 1024), uint8], %p1292: Tensor[(256, 256, 16, 4), int8], %p2193: Tensor[(1, 4096), int32], Primitive=1, hash="7df485f4b3219f11", weight_layout="NC16n4c") -> Tensor[(128, 4096), int32] {
    %2307 = nn.contrib_dense_pack(%p0427, %p1292, units=None, out_dtype="int32", weight_layout="NC16n4c") /* ty=Tensor[(128, 4096), int32] */;
    subtract(%2307, %p2193) /* ty=Tensor[(128, 4096), int32] */
  };
  %3341 = %3340(%3339, meta[relay.Constant][107] /* ty=Tensor[(256, 256, 16, 4), int8] */, meta[relay.Constant][108] /* ty=Tensor[(1, 4096), int32] */) /* ty=Tensor[(128, 4096), int32] */;
  %3342 = fn (%p0426: Tensor[(128, 4096), int32], %p1291: Tensor[(4096), float32], Primitive=1, hash="abd3a834ab65b9e7") -> Tensor[(128, 4096), uint8] {
    %2291 = reshape(%p0426, newshape=[1, 128, 4096]) /* ty=Tensor[(1, 128, 4096), int32] */;
    %2292 = cast(%2291, dtype="float32") /* ty=Tensor[(1, 128, 4096), float32] */;
    %2293 = multiply(%2292, 0.00104625f /* ty=float32 */) /* ty=Tensor[(1, 128, 4096), float32] */;
    %2294 = add(%2293, %p1291) /* ty=Tensor[(1, 128, 4096), float32] */;
    %2295 = divide(%2294, 1.41421f /* ty=float32 */) /* ty=Tensor[(1, 128, 4096), float32] */;
    %2296 = erf(%2295) /* ty=Tensor[(1, 128, 4096), float32] */;
    %2297 = multiply(%2294, 0.5f /* ty=float32 */) /* ty=Tensor[(1, 128, 4096), float32] */;
    %2298 = add(%2296, 1f /* ty=float32 */) /* ty=Tensor[(1, 128, 4096), float32] */;
    %2299 = multiply(%2297, %2298) /* ty=Tensor[(1, 128, 4096), float32] */;
    %2300 = divide(%2299, 0.0290915f /* ty=float32 */) /* ty=Tensor[(1, 128, 4096), float32] */;
    %2301 = clip(%2300, a_min=-128f, a_max=127f) /* ty=Tensor[(1, 128, 4096), float32] */;
    %2302 = round(%2301) /* ty=Tensor[(1, 128, 4096), float32] */;
    %2303 = cast(%2302, dtype="int8") /* ty=Tensor[(1, 128, 4096), int8] */;
    %2304 = reshape(%2303, newshape=[-1, 4096]) /* ty=Tensor[(128, 4096), int8] */;
    %2305 = cast(%2304, dtype="int32") /* ty=Tensor[(128, 4096), int32] */;
    %2306 = add(%2305, 128 /* ty=int32 */) /* ty=Tensor[(128, 4096), int32] */;
    cast(%2306, dtype="uint8") /* ty=Tensor[(128, 4096), uint8] */
  };
  %3343 = %3342(%3341, meta[relay.Constant][109] /* ty=Tensor[(4096), float32] */) /* ty=Tensor[(128, 4096), uint8] */;
  %3344 = fn (%p0425: Tensor[(128, 4096), uint8], %p1290: Tensor[(64, 1024, 16, 4), int8], %p2192: Tensor[(1, 1024), int32], Primitive=1, hash="bcbc065dbaa86fe4", weight_layout="NC16n4c") -> Tensor[(128, 1024), int32] {
    %2290 = nn.contrib_dense_pack(%p0425, %p1290, units=None, out_dtype="int32", weight_layout="NC16n4c") /* ty=Tensor[(128, 1024), int32] */;
    subtract(%2290, %p2192) /* ty=Tensor[(128, 1024), int32] */
  };
  %3345 = %3344(%3343, meta[relay.Constant][110] /* ty=Tensor[(64, 1024, 16, 4), int8] */, meta[relay.Constant][111] /* ty=Tensor[(1, 1024), int32] */) /* ty=Tensor[(128, 1024), int32] */;
  %3346 = fn (%p0424: Tensor[(128, 1024), int32], %p1289: Tensor[(1024), int32], %p2191: Tensor[(1, 128, 1024), int8], Primitive=1, hash="5c5c14f3cfbbe449") -> Tensor[(1, 128, 1024), float32] {
    %2276 = reshape(%p0424, newshape=[1, 128, 1024]) /* ty=Tensor[(1, 128, 1024), int32] */;
    %2277 = add(%2276, %p1289) /* ty=Tensor[(1, 128, 1024), int32] */;
    %2278 = clip(%2277, a_min=-2.14748e+09f, a_max=2.14748e+09f) /* ty=Tensor[(1, 128, 1024), int32] */;
    %2279 = cast(%2278, dtype="float32") /* ty=Tensor[(1, 128, 1024), float32] */;
    %2280 = multiply(0.00434206f /* ty=float32 */, %2279) /* ty=Tensor[(1, 128, 1024), float32] */;
    %2281 = add(%2280, 0.5f /* ty=float32 */) /* ty=Tensor[(1, 128, 1024), float32] */;
    %2282 = floor(%2281) /* ty=Tensor[(1, 128, 1024), float32] */;
    %2283 = cast(%2282, dtype="int32") /* ty=Tensor[(1, 128, 1024), int32] */;
    %2284 = clip(%2283, a_min=-128f, a_max=127f) /* ty=Tensor[(1, 128, 1024), int32] */;
    %2285 = cast(%2284, dtype="int8") /* ty=Tensor[(1, 128, 1024), int8] */;
    %2286 = cast(%2285, dtype="float32") /* ty=Tensor[(1, 128, 1024), float32] */;
    %2287 = cast(%p2191, dtype="float32") /* ty=Tensor[(1, 128, 1024), float32] */;
    %2288 = multiply(%2286, 0.170751f /* ty=float32 */) /* ty=Tensor[(1, 128, 1024), float32] */;
    %2289 = multiply(%2287, 0.373825f /* ty=float32 */) /* ty=Tensor[(1, 128, 1024), float32] */;
    add(%2288, %2289) /* ty=Tensor[(1, 128, 1024), float32] */
  };
  %3347 = %3346(%3345, meta[relay.Constant][112] /* ty=Tensor[(1024), int32] */, %3337) /* ty=Tensor[(1, 128, 1024), float32] */;
  %3348 = fn (%p0576: Tensor[(1, 128, 1024), float32], Primitive=1, hash="2c2db313332ac77e") -> Tensor[(1, 128, 1), float32] {
    mean(%p0576, axis=[-1], keepdims=True) /* ty=Tensor[(1, 128, 1), float32] */
  };
  %3349 = %3348(%3347) /* ty=Tensor[(1, 128, 1), float32] */;
  %3350 = fn (%p0423: Tensor[(1, 128, 1024), float32], %p1288: Tensor[(1, 128, 1), float32], Primitive=1, hash="d63ceec029ccca0c") -> Tensor[(1, 128, 1024), float32] {
    subtract(%p0423, %p1288) /* ty=Tensor[(1, 128, 1024), float32] */
  };
  %3351 = %3350(%3347, %3349) /* ty=Tensor[(1, 128, 1024), float32] */;
  %3352 = fn (%p0422: Tensor[(1, 128, 1024), float32], Primitive=1, hash="1f22efdffe5555e9") -> Tensor[(1, 128, 1), float32] {
    %2275 = power(%p0422, 2f /* ty=float32 */) /* ty=Tensor[(1, 128, 1024), float32] */;
    mean(%2275, axis=[-1], keepdims=True) /* ty=Tensor[(1, 128, 1), float32] */
  };
  %3353 = %3352(%3351) /* ty=Tensor[(1, 128, 1), float32] */;
  %3354 = fn (%p0421: Tensor[(1, 128, 1), float32], %p1287: Tensor[(1, 128, 1024), float32], %p2190: Tensor[(1024), float32], %p338: Tensor[(1024), float32], Primitive=1, hash="529621d87bc4ca36") -> Tensor[(1, 128, 1024), int8] {
    %2267 = add(%p0421, 1e-12f /* ty=float32 */) /* ty=Tensor[(1, 128, 1), float32] */;
    %2268 = sqrt(%2267) /* ty=Tensor[(1, 128, 1), float32] */;
    %2269 = divide(%p1287, %2268) /* ty=Tensor[(1, 128, 1024), float32] */;
    %2270 = multiply(%2269, %p2190) /* ty=Tensor[(1, 128, 1024), float32] */;
    %2271 = add(%2270, %p338) /* ty=Tensor[(1, 128, 1024), float32] */;
    %2272 = divide(%2271, 0.0570178f /* ty=float32 */) /* ty=Tensor[(1, 128, 1024), float32] */;
    %2273 = clip(%2272, a_min=-128f, a_max=127f) /* ty=Tensor[(1, 128, 1024), float32] */;
    %2274 = round(%2273) /* ty=Tensor[(1, 128, 1024), float32] */;
    cast(%2274, dtype="int8") /* ty=Tensor[(1, 128, 1024), int8] */
  };
  %3355 = %3354(%3353, %3351, meta[relay.Constant][113] /* ty=Tensor[(1024), float32] */, meta[relay.Constant][114] /* ty=Tensor[(1024), float32] */) /* ty=Tensor[(1, 128, 1024), int8] */;
  %3356 = fn (%p0420: Tensor[(1, 128, 1024), int8], Primitive=1, hash="165a7eb60476bae6") -> Tensor[(128, 1024), uint8] {
    %2264 = reshape(%p0420, newshape=[-1, 1024]) /* ty=Tensor[(128, 1024), int8] */;
    %2265 = cast(%2264, dtype="int32") /* ty=Tensor[(128, 1024), int32] */;
    %2266 = add(%2265, 128 /* ty=int32 */) /* ty=Tensor[(128, 1024), int32] */;
    cast(%2266, dtype="uint8") /* ty=Tensor[(128, 1024), uint8] */
  };
  %3357 = %3356(%3355) /* ty=Tensor[(128, 1024), uint8] */;
  %3358 = fn (%p0419: Tensor[(128, 1024), uint8], %p1286: Tensor[(64, 256, 16, 4), int8], %p2189: Tensor[(1, 1024), int32], Primitive=1, hash="a41f099f91287173", weight_layout="NC16n4c") -> Tensor[(128, 1024), int32] {
    %2263 = nn.contrib_dense_pack(%p0419, %p1286, units=None, out_dtype="int32", weight_layout="NC16n4c") /* ty=Tensor[(128, 1024), int32] */;
    subtract(%2263, %p2189) /* ty=Tensor[(128, 1024), int32] */
  };
  %3359 = %3358(%3357, meta[relay.Constant][115] /* ty=Tensor[(64, 256, 16, 4), int8] */, meta[relay.Constant][116] /* ty=Tensor[(1, 1024), int32] */) /* ty=Tensor[(128, 1024), int32] */;
  %3360 = fn (%p0418: Tensor[(128, 1024), int32], %p1285: Tensor[(1024), int32], Primitive=1, hash="dc8ead77b5641b7b") -> Tensor[(16, 128, 64), uint8] {
    %2247 = reshape(%p0418, newshape=[1, 128, 1024]) /* ty=Tensor[(1, 128, 1024), int32] */;
    %2248 = add(%2247, %p1285) /* ty=Tensor[(1, 128, 1024), int32] */;
    %2249 = clip(%2248, a_min=-2.14748e+09f, a_max=2.14748e+09f) /* ty=Tensor[(1, 128, 1024), int32] */;
    %2250 = reshape(%2249, newshape=[1, 128, 16, 64]) /* ty=Tensor[(1, 128, 16, 64), int32] */;
    %2251 = transpose(%2250, axes=[0, 2, 1, 3]) /* ty=Tensor[(1, 16, 128, 64), int32] */;
    %2252 = cast(%2251, dtype="float32") /* ty=Tensor[(1, 16, 128, 64), float32] */;
    %2253 = multiply(0.00357643f /* ty=float32 */, %2252) /* ty=Tensor[(1, 16, 128, 64), float32] */;
    %2254 = add(%2253, 0.5f /* ty=float32 */) /* ty=Tensor[(1, 16, 128, 64), float32] */;
    %2255 = floor(%2254) /* ty=Tensor[(1, 16, 128, 64), float32] */;
    %2256 = cast(%2255, dtype="int32") /* ty=Tensor[(1, 16, 128, 64), int32] */;
    %2257 = clip(%2256, a_min=-128f, a_max=127f) /* ty=Tensor[(1, 16, 128, 64), int32] */;
    %2258 = cast(%2257, dtype="int8") /* ty=Tensor[(1, 16, 128, 64), int8] */;
    %2259 = broadcast_to(%2258, shape=[1, 16, 128, 64]) /* ty=Tensor[(1, 16, 128, 64), int8] */;
    %2260 = reshape(%2259, newshape=[-1, 128, 64]) /* ty=Tensor[(16, 128, 64), int8] */;
    %2261 = cast(%2260, dtype="int32") /* ty=Tensor[(16, 128, 64), int32] */;
    %2262 = add(%2261, 128 /* ty=int32 */) /* ty=Tensor[(16, 128, 64), int32] */;
    cast(%2262, dtype="uint8") /* ty=Tensor[(16, 128, 64), uint8] */
  };
  %3376 = fn (%p0578: Tensor[(128, 1024), uint8], %p1386: Tensor[(64, 256, 16, 4), int8], %p2252: Tensor[(1, 1024), int32], Primitive=1, hash="a41f099f91287173", weight_layout="NC16n4c") -> Tensor[(128, 1024), int32] {
    %3375 = nn.contrib_dense_pack(%p0578, %p1386, units=None, out_dtype="int32", weight_layout="NC16n4c") /* ty=Tensor[(128, 1024), int32] */;
    subtract(%3375, %p2252) /* ty=Tensor[(128, 1024), int32] */
  };
  %3377 = %3376(%3357, meta[relay.Constant][118] /* ty=Tensor[(64, 256, 16, 4), int8] */, meta[relay.Constant][119] /* ty=Tensor[(1, 1024), int32] */) /* ty=Tensor[(128, 1024), int32] */;
  %3378 = fn (%p0577: Tensor[(128, 1024), int32], %p1385: Tensor[(1024), int32], Primitive=1, hash="7cc6a02875fa6f39") -> Tensor[(16, 128, 64), int8] {
    %3361 = reshape(%p0577, newshape=[1, 128, 1024]) /* ty=Tensor[(1, 128, 1024), int32] */;
    %3362 = add(%3361, %p1385) /* ty=Tensor[(1, 128, 1024), int32] */;
    %3363 = clip(%3362, a_min=-2.14748e+09f, a_max=2.14748e+09f) /* ty=Tensor[(1, 128, 1024), int32] */;
    %3364 = reshape(%3363, newshape=[1, 128, 16, 64]) /* ty=Tensor[(1, 128, 16, 64), int32] */;
    %3365 = transpose(%3364, axes=[0, 2, 3, 1]) /* ty=Tensor[(1, 16, 64, 128), int32] */;
    %3366 = cast(%3365, dtype="float32") /* ty=Tensor[(1, 16, 64, 128), float32] */;
    %3367 = multiply(0.00357643f /* ty=float32 */, %3366) /* ty=Tensor[(1, 16, 64, 128), float32] */;
    %3368 = add(%3367, 0.5f /* ty=float32 */) /* ty=Tensor[(1, 16, 64, 128), float32] */;
    %3369 = floor(%3368) /* ty=Tensor[(1, 16, 64, 128), float32] */;
    %3370 = cast(%3369, dtype="int32") /* ty=Tensor[(1, 16, 64, 128), int32] */;
    %3371 = clip(%3370, a_min=-128f, a_max=127f) /* ty=Tensor[(1, 16, 64, 128), int32] */;
    %3372 = cast(%3371, dtype="int8") /* ty=Tensor[(1, 16, 64, 128), int8] */;
    %3373 = broadcast_to(%3372, shape=[1, 16, 64, 128]) /* ty=Tensor[(1, 16, 64, 128), int8] */;
    %3374 = reshape(%3373, newshape=[-1, 64, 128]) /* ty=Tensor[(16, 64, 128), int8] */;
    transpose(%3374, axes=[0, 2, 1]) /* ty=Tensor[(16, 128, 64), int8] */
  };
  %3380 = %3378(%3377, meta[relay.Constant][120] /* ty=Tensor[(1024), int32] */) /* ty=Tensor[(16, 128, 64), int8] */;
  %3381 = fn (%p0579: Tensor[(16, 128, 64), int8], Primitive=1, hash="730fc163d25a20bf") -> Tensor[(16, 128), int32] {
    %3379 = cast(%p0579, dtype="int32") /* ty=Tensor[(16, 128, 64), int32] */;
    sum(%3379, axis=[-1]) /* ty=Tensor[(16, 128), int32] */
  };
  %3382 = %3360(%3359, meta[relay.Constant][117] /* ty=Tensor[(1024), int32] */) /* ty=Tensor[(16, 128, 64), uint8] */;
  %3383 = %3381(%3380) /* ty=Tensor[(16, 128), int32] */;
  %3384 = fn (%p0417: Tensor[(16, 128, 64), uint8], %p1284: Tensor[(16, 128, 64), int8], %p2188: Tensor[(16, 128), int32], Primitive=1, hash="6fff1eb43119fc91") -> Tensor[(16, 128, 128), int32] {
    %2244 = multiply(128 /* ty=int32 */, %p2188) /* ty=Tensor[(16, 128), int32] */;
    %2245 = nn.batch_matmul(%p0417, %p1284, out_dtype="int32", transpose_b=True) /* ty=Tensor[(16, 128, 128), int32] */;
    %2246 = expand_dims(%2244, axis=1) /* ty=Tensor[(16, 1, 128), int32] */;
    subtract(%2245, %2246) /* ty=Tensor[(16, 128, 128), int32] */
  };
  %3385 = %3384(%3382, %3380, %3383) /* ty=Tensor[(16, 128, 128), int32] */;
  %3386 = fn (%p0416: Tensor[(16, 128, 128), int32], %p1283: Tensor[(1, 1, 1, 128), float32], Primitive=1, hash="596e1e64c797d4d5") -> Tensor[(1, 16, 128, 128), float32] {
    %2240 = reshape(%p0416, newshape=[1, 16, 128, 128]) /* ty=Tensor[(1, 16, 128, 128), int32] */;
    %2241 = cast(%2240, dtype="float32") /* ty=Tensor[(1, 16, 128, 128), float32] */;
    %2242 = multiply(%2241, 0.00195861f /* ty=float32 */) /* ty=Tensor[(1, 16, 128, 128), float32] */;
    %2243 = divide(%2242, 8f /* ty=float32 */) /* ty=Tensor[(1, 16, 128, 128), float32] */;
    add(%2243, %p1283) /* ty=Tensor[(1, 16, 128, 128), float32] */
  };
  %3387 = %3386(%3385, %2925) /* ty=Tensor[(1, 16, 128, 128), float32] */;
  %3388 = fn (%p0415: Tensor[(1, 16, 128, 128), float32], Primitive=1, hash="26e145f6a27b9676") -> Tensor[(1, 16, 128, 128), int8] {
    %2236 = nn.softmax(%p0415, axis=3) /* ty=Tensor[(1, 16, 128, 128), float32] */;
    %2237 = divide(%2236, 0.00306637f /* ty=float32 */) /* ty=Tensor[(1, 16, 128, 128), float32] */;
    %2238 = clip(%2237, a_min=-128f, a_max=127f) /* ty=Tensor[(1, 16, 128, 128), float32] */;
    %2239 = round(%2238) /* ty=Tensor[(1, 16, 128, 128), float32] */;
    cast(%2239, dtype="int8") /* ty=Tensor[(1, 16, 128, 128), int8] */
  };
  %3389 = %3388(%3387) /* ty=Tensor[(1, 16, 128, 128), int8] */;
  %3390 = fn (%p0414: Tensor[(1, 16, 128, 128), int8], Primitive=1, hash="1e01d52113b0d8e6") -> Tensor[(16, 128, 128), uint8] {
    %2232 = broadcast_to(%p0414, shape=[1, 16, 128, 128]) /* ty=Tensor[(1, 16, 128, 128), int8] */;
    %2233 = reshape(%2232, newshape=[-1, 128, 128]) /* ty=Tensor[(16, 128, 128), int8] */;
    %2234 = cast(%2233, dtype="int32") /* ty=Tensor[(16, 128, 128), int32] */;
    %2235 = add(%2234, 128 /* ty=int32 */) /* ty=Tensor[(16, 128, 128), int32] */;
    cast(%2235, dtype="uint8") /* ty=Tensor[(16, 128, 128), uint8] */
  };
  %3406 = fn (%p0581: Tensor[(128, 1024), uint8], %p1388: Tensor[(64, 256, 16, 4), int8], %p2253: Tensor[(1, 1024), int32], Primitive=1, hash="a41f099f91287173", weight_layout="NC16n4c") -> Tensor[(128, 1024), int32] {
    %3405 = nn.contrib_dense_pack(%p0581, %p1388, units=None, out_dtype="int32", weight_layout="NC16n4c") /* ty=Tensor[(128, 1024), int32] */;
    subtract(%3405, %p2253) /* ty=Tensor[(128, 1024), int32] */
  };
  %3407 = %3406(%3357, meta[relay.Constant][121] /* ty=Tensor[(64, 256, 16, 4), int8] */, meta[relay.Constant][122] /* ty=Tensor[(1, 1024), int32] */) /* ty=Tensor[(128, 1024), int32] */;
  %3408 = fn (%p0580: Tensor[(128, 1024), int32], %p1387: Tensor[(1024), int32], Primitive=1, hash="ff082ea5f5bc8653") -> Tensor[(16, 64, 128), int8] {
    %3391 = reshape(%p0580, newshape=[1, 128, 1024]) /* ty=Tensor[(1, 128, 1024), int32] */;
    %3392 = add(%3391, %p1387) /* ty=Tensor[(1, 128, 1024), int32] */;
    %3393 = clip(%3392, a_min=-2.14748e+09f, a_max=2.14748e+09f) /* ty=Tensor[(1, 128, 1024), int32] */;
    %3394 = reshape(%3393, newshape=[1, 128, 16, 64]) /* ty=Tensor[(1, 128, 16, 64), int32] */;
    %3395 = transpose(%3394, axes=[0, 2, 1, 3]) /* ty=Tensor[(1, 16, 128, 64), int32] */;
    %3396 = cast(%3395, dtype="float32") /* ty=Tensor[(1, 16, 128, 64), float32] */;
    %3397 = multiply(0.00357643f /* ty=float32 */, %3396) /* ty=Tensor[(1, 16, 128, 64), float32] */;
    %3398 = add(%3397, 0.5f /* ty=float32 */) /* ty=Tensor[(1, 16, 128, 64), float32] */;
    %3399 = floor(%3398) /* ty=Tensor[(1, 16, 128, 64), float32] */;
    %3400 = cast(%3399, dtype="int32") /* ty=Tensor[(1, 16, 128, 64), int32] */;
    %3401 = clip(%3400, a_min=-128f, a_max=127f) /* ty=Tensor[(1, 16, 128, 64), int32] */;
    %3402 = cast(%3401, dtype="int8") /* ty=Tensor[(1, 16, 128, 64), int8] */;
    %3403 = broadcast_to(%3402, shape=[1, 16, 128, 64]) /* ty=Tensor[(1, 16, 128, 64), int8] */;
    %3404 = reshape(%3403, newshape=[-1, 128, 64]) /* ty=Tensor[(16, 128, 64), int8] */;
    transpose(%3404, axes=[0, 2, 1]) /* ty=Tensor[(16, 64, 128), int8] */
  };
  %3410 = %3408(%3407, meta[relay.Constant][123] /* ty=Tensor[(1024), int32] */) /* ty=Tensor[(16, 64, 128), int8] */;
  %3411 = fn (%p0582: Tensor[(16, 64, 128), int8], Primitive=1, hash="01b1b769a1f35abd") -> Tensor[(16, 64), int32] {
    %3409 = cast(%p0582, dtype="int32") /* ty=Tensor[(16, 64, 128), int32] */;
    sum(%3409, axis=[-1]) /* ty=Tensor[(16, 64), int32] */
  };
  %3412 = %3390(%3389) /* ty=Tensor[(16, 128, 128), uint8] */;
  %3413 = %3411(%3410) /* ty=Tensor[(16, 64), int32] */;
  %3414 = fn (%p0413: Tensor[(16, 128, 128), uint8], %p1282: Tensor[(16, 64, 128), int8], %p2187: Tensor[(16, 64), int32], Primitive=1, hash="8d8117dbe1fc815a") -> Tensor[(16, 128, 64), int32] {
    %2229 = multiply(128 /* ty=int32 */, %p2187) /* ty=Tensor[(16, 64), int32] */;
    %2230 = nn.batch_matmul(%p0413, %p1282, out_dtype="int32", transpose_b=True) /* ty=Tensor[(16, 128, 64), int32] */;
    %2231 = expand_dims(%2229, axis=1) /* ty=Tensor[(16, 1, 64), int32] */;
    subtract(%2230, %2231) /* ty=Tensor[(16, 128, 64), int32] */
  };
  %3415 = %3414(%3412, %3410, %3413) /* ty=Tensor[(16, 128, 64), int32] */;
  %3416 = fn (%p0412: Tensor[(16, 128, 64), int32], Primitive=1, hash="ee6b3b702bfca7b3") -> Tensor[(128, 1024), uint8] {
    %2216 = reshape(%p0412, newshape=[1, 16, 128, 64]) /* ty=Tensor[(1, 16, 128, 64), int32] */;
    %2217 = transpose(%2216, axes=[0, 2, 1, 3]) /* ty=Tensor[(1, 128, 16, 64), int32] */;
    %2218 = reshape(%2217, newshape=[1, 128, 1024]) /* ty=Tensor[(1, 128, 1024), int32] */;
    %2219 = cast(%2218, dtype="float32") /* ty=Tensor[(1, 128, 1024), float32] */;
    %2220 = multiply(0.0109596f /* ty=float32 */, %2219) /* ty=Tensor[(1, 128, 1024), float32] */;
    %2221 = add(%2220, 0.5f /* ty=float32 */) /* ty=Tensor[(1, 128, 1024), float32] */;
    %2222 = floor(%2221) /* ty=Tensor[(1, 128, 1024), float32] */;
    %2223 = cast(%2222, dtype="int32") /* ty=Tensor[(1, 128, 1024), int32] */;
    %2224 = clip(%2223, a_min=-128f, a_max=127f) /* ty=Tensor[(1, 128, 1024), int32] */;
    %2225 = cast(%2224, dtype="int8") /* ty=Tensor[(1, 128, 1024), int8] */;
    %2226 = reshape(%2225, newshape=[-1, 1024]) /* ty=Tensor[(128, 1024), int8] */;
    %2227 = cast(%2226, dtype="int32") /* ty=Tensor[(128, 1024), int32] */;
    %2228 = add(%2227, 128 /* ty=int32 */) /* ty=Tensor[(128, 1024), int32] */;
    cast(%2228, dtype="uint8") /* ty=Tensor[(128, 1024), uint8] */
  };
  %3417 = %3416(%3415) /* ty=Tensor[(128, 1024), uint8] */;
  %3418 = fn (%p0411: Tensor[(128, 1024), uint8], %p1281: Tensor[(64, 256, 16, 4), int8], %p2186: Tensor[(1, 1024), int32], Primitive=1, hash="a41f099f91287173", weight_layout="NC16n4c") -> Tensor[(128, 1024), int32] {
    %2215 = nn.contrib_dense_pack(%p0411, %p1281, units=None, out_dtype="int32", weight_layout="NC16n4c") /* ty=Tensor[(128, 1024), int32] */;
    subtract(%2215, %p2186) /* ty=Tensor[(128, 1024), int32] */
  };
  %3419 = %3418(%3417, meta[relay.Constant][124] /* ty=Tensor[(64, 256, 16, 4), int8] */, meta[relay.Constant][125] /* ty=Tensor[(1, 1024), int32] */) /* ty=Tensor[(128, 1024), int32] */;
  %3420 = fn (%p0410: Tensor[(128, 1024), int32], %p1280: Tensor[(1024), int32], %p2185: Tensor[(1, 128, 1024), int8], Primitive=1, hash="31ce99f95081264a") -> Tensor[(1, 128, 1024), float32] {
    %2201 = reshape(%p0410, newshape=[1, 128, 1024]) /* ty=Tensor[(1, 128, 1024), int32] */;
    %2202 = add(%2201, %p1280) /* ty=Tensor[(1, 128, 1024), int32] */;
    %2203 = clip(%2202, a_min=-2.14748e+09f, a_max=2.14748e+09f) /* ty=Tensor[(1, 128, 1024), int32] */;
    %2204 = cast(%2203, dtype="float32") /* ty=Tensor[(1, 128, 1024), float32] */;
    %2205 = multiply(0.0035612f /* ty=float32 */, %2204) /* ty=Tensor[(1, 128, 1024), float32] */;
    %2206 = add(%2205, 0.5f /* ty=float32 */) /* ty=Tensor[(1, 128, 1024), float32] */;
    %2207 = floor(%2206) /* ty=Tensor[(1, 128, 1024), float32] */;
    %2208 = cast(%2207, dtype="int32") /* ty=Tensor[(1, 128, 1024), int32] */;
    %2209 = clip(%2208, a_min=-128f, a_max=127f) /* ty=Tensor[(1, 128, 1024), int32] */;
    %2210 = cast(%2209, dtype="int8") /* ty=Tensor[(1, 128, 1024), int8] */;
    %2211 = cast(%2210, dtype="float32") /* ty=Tensor[(1, 128, 1024), float32] */;
    %2212 = cast(%p2185, dtype="float32") /* ty=Tensor[(1, 128, 1024), float32] */;
    %2213 = multiply(%2211, 0.00689865f /* ty=float32 */) /* ty=Tensor[(1, 128, 1024), float32] */;
    %2214 = multiply(%2212, 0.0570178f /* ty=float32 */) /* ty=Tensor[(1, 128, 1024), float32] */;
    add(%2213, %2214) /* ty=Tensor[(1, 128, 1024), float32] */
  };
  %3421 = %3420(%3419, meta[relay.Constant][126] /* ty=Tensor[(1024), int32] */, %3355) /* ty=Tensor[(1, 128, 1024), float32] */;
  %3422 = fn (%p0583: Tensor[(1, 128, 1024), float32], Primitive=1, hash="2c2db313332ac77e") -> Tensor[(1, 128, 1), float32] {
    mean(%p0583, axis=[-1], keepdims=True) /* ty=Tensor[(1, 128, 1), float32] */
  };
  %3423 = %3422(%3421) /* ty=Tensor[(1, 128, 1), float32] */;
  %3424 = fn (%p0409: Tensor[(1, 128, 1024), float32], %p1279: Tensor[(1, 128, 1), float32], Primitive=1, hash="d63ceec029ccca0c") -> Tensor[(1, 128, 1024), float32] {
    subtract(%p0409, %p1279) /* ty=Tensor[(1, 128, 1024), float32] */
  };
  %3425 = %3424(%3421, %3423) /* ty=Tensor[(1, 128, 1024), float32] */;
  %3426 = fn (%p0408: Tensor[(1, 128, 1024), float32], Primitive=1, hash="1f22efdffe5555e9") -> Tensor[(1, 128, 1), float32] {
    %2200 = power(%p0408, 2f /* ty=float32 */) /* ty=Tensor[(1, 128, 1024), float32] */;
    mean(%2200, axis=[-1], keepdims=True) /* ty=Tensor[(1, 128, 1), float32] */
  };
  %3427 = %3426(%3425) /* ty=Tensor[(1, 128, 1), float32] */;
  %3428 = fn (%p0407: Tensor[(1, 128, 1), float32], %p1278: Tensor[(1, 128, 1024), float32], %p2184: Tensor[(1024), float32], %p337: Tensor[(1024), float32], Primitive=1, hash="762a54b2de357b25") -> Tensor[(1, 128, 1024), int8] {
    %2192 = add(%p0407, 1e-12f /* ty=float32 */) /* ty=Tensor[(1, 128, 1), float32] */;
    %2193 = sqrt(%2192) /* ty=Tensor[(1, 128, 1), float32] */;
    %2194 = divide(%p1278, %2193) /* ty=Tensor[(1, 128, 1024), float32] */;
    %2195 = multiply(%2194, %p2184) /* ty=Tensor[(1, 128, 1024), float32] */;
    %2196 = add(%2195, %p337) /* ty=Tensor[(1, 128, 1024), float32] */;
    %2197 = divide(%2196, 0.342797f /* ty=float32 */) /* ty=Tensor[(1, 128, 1024), float32] */;
    %2198 = clip(%2197, a_min=-128f, a_max=127f) /* ty=Tensor[(1, 128, 1024), float32] */;
    %2199 = round(%2198) /* ty=Tensor[(1, 128, 1024), float32] */;
    cast(%2199, dtype="int8") /* ty=Tensor[(1, 128, 1024), int8] */
  };
  %3429 = %3428(%3427, %3425, meta[relay.Constant][127] /* ty=Tensor[(1024), float32] */, meta[relay.Constant][128] /* ty=Tensor[(1024), float32] */) /* ty=Tensor[(1, 128, 1024), int8] */;
  %3430 = fn (%p0406: Tensor[(1, 128, 1024), int8], Primitive=1, hash="165a7eb60476bae6") -> Tensor[(128, 1024), uint8] {
    %2189 = reshape(%p0406, newshape=[-1, 1024]) /* ty=Tensor[(128, 1024), int8] */;
    %2190 = cast(%2189, dtype="int32") /* ty=Tensor[(128, 1024), int32] */;
    %2191 = add(%2190, 128 /* ty=int32 */) /* ty=Tensor[(128, 1024), int32] */;
    cast(%2191, dtype="uint8") /* ty=Tensor[(128, 1024), uint8] */
  };
  %3431 = %3430(%3429) /* ty=Tensor[(128, 1024), uint8] */;
  %3432 = fn (%p0405: Tensor[(128, 1024), uint8], %p1277: Tensor[(256, 256, 16, 4), int8], %p2183: Tensor[(1, 4096), int32], Primitive=1, hash="7df485f4b3219f11", weight_layout="NC16n4c") -> Tensor[(128, 4096), int32] {
    %2188 = nn.contrib_dense_pack(%p0405, %p1277, units=None, out_dtype="int32", weight_layout="NC16n4c") /* ty=Tensor[(128, 4096), int32] */;
    subtract(%2188, %p2183) /* ty=Tensor[(128, 4096), int32] */
  };
  %3433 = %3432(%3431, meta[relay.Constant][129] /* ty=Tensor[(256, 256, 16, 4), int8] */, meta[relay.Constant][130] /* ty=Tensor[(1, 4096), int32] */) /* ty=Tensor[(128, 4096), int32] */;
  %3434 = fn (%p0404: Tensor[(128, 4096), int32], %p1276: Tensor[(4096), float32], Primitive=1, hash="f6f32f7c904d4a4c") -> Tensor[(128, 4096), uint8] {
    %2172 = reshape(%p0404, newshape=[1, 128, 4096]) /* ty=Tensor[(1, 128, 4096), int32] */;
    %2173 = cast(%2172, dtype="float32") /* ty=Tensor[(1, 128, 4096), float32] */;
    %2174 = multiply(%2173, 0.000703671f /* ty=float32 */) /* ty=Tensor[(1, 128, 4096), float32] */;
    %2175 = add(%2174, %p1276) /* ty=Tensor[(1, 128, 4096), float32] */;
    %2176 = divide(%2175, 1.41421f /* ty=float32 */) /* ty=Tensor[(1, 128, 4096), float32] */;
    %2177 = erf(%2176) /* ty=Tensor[(1, 128, 4096), float32] */;
    %2178 = multiply(%2175, 0.5f /* ty=float32 */) /* ty=Tensor[(1, 128, 4096), float32] */;
    %2179 = add(%2177, 1f /* ty=float32 */) /* ty=Tensor[(1, 128, 4096), float32] */;
    %2180 = multiply(%2178, %2179) /* ty=Tensor[(1, 128, 4096), float32] */;
    %2181 = divide(%2180, 0.0360953f /* ty=float32 */) /* ty=Tensor[(1, 128, 4096), float32] */;
    %2182 = clip(%2181, a_min=-128f, a_max=127f) /* ty=Tensor[(1, 128, 4096), float32] */;
    %2183 = round(%2182) /* ty=Tensor[(1, 128, 4096), float32] */;
    %2184 = cast(%2183, dtype="int8") /* ty=Tensor[(1, 128, 4096), int8] */;
    %2185 = reshape(%2184, newshape=[-1, 4096]) /* ty=Tensor[(128, 4096), int8] */;
    %2186 = cast(%2185, dtype="int32") /* ty=Tensor[(128, 4096), int32] */;
    %2187 = add(%2186, 128 /* ty=int32 */) /* ty=Tensor[(128, 4096), int32] */;
    cast(%2187, dtype="uint8") /* ty=Tensor[(128, 4096), uint8] */
  };
  %3435 = %3434(%3433, meta[relay.Constant][131] /* ty=Tensor[(4096), float32] */) /* ty=Tensor[(128, 4096), uint8] */;
  %3436 = fn (%p0403: Tensor[(128, 4096), uint8], %p1275: Tensor[(64, 1024, 16, 4), int8], %p2182: Tensor[(1, 1024), int32], Primitive=1, hash="bcbc065dbaa86fe4", weight_layout="NC16n4c") -> Tensor[(128, 1024), int32] {
    %2171 = nn.contrib_dense_pack(%p0403, %p1275, units=None, out_dtype="int32", weight_layout="NC16n4c") /* ty=Tensor[(128, 1024), int32] */;
    subtract(%2171, %p2182) /* ty=Tensor[(128, 1024), int32] */
  };
  %3437 = %3436(%3435, meta[relay.Constant][132] /* ty=Tensor[(64, 1024, 16, 4), int8] */, meta[relay.Constant][133] /* ty=Tensor[(1, 1024), int32] */) /* ty=Tensor[(128, 1024), int32] */;
  %3438 = fn (%p0402: Tensor[(128, 1024), int32], %p1274: Tensor[(1024), int32], %p2181: Tensor[(1, 128, 1024), int8], Primitive=1, hash="9394598b9dc4c855") -> Tensor[(1, 128, 1024), float32] {
    %2157 = reshape(%p0402, newshape=[1, 128, 1024]) /* ty=Tensor[(1, 128, 1024), int32] */;
    %2158 = add(%2157, %p1274) /* ty=Tensor[(1, 128, 1024), int32] */;
    %2159 = clip(%2158, a_min=-2.14748e+09f, a_max=2.14748e+09f) /* ty=Tensor[(1, 128, 1024), int32] */;
    %2160 = cast(%2159, dtype="float32") /* ty=Tensor[(1, 128, 1024), float32] */;
    %2161 = multiply(0.0185721f /* ty=float32 */, %2160) /* ty=Tensor[(1, 128, 1024), float32] */;
    %2162 = add(%2161, 0.5f /* ty=float32 */) /* ty=Tensor[(1, 128, 1024), float32] */;
    %2163 = floor(%2162) /* ty=Tensor[(1, 128, 1024), float32] */;
    %2164 = cast(%2163, dtype="int32") /* ty=Tensor[(1, 128, 1024), int32] */;
    %2165 = clip(%2164, a_min=-128f, a_max=127f) /* ty=Tensor[(1, 128, 1024), int32] */;
    %2166 = cast(%2165, dtype="int8") /* ty=Tensor[(1, 128, 1024), int8] */;
    %2167 = cast(%2166, dtype="float32") /* ty=Tensor[(1, 128, 1024), float32] */;
    %2168 = cast(%p2181, dtype="float32") /* ty=Tensor[(1, 128, 1024), float32] */;
    %2169 = multiply(%2167, 0.0479473f /* ty=float32 */) /* ty=Tensor[(1, 128, 1024), float32] */;
    %2170 = multiply(%2168, 0.342797f /* ty=float32 */) /* ty=Tensor[(1, 128, 1024), float32] */;
    add(%2169, %2170) /* ty=Tensor[(1, 128, 1024), float32] */
  };
  %3439 = %3438(%3437, meta[relay.Constant][134] /* ty=Tensor[(1024), int32] */, %3429) /* ty=Tensor[(1, 128, 1024), float32] */;
  %3440 = fn (%p0584: Tensor[(1, 128, 1024), float32], Primitive=1, hash="2c2db313332ac77e") -> Tensor[(1, 128, 1), float32] {
    mean(%p0584, axis=[-1], keepdims=True) /* ty=Tensor[(1, 128, 1), float32] */
  };
  %3441 = %3440(%3439) /* ty=Tensor[(1, 128, 1), float32] */;
  %3442 = fn (%p0401: Tensor[(1, 128, 1024), float32], %p1273: Tensor[(1, 128, 1), float32], Primitive=1, hash="d63ceec029ccca0c") -> Tensor[(1, 128, 1024), float32] {
    subtract(%p0401, %p1273) /* ty=Tensor[(1, 128, 1024), float32] */
  };
  %3443 = %3442(%3439, %3441) /* ty=Tensor[(1, 128, 1024), float32] */;
  %3444 = fn (%p0400: Tensor[(1, 128, 1024), float32], Primitive=1, hash="1f22efdffe5555e9") -> Tensor[(1, 128, 1), float32] {
    %2156 = power(%p0400, 2f /* ty=float32 */) /* ty=Tensor[(1, 128, 1024), float32] */;
    mean(%2156, axis=[-1], keepdims=True) /* ty=Tensor[(1, 128, 1), float32] */
  };
  %3445 = %3444(%3443) /* ty=Tensor[(1, 128, 1), float32] */;
  %3446 = fn (%p0399: Tensor[(1, 128, 1), float32], %p1272: Tensor[(1, 128, 1024), float32], %p2180: Tensor[(1024), float32], %p336: Tensor[(1024), float32], Primitive=1, hash="8fb20fee52c950d9") -> Tensor[(1, 128, 1024), int8] {
    %2148 = add(%p0399, 1e-12f /* ty=float32 */) /* ty=Tensor[(1, 128, 1), float32] */;
    %2149 = sqrt(%2148) /* ty=Tensor[(1, 128, 1), float32] */;
    %2150 = divide(%p1272, %2149) /* ty=Tensor[(1, 128, 1024), float32] */;
    %2151 = multiply(%2150, %p2180) /* ty=Tensor[(1, 128, 1024), float32] */;
    %2152 = add(%2151, %p336) /* ty=Tensor[(1, 128, 1024), float32] */;
    %2153 = divide(%2152, 0.0376433f /* ty=float32 */) /* ty=Tensor[(1, 128, 1024), float32] */;
    %2154 = clip(%2153, a_min=-128f, a_max=127f) /* ty=Tensor[(1, 128, 1024), float32] */;
    %2155 = round(%2154) /* ty=Tensor[(1, 128, 1024), float32] */;
    cast(%2155, dtype="int8") /* ty=Tensor[(1, 128, 1024), int8] */
  };
  %3447 = %3446(%3445, %3443, meta[relay.Constant][135] /* ty=Tensor[(1024), float32] */, meta[relay.Constant][136] /* ty=Tensor[(1024), float32] */) /* ty=Tensor[(1, 128, 1024), int8] */;
  %3448 = fn (%p0398: Tensor[(1, 128, 1024), int8], Primitive=1, hash="165a7eb60476bae6") -> Tensor[(128, 1024), uint8] {
    %2145 = reshape(%p0398, newshape=[-1, 1024]) /* ty=Tensor[(128, 1024), int8] */;
    %2146 = cast(%2145, dtype="int32") /* ty=Tensor[(128, 1024), int32] */;
    %2147 = add(%2146, 128 /* ty=int32 */) /* ty=Tensor[(128, 1024), int32] */;
    cast(%2147, dtype="uint8") /* ty=Tensor[(128, 1024), uint8] */
  };
  %3449 = %3448(%3447) /* ty=Tensor[(128, 1024), uint8] */;
  %3450 = fn (%p0397: Tensor[(128, 1024), uint8], %p1271: Tensor[(64, 256, 16, 4), int8], %p2179: Tensor[(1, 1024), int32], Primitive=1, hash="a41f099f91287173", weight_layout="NC16n4c") -> Tensor[(128, 1024), int32] {
    %2144 = nn.contrib_dense_pack(%p0397, %p1271, units=None, out_dtype="int32", weight_layout="NC16n4c") /* ty=Tensor[(128, 1024), int32] */;
    subtract(%2144, %p2179) /* ty=Tensor[(128, 1024), int32] */
  };
  %3451 = %3450(%3449, meta[relay.Constant][137] /* ty=Tensor[(64, 256, 16, 4), int8] */, meta[relay.Constant][138] /* ty=Tensor[(1, 1024), int32] */) /* ty=Tensor[(128, 1024), int32] */;
  %3452 = fn (%p0396: Tensor[(128, 1024), int32], %p1270: Tensor[(1024), int32], Primitive=1, hash="5a263e10459a738a") -> Tensor[(16, 128, 64), uint8] {
    %2128 = reshape(%p0396, newshape=[1, 128, 1024]) /* ty=Tensor[(1, 128, 1024), int32] */;
    %2129 = add(%2128, %p1270) /* ty=Tensor[(1, 128, 1024), int32] */;
    %2130 = clip(%2129, a_min=-2.14748e+09f, a_max=2.14748e+09f) /* ty=Tensor[(1, 128, 1024), int32] */;
    %2131 = reshape(%2130, newshape=[1, 128, 16, 64]) /* ty=Tensor[(1, 128, 16, 64), int32] */;
…
    %252 = power(%p048, 2f /* ty=float32 */) /* ty=Tensor[(1, 128, 1024), float32] */;
    mean(%252, axis=[-1], keepdims=True) /* ty=Tensor[(1, 128, 1), float32] */
  };
  %4917 = %4916(%4915) /* ty=Tensor[(1, 128, 1), float32] */;
  %4918 = fn (%p047: Tensor[(1, 128, 1), float32], %p132: Tensor[(1, 128, 1024), float32], %p220: Tensor[(1024), float32], %p34: Tensor[(1024), float32], Primitive=1, hash="81cbfa8d0c309fc1") -> Tensor[(1, 128, 1024), int8] {
    %244 = add(%p047, 1e-12f /* ty=float32 */) /* ty=Tensor[(1, 128, 1), float32] */;
    %245 = sqrt(%244) /* ty=Tensor[(1, 128, 1), float32] */;
    %246 = divide(%p132, %245) /* ty=Tensor[(1, 128, 1024), float32] */;
    %247 = multiply(%246, %p220) /* ty=Tensor[(1, 128, 1024), float32] */;
    %248 = add(%247, %p34) /* ty=Tensor[(1, 128, 1024), float32] */;
    %249 = divide(%248, 0.0497798f /* ty=float32 */) /* ty=Tensor[(1, 128, 1024), float32] */;
    %250 = clip(%249, a_min=-128f, a_max=127f) /* ty=Tensor[(1, 128, 1024), float32] */;
    %251 = round(%250) /* ty=Tensor[(1, 128, 1024), float32] */;
    cast(%251, dtype="int8") /* ty=Tensor[(1, 128, 1024), int8] */
  };
  %4919 = %4918(%4917, %4915, meta[relay.Constant][487] /* ty=Tensor[(1024), float32] */, meta[relay.Constant][488] /* ty=Tensor[(1024), float32] */) /* ty=Tensor[(1, 128, 1024), int8] */;
  %4920 = fn (%p046: Tensor[(1, 128, 1024), int8], Primitive=1, hash="165a7eb60476bae6") -> Tensor[(128, 1024), uint8] {
    %241 = reshape(%p046, newshape=[-1, 1024]) /* ty=Tensor[(128, 1024), int8] */;
    %242 = cast(%241, dtype="int32") /* ty=Tensor[(128, 1024), int32] */;
    %243 = add(%242, 128 /* ty=int32 */) /* ty=Tensor[(128, 1024), int32] */;
    cast(%243, dtype="uint8") /* ty=Tensor[(128, 1024), uint8] */
  };
  %4921 = %4920(%4919) /* ty=Tensor[(128, 1024), uint8] */;
  %4922 = fn (%p045: Tensor[(128, 1024), uint8], %p131: Tensor[(64, 256, 16, 4), int8], %p219: Tensor[(1, 1024), int32], Primitive=1, hash="a41f099f91287173", weight_layout="NC16n4c") -> Tensor[(128, 1024), int32] {
    %240 = nn.contrib_dense_pack(%p045, %p131, units=None, out_dtype="int32", weight_layout="NC16n4c") /* ty=Tensor[(128, 1024), int32] */;
    subtract(%240, %p219) /* ty=Tensor[(128, 1024), int32] */
  };
  %4923 = %4922(%4921, meta[relay.Constant][489] /* ty=Tensor[(64, 256, 16, 4), int8] */, meta[relay.Constant][490] /* ty=Tensor[(1, 1024), int32] */) /* ty=Tensor[(128, 1024), int32] */;
  %4924 = fn (%p044: Tensor[(128, 1024), int32], %p130: Tensor[(1024), int32], Primitive=1, hash="f4d6dc85aed9d89b") -> Tensor[(16, 128, 64), uint8] {
    %224 = reshape(%p044, newshape=[1, 128, 1024]) /* ty=Tensor[(1, 128, 1024), int32] */;
    %225 = add(%224, %p130) /* ty=Tensor[(1, 128, 1024), int32] */;
    %226 = clip(%225, a_min=-2.14748e+09f, a_max=2.14748e+09f) /* ty=Tensor[(1, 128, 1024), int32] */;
    %227 = reshape(%226, newshape=[1, 128, 16, 64]) /* ty=Tensor[(1, 128, 16, 64), int32] */;
    %228 = transpose(%227, axes=[0, 2, 1, 3]) /* ty=Tensor[(1, 16, 128, 64), int32] */;
    %229 = cast(%228, dtype="float32") /* ty=Tensor[(1, 16, 128, 64), float32] */;
    %230 = multiply(0.0017688f /* ty=float32 */, %229) /* ty=Tensor[(1, 16, 128, 64), float32] */;
    %231 = add(%230, 0.5f /* ty=float32 */) /* ty=Tensor[(1, 16, 128, 64), float32] */;
    %232 = floor(%231) /* ty=Tensor[(1, 16, 128, 64), float32] */;
    %233 = cast(%232, dtype="int32") /* ty=Tensor[(1, 16, 128, 64), int32] */;
    %234 = clip(%233, a_min=-128f, a_max=127f) /* ty=Tensor[(1, 16, 128, 64), int32] */;
    %235 = cast(%234, dtype="int8") /* ty=Tensor[(1, 16, 128, 64), int8] */;
    %236 = broadcast_to(%235, shape=[1, 16, 128, 64]) /* ty=Tensor[(1, 16, 128, 64), int8] */;
    %237 = reshape(%236, newshape=[-1, 128, 64]) /* ty=Tensor[(16, 128, 64), int8] */;
    %238 = cast(%237, dtype="int32") /* ty=Tensor[(16, 128, 64), int32] */;
    %239 = add(%238, 128 /* ty=int32 */) /* ty=Tensor[(16, 128, 64), int32] */;
    cast(%239, dtype="uint8") /* ty=Tensor[(16, 128, 64), uint8] */
  };
  %4940 = fn (%p0714: Tensor[(128, 1024), uint8], %p1454: Tensor[(64, 256, 16, 4), int8], %p2286: Tensor[(1, 1024), int32], Primitive=1, hash="a41f099f91287173", weight_layout="NC16n4c") -> Tensor[(128, 1024), int32] {
    %4939 = nn.contrib_dense_pack(%p0714, %p1454, units=None, out_dtype="int32", weight_layout="NC16n4c") /* ty=Tensor[(128, 1024), int32] */;
    subtract(%4939, %p2286) /* ty=Tensor[(128, 1024), int32] */
  };
  %4941 = %4940(%4921, meta[relay.Constant][492] /* ty=Tensor[(64, 256, 16, 4), int8] */, meta[relay.Constant][493] /* ty=Tensor[(1, 1024), int32] */) /* ty=Tensor[(128, 1024), int32] */;
  %4942 = fn (%p0713: Tensor[(128, 1024), int32], %p1453: Tensor[(1024), int32], Primitive=1, hash="69c438b9d644c3ca") -> Tensor[(16, 128, 64), int8] {
    %4925 = reshape(%p0713, newshape=[1, 128, 1024]) /* ty=Tensor[(1, 128, 1024), int32] */;
    %4926 = add(%4925, %p1453) /* ty=Tensor[(1, 128, 1024), int32] */;
    %4927 = clip(%4926, a_min=-2.14748e+09f, a_max=2.14748e+09f) /* ty=Tensor[(1, 128, 1024), int32] */;
    %4928 = reshape(%4927, newshape=[1, 128, 16, 64]) /* ty=Tensor[(1, 128, 16, 64), int32] */;
    %4929 = transpose(%4928, axes=[0, 2, 3, 1]) /* ty=Tensor[(1, 16, 64, 128), int32] */;
    %4930 = cast(%4929, dtype="float32") /* ty=Tensor[(1, 16, 64, 128), float32] */;
    %4931 = multiply(0.0017688f /* ty=float32 */, %4930) /* ty=Tensor[(1, 16, 64, 128), float32] */;
    %4932 = add(%4931, 0.5f /* ty=float32 */) /* ty=Tensor[(1, 16, 64, 128), float32] */;
    %4933 = floor(%4932) /* ty=Tensor[(1, 16, 64, 128), float32] */;
    %4934 = cast(%4933, dtype="int32") /* ty=Tensor[(1, 16, 64, 128), int32] */;
    %4935 = clip(%4934, a_min=-128f, a_max=127f) /* ty=Tensor[(1, 16, 64, 128), int32] */;
    %4936 = cast(%4935, dtype="int8") /* ty=Tensor[(1, 16, 64, 128), int8] */;
    %4937 = broadcast_to(%4936, shape=[1, 16, 64, 128]) /* ty=Tensor[(1, 16, 64, 128), int8] */;
    %4938 = reshape(%4937, newshape=[-1, 64, 128]) /* ty=Tensor[(16, 64, 128), int8] */;
    transpose(%4938, axes=[0, 2, 1]) /* ty=Tensor[(16, 128, 64), int8] */
  };
  %4944 = %4942(%4941, meta[relay.Constant][494] /* ty=Tensor[(1024), int32] */) /* ty=Tensor[(16, 128, 64), int8] */;
  %4945 = fn (%p0715: Tensor[(16, 128, 64), int8], Primitive=1, hash="730fc163d25a20bf") -> Tensor[(16, 128), int32] {
    %4943 = cast(%p0715, dtype="int32") /* ty=Tensor[(16, 128, 64), int32] */;
    sum(%4943, axis=[-1]) /* ty=Tensor[(16, 128), int32] */
  };
  %4946 = %4924(%4923, meta[relay.Constant][491] /* ty=Tensor[(1024), int32] */) /* ty=Tensor[(16, 128, 64), uint8] */;
  %4947 = %4945(%4944) /* ty=Tensor[(16, 128), int32] */;
  %4948 = fn (%p043: Tensor[(16, 128, 64), uint8], %p129: Tensor[(16, 128, 64), int8], %p218: Tensor[(16, 128), int32], Primitive=1, hash="6fff1eb43119fc91") -> Tensor[(16, 128, 128), int32] {
    %221 = multiply(128 /* ty=int32 */, %p218) /* ty=Tensor[(16, 128), int32] */;
    %222 = nn.batch_matmul(%p043, %p129, out_dtype="int32", transpose_b=True) /* ty=Tensor[(16, 128, 128), int32] */;
    %223 = expand_dims(%221, axis=1) /* ty=Tensor[(16, 1, 128), int32] */;
    subtract(%222, %223) /* ty=Tensor[(16, 128, 128), int32] */
  };
  %4949 = %4948(%4946, %4944, %4947) /* ty=Tensor[(16, 128, 128), int32] */;
  %4950 = fn (%p042: Tensor[(16, 128, 128), int32], %p128: Tensor[(1, 1, 1, 128), float32], Primitive=1, hash="23391ef1926f8f91") -> Tensor[(1, 16, 128, 128), float32] {
    %217 = reshape(%p042, newshape=[1, 16, 128, 128]) /* ty=Tensor[(1, 16, 128, 128), int32] */;
    %218 = cast(%217, dtype="float32") /* ty=Tensor[(1, 16, 128, 128), float32] */;
    %219 = multiply(%218, 0.00681919f /* ty=float32 */) /* ty=Tensor[(1, 16, 128, 128), float32] */;
    %220 = divide(%219, 8f /* ty=float32 */) /* ty=Tensor[(1, 16, 128, 128), float32] */;
    add(%220, %p128) /* ty=Tensor[(1, 16, 128, 128), float32] */
  };
  %4951 = %4950(%4949, %2925) /* ty=Tensor[(1, 16, 128, 128), float32] */;
  %4952 = fn (%p041: Tensor[(1, 16, 128, 128), float32], Primitive=1, hash="7e1ccefce278b800") -> Tensor[(1, 16, 128, 128), int8] {
    %213 = nn.softmax(%p041, axis=3) /* ty=Tensor[(1, 16, 128, 128), float32] */;
    %214 = divide(%213, 0.00874463f /* ty=float32 */) /* ty=Tensor[(1, 16, 128, 128), float32] */;
    %215 = clip(%214, a_min=-128f, a_max=127f) /* ty=Tensor[(1, 16, 128, 128), float32] */;
    %216 = round(%215) /* ty=Tensor[(1, 16, 128, 128), float32] */;
    cast(%216, dtype="int8") /* ty=Tensor[(1, 16, 128, 128), int8] */
  };
  %4953 = %4952(%4951) /* ty=Tensor[(1, 16, 128, 128), int8] */;
  %4954 = fn (%p040: Tensor[(1, 16, 128, 128), int8], Primitive=1, hash="1e01d52113b0d8e6") -> Tensor[(16, 128, 128), uint8] {
    %209 = broadcast_to(%p040, shape=[1, 16, 128, 128]) /* ty=Tensor[(1, 16, 128, 128), int8] */;
    %210 = reshape(%209, newshape=[-1, 128, 128]) /* ty=Tensor[(16, 128, 128), int8] */;
    %211 = cast(%210, dtype="int32") /* ty=Tensor[(16, 128, 128), int32] */;
    %212 = add(%211, 128 /* ty=int32 */) /* ty=Tensor[(16, 128, 128), int32] */;
    cast(%212, dtype="uint8") /* ty=Tensor[(16, 128, 128), uint8] */
  };
  %4970 = fn (%p0717: Tensor[(128, 1024), uint8], %p1456: Tensor[(64, 256, 16, 4), int8], %p2287: Tensor[(1, 1024), int32], Primitive=1, hash="a41f099f91287173", weight_layout="NC16n4c") -> Tensor[(128, 1024), int32] {
    %4969 = nn.contrib_dense_pack(%p0717, %p1456, units=None, out_dtype="int32", weight_layout="NC16n4c") /* ty=Tensor[(128, 1024), int32] */;
    subtract(%4969, %p2287) /* ty=Tensor[(128, 1024), int32] */
  };
  %4971 = %4970(%4921, meta[relay.Constant][495] /* ty=Tensor[(64, 256, 16, 4), int8] */, meta[relay.Constant][496] /* ty=Tensor[(1, 1024), int32] */) /* ty=Tensor[(128, 1024), int32] */;
  %4972 = fn (%p0716: Tensor[(128, 1024), int32], %p1455: Tensor[(1024), int32], Primitive=1, hash="978338e29d425f90") -> Tensor[(16, 64, 128), int8] {
    %4955 = reshape(%p0716, newshape=[1, 128, 1024]) /* ty=Tensor[(1, 128, 1024), int32] */;
    %4956 = add(%4955, %p1455) /* ty=Tensor[(1, 128, 1024), int32] */;
    %4957 = clip(%4956, a_min=-2.14748e+09f, a_max=2.14748e+09f) /* ty=Tensor[(1, 128, 1024), int32] */;
    %4958 = reshape(%4957, newshape=[1, 128, 16, 64]) /* ty=Tensor[(1, 128, 16, 64), int32] */;
    %4959 = transpose(%4958, axes=[0, 2, 1, 3]) /* ty=Tensor[(1, 16, 128, 64), int32] */;
    %4960 = cast(%4959, dtype="float32") /* ty=Tensor[(1, 16, 128, 64), float32] */;
    %4961 = multiply(0.0017688f /* ty=float32 */, %4960) /* ty=Tensor[(1, 16, 128, 64), float32] */;
    %4962 = add(%4961, 0.5f /* ty=float32 */) /* ty=Tensor[(1, 16, 128, 64), float32] */;
    %4963 = floor(%4962) /* ty=Tensor[(1, 16, 128, 64), float32] */;
    %4964 = cast(%4963, dtype="int32") /* ty=Tensor[(1, 16, 128, 64), int32] */;
    %4965 = clip(%4964, a_min=-128f, a_max=127f) /* ty=Tensor[(1, 16, 128, 64), int32] */;
    %4966 = cast(%4965, dtype="int8") /* ty=Tensor[(1, 16, 128, 64), int8] */;
    %4967 = broadcast_to(%4966, shape=[1, 16, 128, 64]) /* ty=Tensor[(1, 16, 128, 64), int8] */;
    %4968 = reshape(%4967, newshape=[-1, 128, 64]) /* ty=Tensor[(16, 128, 64), int8] */;
    transpose(%4968, axes=[0, 2, 1]) /* ty=Tensor[(16, 64, 128), int8] */
  };
  %4974 = %4972(%4971, meta[relay.Constant][497] /* ty=Tensor[(1024), int32] */) /* ty=Tensor[(16, 64, 128), int8] */;
  %4975 = fn (%p0718: Tensor[(16, 64, 128), int8], Primitive=1, hash="01b1b769a1f35abd") -> Tensor[(16, 64), int32] {
    %4973 = cast(%p0718, dtype="int32") /* ty=Tensor[(16, 64, 128), int32] */;
    sum(%4973, axis=[-1]) /* ty=Tensor[(16, 64), int32] */
  };
  %4976 = %4954(%4953) /* ty=Tensor[(16, 128, 128), uint8] */;
  %4977 = %4975(%4974) /* ty=Tensor[(16, 64), int32] */;
  %4978 = fn (%p039: Tensor[(16, 128, 128), uint8], %p127: Tensor[(16, 64, 128), int8], %p217: Tensor[(16, 64), int32], Primitive=1, hash="8d8117dbe1fc815a") -> Tensor[(16, 128, 64), int32] {
    %206 = multiply(128 /* ty=int32 */, %p217) /* ty=Tensor[(16, 64), int32] */;
    %207 = nn.batch_matmul(%p039, %p127, out_dtype="int32", transpose_b=True) /* ty=Tensor[(16, 128, 64), int32] */;
    %208 = expand_dims(%206, axis=1) /* ty=Tensor[(16, 1, 64), int32] */;
    subtract(%207, %208) /* ty=Tensor[(16, 128, 64), int32] */
  };
  %4979 = %4978(%4976, %4974, %4977) /* ty=Tensor[(16, 128, 64), int32] */;
  %4980 = fn (%p038: Tensor[(16, 128, 64), int32], Primitive=1, hash="811f02f269e5a618") -> Tensor[(128, 1024), uint8] {
    %193 = reshape(%p038, newshape=[1, 16, 128, 64]) /* ty=Tensor[(1, 16, 128, 64), int32] */;
    %194 = transpose(%193, axes=[0, 2, 1, 3]) /* ty=Tensor[(1, 128, 16, 64), int32] */;
    %195 = reshape(%194, newshape=[1, 128, 1024]) /* ty=Tensor[(1, 128, 1024), int32] */;
    %196 = cast(%195, dtype="float32") /* ty=Tensor[(1, 128, 1024), float32] */;
    %197 = multiply(0.0517465f /* ty=float32 */, %196) /* ty=Tensor[(1, 128, 1024), float32] */;
    %198 = add(%197, 0.5f /* ty=float32 */) /* ty=Tensor[(1, 128, 1024), float32] */;
    %199 = floor(%198) /* ty=Tensor[(1, 128, 1024), float32] */;
    %200 = cast(%199, dtype="int32") /* ty=Tensor[(1, 128, 1024), int32] */;
    %201 = clip(%200, a_min=-128f, a_max=127f) /* ty=Tensor[(1, 128, 1024), int32] */;
    %202 = cast(%201, dtype="int8") /* ty=Tensor[(1, 128, 1024), int8] */;
    %203 = reshape(%202, newshape=[-1, 1024]) /* ty=Tensor[(128, 1024), int8] */;
    %204 = cast(%203, dtype="int32") /* ty=Tensor[(128, 1024), int32] */;
    %205 = add(%204, 128 /* ty=int32 */) /* ty=Tensor[(128, 1024), int32] */;
    cast(%205, dtype="uint8") /* ty=Tensor[(128, 1024), uint8] */
  };
  %4981 = %4980(%4979) /* ty=Tensor[(128, 1024), uint8] */;
  %4982 = fn (%p037: Tensor[(128, 1024), uint8], %p126: Tensor[(64, 256, 16, 4), int8], %p216: Tensor[(1, 1024), int32], Primitive=1, hash="a41f099f91287173", weight_layout="NC16n4c") -> Tensor[(128, 1024), int32] {
    %192 = nn.contrib_dense_pack(%p037, %p126, units=None, out_dtype="int32", weight_layout="NC16n4c") /* ty=Tensor[(128, 1024), int32] */;
    subtract(%192, %p216) /* ty=Tensor[(128, 1024), int32] */
  };
  %4983 = %4982(%4981, meta[relay.Constant][498] /* ty=Tensor[(64, 256, 16, 4), int8] */, meta[relay.Constant][499] /* ty=Tensor[(1, 1024), int32] */) /* ty=Tensor[(128, 1024), int32] */;
  %4984 = fn (%p036: Tensor[(128, 1024), int32], %p125: Tensor[(1024), int32], %p215: Tensor[(1, 128, 1024), int8], Primitive=1, hash="7addbc0b86ba2e2d") -> Tensor[(1, 128, 1024), float32] {
    %178 = reshape(%p036, newshape=[1, 128, 1024]) /* ty=Tensor[(1, 128, 1024), int32] */;
    %179 = add(%178, %p125) /* ty=Tensor[(1, 128, 1024), int32] */;
    %180 = clip(%179, a_min=-2.14748e+09f, a_max=2.14748e+09f) /* ty=Tensor[(1, 128, 1024), int32] */;
    %181 = cast(%180, dtype="float32") /* ty=Tensor[(1, 128, 1024), float32] */;
    %182 = multiply(0.00298418f /* ty=float32 */, %181) /* ty=Tensor[(1, 128, 1024), float32] */;
    %183 = add(%182, 0.5f /* ty=float32 */) /* ty=Tensor[(1, 128, 1024), float32] */;
    %184 = floor(%183) /* ty=Tensor[(1, 128, 1024), float32] */;
    %185 = cast(%184, dtype="int32") /* ty=Tensor[(1, 128, 1024), int32] */;
    %186 = clip(%185, a_min=-128f, a_max=127f) /* ty=Tensor[(1, 128, 1024), int32] */;
    %187 = cast(%186, dtype="int8") /* ty=Tensor[(1, 128, 1024), int8] */;
    %188 = cast(%187, dtype="float32") /* ty=Tensor[(1, 128, 1024), float32] */;
    %189 = cast(%p215, dtype="float32") /* ty=Tensor[(1, 128, 1024), float32] */;
    %190 = multiply(%188, 0.00948529f /* ty=float32 */) /* ty=Tensor[(1, 128, 1024), float32] */;
    %191 = multiply(%189, 0.0497798f /* ty=float32 */) /* ty=Tensor[(1, 128, 1024), float32] */;
    add(%190, %191) /* ty=Tensor[(1, 128, 1024), float32] */
  };
  %4985 = %4984(%4983, meta[relay.Constant][500] /* ty=Tensor[(1024), int32] */, %4919) /* ty=Tensor[(1, 128, 1024), float32] */;
  %4986 = fn (%p0719: Tensor[(1, 128, 1024), float32], Primitive=1, hash="2c2db313332ac77e") -> Tensor[(1, 128, 1), float32] {
    mean(%p0719, axis=[-1], keepdims=True) /* ty=Tensor[(1, 128, 1), float32] */
  };
  %4987 = %4986(%4985) /* ty=Tensor[(1, 128, 1), float32] */;
  %4988 = fn (%p035: Tensor[(1, 128, 1024), float32], %p124: Tensor[(1, 128, 1), float32], Primitive=1, hash="d63ceec029ccca0c") -> Tensor[(1, 128, 1024), float32] {
    subtract(%p035, %p124) /* ty=Tensor[(1, 128, 1024), float32] */
  };
  %4989 = %4988(%4985, %4987) /* ty=Tensor[(1, 128, 1024), float32] */;
  %4990 = fn (%p034: Tensor[(1, 128, 1024), float32], Primitive=1, hash="1f22efdffe5555e9") -> Tensor[(1, 128, 1), float32] {
    %177 = power(%p034, 2f /* ty=float32 */) /* ty=Tensor[(1, 128, 1024), float32] */;
    mean(%177, axis=[-1], keepdims=True) /* ty=Tensor[(1, 128, 1), float32] */
  };
  %4991 = %4990(%4989) /* ty=Tensor[(1, 128, 1), float32] */;
  %4992 = fn (%p033: Tensor[(1, 128, 1), float32], %p123: Tensor[(1, 128, 1024), float32], %p214: Tensor[(1024), float32], %p33: Tensor[(1024), float32], Primitive=1, hash="22c2914cedb62e2a") -> Tensor[(1, 128, 1024), int8] {
    %169 = add(%p033, 1e-12f /* ty=float32 */) /* ty=Tensor[(1, 128, 1), float32] */;
    %170 = sqrt(%169) /* ty=Tensor[(1, 128, 1), float32] */;
    %171 = divide(%p123, %170) /* ty=Tensor[(1, 128, 1024), float32] */;
    %172 = multiply(%171, %p214) /* ty=Tensor[(1, 128, 1024), float32] */;
    %173 = add(%172, %p33) /* ty=Tensor[(1, 128, 1024), float32] */;
    %174 = divide(%173, 0.0983768f /* ty=float32 */) /* ty=Tensor[(1, 128, 1024), float32] */;
    %175 = clip(%174, a_min=-128f, a_max=127f) /* ty=Tensor[(1, 128, 1024), float32] */;
    %176 = round(%175) /* ty=Tensor[(1, 128, 1024), float32] */;
    cast(%176, dtype="int8") /* ty=Tensor[(1, 128, 1024), int8] */
  };
  %4993 = %4992(%4991, %4989, meta[relay.Constant][501] /* ty=Tensor[(1024), float32] */, meta[relay.Constant][502] /* ty=Tensor[(1024), float32] */) /* ty=Tensor[(1, 128, 1024), int8] */;
  %4994 = fn (%p032: Tensor[(1, 128, 1024), int8], Primitive=1, hash="165a7eb60476bae6") -> Tensor[(128, 1024), uint8] {
    %166 = reshape(%p032, newshape=[-1, 1024]) /* ty=Tensor[(128, 1024), int8] */;
    %167 = cast(%166, dtype="int32") /* ty=Tensor[(128, 1024), int32] */;
    %168 = add(%167, 128 /* ty=int32 */) /* ty=Tensor[(128, 1024), int32] */;
    cast(%168, dtype="uint8") /* ty=Tensor[(128, 1024), uint8] */
  };
  %4995 = %4994(%4993) /* ty=Tensor[(128, 1024), uint8] */;
  %4996 = fn (%p031: Tensor[(128, 1024), uint8], %p122: Tensor[(256, 256, 16, 4), int8], %p213: Tensor[(1, 4096), int32], Primitive=1, hash="7df485f4b3219f11", weight_layout="NC16n4c") -> Tensor[(128, 4096), int32] {
    %165 = nn.contrib_dense_pack(%p031, %p122, units=None, out_dtype="int32", weight_layout="NC16n4c") /* ty=Tensor[(128, 4096), int32] */;
    subtract(%165, %p213) /* ty=Tensor[(128, 4096), int32] */
  };
  %4997 = %4996(%4995, meta[relay.Constant][503] /* ty=Tensor[(256, 256, 16, 4), int8] */, meta[relay.Constant][504] /* ty=Tensor[(1, 4096), int32] */) /* ty=Tensor[(128, 4096), int32] */;
  %4998 = fn (%p030: Tensor[(128, 4096), int32], %p121: Tensor[(4096), float32], Primitive=1, hash="8755debc261d3787") -> Tensor[(128, 4096), uint8] {
    %149 = reshape(%p030, newshape=[1, 128, 4096]) /* ty=Tensor[(1, 128, 4096), int32] */;
    %150 = cast(%149, dtype="float32") /* ty=Tensor[(1, 128, 4096), float32] */;
    %151 = multiply(%150, 0.000720727f /* ty=float32 */) /* ty=Tensor[(1, 128, 4096), float32] */;
    %152 = add(%151, %p121) /* ty=Tensor[(1, 128, 4096), float32] */;
    %153 = divide(%152, 1.41421f /* ty=float32 */) /* ty=Tensor[(1, 128, 4096), float32] */;
    %154 = erf(%153) /* ty=Tensor[(1, 128, 4096), float32] */;
    %155 = multiply(%152, 0.5f /* ty=float32 */) /* ty=Tensor[(1, 128, 4096), float32] */;
    %156 = add(%154, 1f /* ty=float32 */) /* ty=Tensor[(1, 128, 4096), float32] */;
    %157 = multiply(%155, %156) /* ty=Tensor[(1, 128, 4096), float32] */;
    %158 = divide(%157, 0.0244911f /* ty=float32 */) /* ty=Tensor[(1, 128, 4096), float32] */;
    %159 = clip(%158, a_min=-128f, a_max=127f) /* ty=Tensor[(1, 128, 4096), float32] */;
    %160 = round(%159) /* ty=Tensor[(1, 128, 4096), float32] */;
    %161 = cast(%160, dtype="int8") /* ty=Tensor[(1, 128, 4096), int8] */;
    %162 = reshape(%161, newshape=[-1, 4096]) /* ty=Tensor[(128, 4096), int8] */;
    %163 = cast(%162, dtype="int32") /* ty=Tensor[(128, 4096), int32] */;
    %164 = add(%163, 128 /* ty=int32 */) /* ty=Tensor[(128, 4096), int32] */;
    cast(%164, dtype="uint8") /* ty=Tensor[(128, 4096), uint8] */
  };
  %4999 = %4998(%4997, meta[relay.Constant][505] /* ty=Tensor[(4096), float32] */) /* ty=Tensor[(128, 4096), uint8] */;
  %5000 = fn (%p029: Tensor[(128, 4096), uint8], %p120: Tensor[(64, 1024, 16, 4), int8], %p212: Tensor[(1, 1024), int32], Primitive=1, hash="bcbc065dbaa86fe4", weight_layout="NC16n4c") -> Tensor[(128, 1024), int32] {
    %148 = nn.contrib_dense_pack(%p029, %p120, units=None, out_dtype="int32", weight_layout="NC16n4c") /* ty=Tensor[(128, 1024), int32] */;
    subtract(%148, %p212) /* ty=Tensor[(128, 1024), int32] */
  };
  %5001 = %5000(%4999, meta[relay.Constant][506] /* ty=Tensor[(64, 1024, 16, 4), int8] */, meta[relay.Constant][507] /* ty=Tensor[(1, 1024), int32] */) /* ty=Tensor[(128, 1024), int32] */;
  %5002 = fn (%p028: Tensor[(128, 1024), int32], %p119: Tensor[(1024), int32], %p211: Tensor[(1, 128, 1024), int8], Primitive=1, hash="b17d8dbe22fa4e63") -> Tensor[(1, 128, 1024), float32] {
    %134 = reshape(%p028, newshape=[1, 128, 1024]) /* ty=Tensor[(1, 128, 1024), int32] */;
    %135 = add(%134, %p119) /* ty=Tensor[(1, 128, 1024), int32] */;
    %136 = clip(%135, a_min=-2.14748e+09f, a_max=2.14748e+09f) /* ty=Tensor[(1, 128, 1024), int32] */;
    %137 = cast(%136, dtype="float32") /* ty=Tensor[(1, 128, 1024), float32] */;
    %138 = multiply(0.00704942f /* ty=float32 */, %137) /* ty=Tensor[(1, 128, 1024), float32] */;
    %139 = add(%138, 0.5f /* ty=float32 */) /* ty=Tensor[(1, 128, 1024), float32] */;
    %140 = floor(%139) /* ty=Tensor[(1, 128, 1024), float32] */;
    %141 = cast(%140, dtype="int32") /* ty=Tensor[(1, 128, 1024), int32] */;
    %142 = clip(%141, a_min=-128f, a_max=127f) /* ty=Tensor[(1, 128, 1024), int32] */;
    %143 = cast(%142, dtype="int8") /* ty=Tensor[(1, 128, 1024), int8] */;
    %144 = cast(%143, dtype="float32") /* ty=Tensor[(1, 128, 1024), float32] */;
    %145 = cast(%p211, dtype="float32") /* ty=Tensor[(1, 128, 1024), float32] */;
    %146 = multiply(%144, 0.190011f /* ty=float32 */) /* ty=Tensor[(1, 128, 1024), float32] */;
    %147 = multiply(%145, 0.0983768f /* ty=float32 */) /* ty=Tensor[(1, 128, 1024), float32] */;
    add(%146, %147) /* ty=Tensor[(1, 128, 1024), float32] */
  };
  %5003 = %5002(%5001, meta[relay.Constant][508] /* ty=Tensor[(1024), int32] */, %4993) /* ty=Tensor[(1, 128, 1024), float32] */;
  %5004 = fn (%p0720: Tensor[(1, 128, 1024), float32], Primitive=1, hash="2c2db313332ac77e") -> Tensor[(1, 128, 1), float32] {
    mean(%p0720, axis=[-1], keepdims=True) /* ty=Tensor[(1, 128, 1), float32] */
  };
  %5005 = %5004(%5003) /* ty=Tensor[(1, 128, 1), float32] */;
  %5006 = fn (%p027: Tensor[(1, 128, 1024), float32], %p118: Tensor[(1, 128, 1), float32], Primitive=1, hash="d63ceec029ccca0c") -> Tensor[(1, 128, 1024), float32] {
    subtract(%p027, %p118) /* ty=Tensor[(1, 128, 1024), float32] */
  };
  %5007 = %5006(%5003, %5005) /* ty=Tensor[(1, 128, 1024), float32] */;
  %5008 = fn (%p026: Tensor[(1, 128, 1024), float32], Primitive=1, hash="1f22efdffe5555e9") -> Tensor[(1, 128, 1), float32] {
    %133 = power(%p026, 2f /* ty=float32 */) /* ty=Tensor[(1, 128, 1024), float32] */;
    mean(%133, axis=[-1], keepdims=True) /* ty=Tensor[(1, 128, 1), float32] */
  };
  %5009 = %5008(%5007) /* ty=Tensor[(1, 128, 1), float32] */;
  %5010 = fn (%p025: Tensor[(1, 128, 1), float32], %p117: Tensor[(1, 128, 1024), float32], %p210: Tensor[(1024), float32], %p32: Tensor[(1024), float32], Primitive=1, hash="077c45a59a11f0b2") -> Tensor[(1, 128, 1024), int8] {
    %125 = add(%p025, 1e-12f /* ty=float32 */) /* ty=Tensor[(1, 128, 1), float32] */;
    %126 = sqrt(%125) /* ty=Tensor[(1, 128, 1), float32] */;
    %127 = divide(%p117, %126) /* ty=Tensor[(1, 128, 1024), float32] */;
    %128 = multiply(%127, %p210) /* ty=Tensor[(1, 128, 1024), float32] */;
    %129 = add(%128, %p32) /* ty=Tensor[(1, 128, 1024), float32] */;
    %130 = divide(%129, 0.0625878f /* ty=float32 */) /* ty=Tensor[(1, 128, 1024), float32] */;
    %131 = clip(%130, a_min=-128f, a_max=127f) /* ty=Tensor[(1, 128, 1024), float32] */;
    %132 = round(%131) /* ty=Tensor[(1, 128, 1024), float32] */;
    cast(%132, dtype="int8") /* ty=Tensor[(1, 128, 1024), int8] */
  };
  %5011 = %5010(%5009, %5007, meta[relay.Constant][509] /* ty=Tensor[(1024), float32] */, meta[relay.Constant][510] /* ty=Tensor[(1024), float32] */) /* ty=Tensor[(1, 128, 1024), int8] */;
  %5012 = fn (%p024: Tensor[(1, 128, 1024), int8], Primitive=1, hash="165a7eb60476bae6") -> Tensor[(128, 1024), uint8] {
    %122 = reshape(%p024, newshape=[-1, 1024]) /* ty=Tensor[(128, 1024), int8] */;
    %123 = cast(%122, dtype="int32") /* ty=Tensor[(128, 1024), int32] */;
    %124 = add(%123, 128 /* ty=int32 */) /* ty=Tensor[(128, 1024), int32] */;
    cast(%124, dtype="uint8") /* ty=Tensor[(128, 1024), uint8] */
  };
  %5013 = %5012(%5011) /* ty=Tensor[(128, 1024), uint8] */;
  %5014 = fn (%p023: Tensor[(128, 1024), uint8], %p116: Tensor[(64, 256, 16, 4), int8], %p29: Tensor[(1, 1024), int32], Primitive=1, hash="a41f099f91287173", weight_layout="NC16n4c") -> Tensor[(128, 1024), int32] {
    %121 = nn.contrib_dense_pack(%p023, %p116, units=None, out_dtype="int32", weight_layout="NC16n4c") /* ty=Tensor[(128, 1024), int32] */;
    subtract(%121, %p29) /* ty=Tensor[(128, 1024), int32] */
  };
  %5015 = %5014(%5013, meta[relay.Constant][511] /* ty=Tensor[(64, 256, 16, 4), int8] */, meta[relay.Constant][512] /* ty=Tensor[(1, 1024), int32] */) /* ty=Tensor[(128, 1024), int32] */;
  %5016 = fn (%p022: Tensor[(128, 1024), int32], %p115: Tensor[(1024), int32], Primitive=1, hash="5ff9a94e96834090") -> Tensor[(16, 128, 64), uint8] {
    %105 = reshape(%p022, newshape=[1, 128, 1024]) /* ty=Tensor[(1, 128, 1024), int32] */;
    %106 = add(%105, %p115) /* ty=Tensor[(1, 128, 1024), int32] */;
    %107 = clip(%106, a_min=-2.14748e+09f, a_max=2.14748e+09f) /* ty=Tensor[(1, 128, 1024), int32] */;
    %108 = reshape(%107, newshape=[1, 128, 16, 64]) /* ty=Tensor[(1, 128, 16, 64), int32] */;
    %109 = transpose(%108, axes=[0, 2, 1, 3]) /* ty=Tensor[(1, 16, 128, 64), int32] */;
    %110 = cast(%109, dtype="float32") /* ty=Tensor[(1, 16, 128, 64), float32] */;
    %111 = multiply(0.00162626f /* ty=float32 */, %110) /* ty=Tensor[(1, 16, 128, 64), float32] */;
    %112 = add(%111, 0.5f /* ty=float32 */) /* ty=Tensor[(1, 16, 128, 64), float32] */;
    %113 = floor(%112) /* ty=Tensor[(1, 16, 128, 64), float32] */;
    %114 = cast(%113, dtype="int32") /* ty=Tensor[(1, 16, 128, 64), int32] */;
    %115 = clip(%114, a_min=-128f, a_max=127f) /* ty=Tensor[(1, 16, 128, 64), int32] */;
    %116 = cast(%115, dtype="int8") /* ty=Tensor[(1, 16, 128, 64), int8] */;
    %117 = broadcast_to(%116, shape=[1, 16, 128, 64]) /* ty=Tensor[(1, 16, 128, 64), int8] */;
    %118 = reshape(%117, newshape=[-1, 128, 64]) /* ty=Tensor[(16, 128, 64), int8] */;
    %119 = cast(%118, dtype="int32") /* ty=Tensor[(16, 128, 64), int32] */;
    %120 = add(%119, 128 /* ty=int32 */) /* ty=Tensor[(16, 128, 64), int32] */;
    cast(%120, dtype="uint8") /* ty=Tensor[(16, 128, 64), uint8] */
  };
  %5032 = fn (%p0722: Tensor[(128, 1024), uint8], %p1458: Tensor[(64, 256, 16, 4), int8], %p2288: Tensor[(1, 1024), int32], Primitive=1, hash="a41f099f91287173", weight_layout="NC16n4c") -> Tensor[(128, 1024), int32] {
    %5031 = nn.contrib_dense_pack(%p0722, %p1458, units=None, out_dtype="int32", weight_layout="NC16n4c") /* ty=Tensor[(128, 1024), int32] */;
    subtract(%5031, %p2288) /* ty=Tensor[(128, 1024), int32] */
  };
  %5033 = %5032(%5013, meta[relay.Constant][514] /* ty=Tensor[(64, 256, 16, 4), int8] */, meta[relay.Constant][515] /* ty=Tensor[(1, 1024), int32] */) /* ty=Tensor[(128, 1024), int32] */;
  %5034 = fn (%p0721: Tensor[(128, 1024), int32], %p1457: Tensor[(1024), int32], Primitive=1, hash="eab79400a5ee90d1") -> Tensor[(16, 128, 64), int8] {
    %5017 = reshape(%p0721, newshape=[1, 128, 1024]) /* ty=Tensor[(1, 128, 1024), int32] */;
    %5018 = add(%5017, %p1457) /* ty=Tensor[(1, 128, 1024), int32] */;
    %5019 = clip(%5018, a_min=-2.14748e+09f, a_max=2.14748e+09f) /* ty=Tensor[(1, 128, 1024), int32] */;
    %5020 = reshape(%5019, newshape=[1, 128, 16, 64]) /* ty=Tensor[(1, 128, 16, 64), int32] */;
    %5021 = transpose(%5020, axes=[0, 2, 3, 1]) /* ty=Tensor[(1, 16, 64, 128), int32] */;
    %5022 = cast(%5021, dtype="float32") /* ty=Tensor[(1, 16, 64, 128), float32] */;
    %5023 = multiply(0.00162626f /* ty=float32 */, %5022) /* ty=Tensor[(1, 16, 64, 128), float32] */;
    %5024 = add(%5023, 0.5f /* ty=float32 */) /* ty=Tensor[(1, 16, 64, 128), float32] */;
    %5025 = floor(%5024) /* ty=Tensor[(1, 16, 64, 128), float32] */;
    %5026 = cast(%5025, dtype="int32") /* ty=Tensor[(1, 16, 64, 128), int32] */;
    %5027 = clip(%5026, a_min=-128f, a_max=127f) /* ty=Tensor[(1, 16, 64, 128), int32] */;
    %5028 = cast(%5027, dtype="int8") /* ty=Tensor[(1, 16, 64, 128), int8] */;
    %5029 = broadcast_to(%5028, shape=[1, 16, 64, 128]) /* ty=Tensor[(1, 16, 64, 128), int8] */;
    %5030 = reshape(%5029, newshape=[-1, 64, 128]) /* ty=Tensor[(16, 64, 128), int8] */;
    transpose(%5030, axes=[0, 2, 1]) /* ty=Tensor[(16, 128, 64), int8] */
  };
  %5036 = %5034(%5033, meta[relay.Constant][516] /* ty=Tensor[(1024), int32] */) /* ty=Tensor[(16, 128, 64), int8] */;
  %5037 = fn (%p0723: Tensor[(16, 128, 64), int8], Primitive=1, hash="730fc163d25a20bf") -> Tensor[(16, 128), int32] {
    %5035 = cast(%p0723, dtype="int32") /* ty=Tensor[(16, 128, 64), int32] */;
    sum(%5035, axis=[-1]) /* ty=Tensor[(16, 128), int32] */
  };
  %5038 = %5016(%5015, meta[relay.Constant][513] /* ty=Tensor[(1024), int32] */) /* ty=Tensor[(16, 128, 64), uint8] */;
  %5039 = %5037(%5036) /* ty=Tensor[(16, 128), int32] */;
  %5040 = fn (%p021: Tensor[(16, 128, 64), uint8], %p114: Tensor[(16, 128, 64), int8], %p28: Tensor[(16, 128), int32], Primitive=1, hash="6fff1eb43119fc91") -> Tensor[(16, 128, 128), int32] {
    %102 = multiply(128 /* ty=int32 */, %p28) /* ty=Tensor[(16, 128), int32] */;
    %103 = nn.batch_matmul(%p021, %p114, out_dtype="int32", transpose_b=True) /* ty=Tensor[(16, 128, 128), int32] */;
    %104 = expand_dims(%102, axis=1) /* ty=Tensor[(16, 1, 128), int32] */;
    subtract(%103, %104) /* ty=Tensor[(16, 128, 128), int32] */
  };
  %5041 = %5040(%5038, %5036, %5039) /* ty=Tensor[(16, 128, 128), int32] */;
  %5042 = fn (%p020: Tensor[(16, 128, 128), int32], %p113: Tensor[(1, 1, 1, 128), float32], Primitive=1, hash="784955bc1f003182") -> Tensor[(1, 16, 128, 128), float32] {
    %98 = reshape(%p020, newshape=[1, 16, 128, 128]) /* ty=Tensor[(1, 16, 128, 128), int32] */;
    %99 = cast(%98, dtype="float32") /* ty=Tensor[(1, 16, 128, 128), float32] */;
    %100 = multiply(%99, 0.00909371f /* ty=float32 */) /* ty=Tensor[(1, 16, 128, 128), float32] */;
    %101 = divide(%100, 8f /* ty=float32 */) /* ty=Tensor[(1, 16, 128, 128), float32] */;
    add(%101, %p113) /* ty=Tensor[(1, 16, 128, 128), float32] */
  };
  %5043 = %5042(%5041, %2925) /* ty=Tensor[(1, 16, 128, 128), float32] */;
  %5044 = fn (%p019: Tensor[(1, 16, 128, 128), float32], Primitive=1, hash="7e1ccefce278b800") -> Tensor[(1, 16, 128, 128), int8] {
    %94 = nn.softmax(%p019, axis=3) /* ty=Tensor[(1, 16, 128, 128), float32] */;
    %95 = divide(%94, 0.00874463f /* ty=float32 */) /* ty=Tensor[(1, 16, 128, 128), float32] */;
    %96 = clip(%95, a_min=-128f, a_max=127f) /* ty=Tensor[(1, 16, 128, 128), float32] */;
    %97 = round(%96) /* ty=Tensor[(1, 16, 128, 128), float32] */;
    cast(%97, dtype="int8") /* ty=Tensor[(1, 16, 128, 128), int8] */
  };
  %5045 = %5044(%5043) /* ty=Tensor[(1, 16, 128, 128), int8] */;
  %5046 = fn (%p018: Tensor[(1, 16, 128, 128), int8], Primitive=1, hash="1e01d52113b0d8e6") -> Tensor[(16, 128, 128), uint8] {
    %90 = broadcast_to(%p018, shape=[1, 16, 128, 128]) /* ty=Tensor[(1, 16, 128, 128), int8] */;
    %91 = reshape(%90, newshape=[-1, 128, 128]) /* ty=Tensor[(16, 128, 128), int8] */;
    %92 = cast(%91, dtype="int32") /* ty=Tensor[(16, 128, 128), int32] */;
    %93 = add(%92, 128 /* ty=int32 */) /* ty=Tensor[(16, 128, 128), int32] */;
    cast(%93, dtype="uint8") /* ty=Tensor[(16, 128, 128), uint8] */
  };
  %5062 = fn (%p0725: Tensor[(128, 1024), uint8], %p1460: Tensor[(64, 256, 16, 4), int8], %p2289: Tensor[(1, 1024), int32], Primitive=1, hash="a41f099f91287173", weight_layout="NC16n4c") -> Tensor[(128, 1024), int32] {
    %5061 = nn.contrib_dense_pack(%p0725, %p1460, units=None, out_dtype="int32", weight_layout="NC16n4c") /* ty=Tensor[(128, 1024), int32] */;
    subtract(%5061, %p2289) /* ty=Tensor[(128, 1024), int32] */
  };
  %5063 = %5062(%5013, meta[relay.Constant][517] /* ty=Tensor[(64, 256, 16, 4), int8] */, meta[relay.Constant][518] /* ty=Tensor[(1, 1024), int32] */) /* ty=Tensor[(128, 1024), int32] */;
  %5064 = fn (%p0724: Tensor[(128, 1024), int32], %p1459: Tensor[(1024), int32], Primitive=1, hash="d2cd74a1808052b0") -> Tensor[(16, 64, 128), int8] {
    %5047 = reshape(%p0724, newshape=[1, 128, 1024]) /* ty=Tensor[(1, 128, 1024), int32] */;
    %5048 = add(%5047, %p1459) /* ty=Tensor[(1, 128, 1024), int32] */;
    %5049 = clip(%5048, a_min=-2.14748e+09f, a_max=2.14748e+09f) /* ty=Tensor[(1, 128, 1024), int32] */;
    %5050 = reshape(%5049, newshape=[1, 128, 16, 64]) /* ty=Tensor[(1, 128, 16, 64), int32] */;
    %5051 = transpose(%5050, axes=[0, 2, 1, 3]) /* ty=Tensor[(1, 16, 128, 64), int32] */;
    %5052 = cast(%5051, dtype="float32") /* ty=Tensor[(1, 16, 128, 64), float32] */;
    %5053 = multiply(0.00162626f /* ty=float32 */, %5052) /* ty=Tensor[(1, 16, 128, 64), float32] */;
    %5054 = add(%5053, 0.5f /* ty=float32 */) /* ty=Tensor[(1, 16, 128, 64), float32] */;
    %5055 = floor(%5054) /* ty=Tensor[(1, 16, 128, 64), float32] */;
    %5056 = cast(%5055, dtype="int32") /* ty=Tensor[(1, 16, 128, 64), int32] */;
    %5057 = clip(%5056, a_min=-128f, a_max=127f) /* ty=Tensor[(1, 16, 128, 64), int32] */;
    %5058 = cast(%5057, dtype="int8") /* ty=Tensor[(1, 16, 128, 64), int8] */;
    %5059 = broadcast_to(%5058, shape=[1, 16, 128, 64]) /* ty=Tensor[(1, 16, 128, 64), int8] */;
    %5060 = reshape(%5059, newshape=[-1, 128, 64]) /* ty=Tensor[(16, 128, 64), int8] */;
    transpose(%5060, axes=[0, 2, 1]) /* ty=Tensor[(16, 64, 128), int8] */
  };
  %5066 = %5064(%5063, meta[relay.Constant][519] /* ty=Tensor[(1024), int32] */) /* ty=Tensor[(16, 64, 128), int8] */;
  %5067 = fn (%p0726: Tensor[(16, 64, 128), int8], Primitive=1, hash="01b1b769a1f35abd") -> Tensor[(16, 64), int32] {
    %5065 = cast(%p0726, dtype="int32") /* ty=Tensor[(16, 64, 128), int32] */;
    sum(%5065, axis=[-1]) /* ty=Tensor[(16, 64), int32] */
  };
  %5068 = %5046(%5045) /* ty=Tensor[(16, 128, 128), uint8] */;
  %5069 = %5067(%5066) /* ty=Tensor[(16, 64), int32] */;
  %5070 = fn (%p017: Tensor[(16, 128, 128), uint8], %p112: Tensor[(16, 64, 128), int8], %p27: Tensor[(16, 64), int32], Primitive=1, hash="8d8117dbe1fc815a") -> Tensor[(16, 128, 64), int32] {
    %87 = multiply(128 /* ty=int32 */, %p27) /* ty=Tensor[(16, 64), int32] */;
    %88 = nn.batch_matmul(%p017, %p112, out_dtype="int32", transpose_b=True) /* ty=Tensor[(16, 128, 64), int32] */;
    %89 = expand_dims(%87, axis=1) /* ty=Tensor[(16, 1, 64), int32] */;
    subtract(%88, %89) /* ty=Tensor[(16, 128, 64), int32] */
  };
  %5071 = %5070(%5068, %5066, %5069) /* ty=Tensor[(16, 128, 64), int32] */;
  %5072 = fn (%p016: Tensor[(16, 128, 64), int32], Primitive=1, hash="2e47d4cebe5b40ab") -> Tensor[(128, 1024), uint8] {
    %74 = reshape(%p016, newshape=[1, 16, 128, 64]) /* ty=Tensor[(1, 16, 128, 64), int32] */;
    %75 = transpose(%74, axes=[0, 2, 1, 3]) /* ty=Tensor[(1, 128, 16, 64), int32] */;
    %76 = reshape(%75, newshape=[1, 128, 1024]) /* ty=Tensor[(1, 128, 1024), int32] */;
    %77 = cast(%76, dtype="float32") /* ty=Tensor[(1, 128, 1024), float32] */;
    %78 = multiply(0.0517391f /* ty=float32 */, %77) /* ty=Tensor[(1, 128, 1024), float32] */;
    %79 = add(%78, 0.5f /* ty=float32 */) /* ty=Tensor[(1, 128, 1024), float32] */;
    %80 = floor(%79) /* ty=Tensor[(1, 128, 1024), float32] */;
    %81 = cast(%80, dtype="int32") /* ty=Tensor[(1, 128, 1024), int32] */;
    %82 = clip(%81, a_min=-128f, a_max=127f) /* ty=Tensor[(1, 128, 1024), int32] */;
    %83 = cast(%82, dtype="int8") /* ty=Tensor[(1, 128, 1024), int8] */;
    %84 = reshape(%83, newshape=[-1, 1024]) /* ty=Tensor[(128, 1024), int8] */;
    %85 = cast(%84, dtype="int32") /* ty=Tensor[(128, 1024), int32] */;
    %86 = add(%85, 128 /* ty=int32 */) /* ty=Tensor[(128, 1024), int32] */;
    cast(%86, dtype="uint8") /* ty=Tensor[(128, 1024), uint8] */
  };
  %5073 = %5072(%5071) /* ty=Tensor[(128, 1024), uint8] */;
  %5074 = fn (%p015: Tensor[(128, 1024), uint8], %p111: Tensor[(64, 256, 16, 4), int8], %p26: Tensor[(1, 1024), int32], Primitive=1, hash="a41f099f91287173", weight_layout="NC16n4c") -> Tensor[(128, 1024), int32] {
    %73 = nn.contrib_dense_pack(%p015, %p111, units=None, out_dtype="int32", weight_layout="NC16n4c") /* ty=Tensor[(128, 1024), int32] */;
    subtract(%73, %p26) /* ty=Tensor[(128, 1024), int32] */
  };
  %5075 = %5074(%5073, meta[relay.Constant][520] /* ty=Tensor[(64, 256, 16, 4), int8] */, meta[relay.Constant][521] /* ty=Tensor[(1, 1024), int32] */) /* ty=Tensor[(128, 1024), int32] */;
  %5076 = fn (%p014: Tensor[(128, 1024), int32], %p110: Tensor[(1024), int32], %p25: Tensor[(1, 128, 1024), int8], Primitive=1, hash="24e8ac8025497c63") -> Tensor[(1, 128, 1024), float32] {
    %59 = reshape(%p014, newshape=[1, 128, 1024]) /* ty=Tensor[(1, 128, 1024), int32] */;
    %60 = add(%59, %p110) /* ty=Tensor[(1, 128, 1024), int32] */;
    %61 = clip(%60, a_min=-2.14748e+09f, a_max=2.14748e+09f) /* ty=Tensor[(1, 128, 1024), int32] */;
    %62 = cast(%61, dtype="float32") /* ty=Tensor[(1, 128, 1024), float32] */;
    %63 = multiply(0.00328429f /* ty=float32 */, %62) /* ty=Tensor[(1, 128, 1024), float32] */;
    %64 = add(%63, 0.5f /* ty=float32 */) /* ty=Tensor[(1, 128, 1024), float32] */;
    %65 = floor(%64) /* ty=Tensor[(1, 128, 1024), float32] */;
    %66 = cast(%65, dtype="int32") /* ty=Tensor[(1, 128, 1024), int32] */;
    %67 = clip(%66, a_min=-128f, a_max=127f) /* ty=Tensor[(1, 128, 1024), int32] */;
    %68 = cast(%67, dtype="int8") /* ty=Tensor[(1, 128, 1024), int8] */;
    %69 = cast(%68, dtype="float32") /* ty=Tensor[(1, 128, 1024), float32] */;
    %70 = cast(%p25, dtype="float32") /* ty=Tensor[(1, 128, 1024), float32] */;
    %71 = multiply(%69, 0.0124789f /* ty=float32 */) /* ty=Tensor[(1, 128, 1024), float32] */;
    %72 = multiply(%70, 0.0625878f /* ty=float32 */) /* ty=Tensor[(1, 128, 1024), float32] */;
    add(%71, %72) /* ty=Tensor[(1, 128, 1024), float32] */
  };
  %5077 = %5076(%5075, meta[relay.Constant][522] /* ty=Tensor[(1024), int32] */, %5011) /* ty=Tensor[(1, 128, 1024), float32] */;
  %5078 = fn (%p0727: Tensor[(1, 128, 1024), float32], Primitive=1, hash="2c2db313332ac77e") -> Tensor[(1, 128, 1), float32] {
    mean(%p0727, axis=[-1], keepdims=True) /* ty=Tensor[(1, 128, 1), float32] */
  };
  %5079 = %5078(%5077) /* ty=Tensor[(1, 128, 1), float32] */;
  %5080 = fn (%p013: Tensor[(1, 128, 1024), float32], %p19: Tensor[(1, 128, 1), float32], Primitive=1, hash="d63ceec029ccca0c") -> Tensor[(1, 128, 1024), float32] {
    subtract(%p013, %p19) /* ty=Tensor[(1, 128, 1024), float32] */
  };
  %5081 = %5080(%5077, %5079) /* ty=Tensor[(1, 128, 1024), float32] */;
  %5082 = fn (%p012: Tensor[(1, 128, 1024), float32], Primitive=1, hash="1f22efdffe5555e9") -> Tensor[(1, 128, 1), float32] {
    %58 = power(%p012, 2f /* ty=float32 */) /* ty=Tensor[(1, 128, 1024), float32] */;
    mean(%58, axis=[-1], keepdims=True) /* ty=Tensor[(1, 128, 1), float32] */
  };
  %5083 = %5082(%5081) /* ty=Tensor[(1, 128, 1), float32] */;
  %5084 = fn (%p011: Tensor[(1, 128, 1), float32], %p18: Tensor[(1, 128, 1024), float32], %p24: Tensor[(1024), float32], %p31: Tensor[(1024), float32], Primitive=1, hash="254afd263d3238cd") -> Tensor[(1, 128, 1024), int8] {
    %50 = add(%p011, 1e-12f /* ty=float32 */) /* ty=Tensor[(1, 128, 1), float32] */;
    %51 = sqrt(%50) /* ty=Tensor[(1, 128, 1), float32] */;
    %52 = divide(%p18, %51) /* ty=Tensor[(1, 128, 1024), float32] */;
    %53 = multiply(%52, %p24) /* ty=Tensor[(1, 128, 1024), float32] */;
    %54 = add(%53, %p31) /* ty=Tensor[(1, 128, 1024), float32] */;
    %55 = divide(%54, 0.115698f /* ty=float32 */) /* ty=Tensor[(1, 128, 1024), float32] */;
    %56 = clip(%55, a_min=-128f, a_max=127f) /* ty=Tensor[(1, 128, 1024), float32] */;
    %57 = round(%56) /* ty=Tensor[(1, 128, 1024), float32] */;
    cast(%57, dtype="int8") /* ty=Tensor[(1, 128, 1024), int8] */
  };
  %5085 = %5084(%5083, %5081, meta[relay.Constant][523] /* ty=Tensor[(1024), float32] */, meta[relay.Constant][524] /* ty=Tensor[(1024), float32] */) /* ty=Tensor[(1, 128, 1024), int8] */;
  %5086 = fn (%p010: Tensor[(1, 128, 1024), int8], Primitive=1, hash="165a7eb60476bae6") -> Tensor[(128, 1024), uint8] {
    %47 = reshape(%p010, newshape=[-1, 1024]) /* ty=Tensor[(128, 1024), int8] */;
    %48 = cast(%47, dtype="int32") /* ty=Tensor[(128, 1024), int32] */;
    %49 = add(%48, 128 /* ty=int32 */) /* ty=Tensor[(128, 1024), int32] */;
    cast(%49, dtype="uint8") /* ty=Tensor[(128, 1024), uint8] */
  };
  %5087 = %5086(%5085) /* ty=Tensor[(128, 1024), uint8] */;
  %5088 = fn (%p09: Tensor[(128, 1024), uint8], %p17: Tensor[(256, 256, 16, 4), int8], %p23: Tensor[(1, 4096), int32], Primitive=1, hash="7df485f4b3219f11", weight_layout="NC16n4c") -> Tensor[(128, 4096), int32] {
    %46 = nn.contrib_dense_pack(%p09, %p17, units=None, out_dtype="int32", weight_layout="NC16n4c") /* ty=Tensor[(128, 4096), int32] */;
    subtract(%46, %p23) /* ty=Tensor[(128, 4096), int32] */
  };
  %5089 = %5088(%5087, meta[relay.Constant][525] /* ty=Tensor[(256, 256, 16, 4), int8] */, meta[relay.Constant][526] /* ty=Tensor[(1, 4096), int32] */) /* ty=Tensor[(128, 4096), int32] */;
  %5090 = fn (%p08: Tensor[(128, 4096), int32], %p16: Tensor[(4096), float32], Primitive=1, hash="606c3d2db1314131") -> Tensor[(128, 4096), uint8] {
    %30 = reshape(%p08, newshape=[1, 128, 4096]) /* ty=Tensor[(1, 128, 4096), int32] */;
    %31 = cast(%30, dtype="float32") /* ty=Tensor[(1, 128, 4096), float32] */;
    %32 = multiply(%31, 0.000313025f /* ty=float32 */) /* ty=Tensor[(1, 128, 4096), float32] */;
    %33 = add(%32, %p16) /* ty=Tensor[(1, 128, 4096), float32] */;
    %34 = divide(%33, 1.41421f /* ty=float32 */) /* ty=Tensor[(1, 128, 4096), float32] */;
    %35 = erf(%34) /* ty=Tensor[(1, 128, 4096), float32] */;
    %36 = multiply(%33, 0.5f /* ty=float32 */) /* ty=Tensor[(1, 128, 4096), float32] */;
    %37 = add(%35, 1f /* ty=float32 */) /* ty=Tensor[(1, 128, 4096), float32] */;
    %38 = multiply(%36, %37) /* ty=Tensor[(1, 128, 4096), float32] */;
    %39 = divide(%38, 0.0262631f /* ty=float32 */) /* ty=Tensor[(1, 128, 4096), float32] */;
    %40 = clip(%39, a_min=-128f, a_max=127f) /* ty=Tensor[(1, 128, 4096), float32] */;
    %41 = round(%40) /* ty=Tensor[(1, 128, 4096), float32] */;
    %42 = cast(%41, dtype="int8") /* ty=Tensor[(1, 128, 4096), int8] */;
    %43 = reshape(%42, newshape=[-1, 4096]) /* ty=Tensor[(128, 4096), int8] */;
    %44 = cast(%43, dtype="int32") /* ty=Tensor[(128, 4096), int32] */;
    %45 = add(%44, 128 /* ty=int32 */) /* ty=Tensor[(128, 4096), int32] */;
    cast(%45, dtype="uint8") /* ty=Tensor[(128, 4096), uint8] */
  };
  %5091 = %5090(%5089, meta[relay.Constant][527] /* ty=Tensor[(4096), float32] */) /* ty=Tensor[(128, 4096), uint8] */;
  %5092 = fn (%p07: Tensor[(128, 4096), uint8], %p15: Tensor[(64, 1024, 16, 4), int8], %p22: Tensor[(1, 1024), int32], Primitive=1, hash="bcbc065dbaa86fe4", weight_layout="NC16n4c") -> Tensor[(128, 1024), int32] {
    %29 = nn.contrib_dense_pack(%p07, %p15, units=None, out_dtype="int32", weight_layout="NC16n4c") /* ty=Tensor[(128, 1024), int32] */;
    subtract(%29, %p22) /* ty=Tensor[(128, 1024), int32] */
  };
  %5093 = %5092(%5091, meta[relay.Constant][528] /* ty=Tensor[(64, 1024, 16, 4), int8] */, meta[relay.Constant][529] /* ty=Tensor[(1, 1024), int32] */) /* ty=Tensor[(128, 1024), int32] */;
  %5094 = fn (%p06: Tensor[(128, 1024), int32], %p14: Tensor[(1024), int32], %p21: Tensor[(1, 128, 1024), int8], Primitive=1, hash="4f9cdb004cf23a9d") -> Tensor[(1, 128, 1024), float32] {
    %15 = reshape(%p06, newshape=[1, 128, 1024]) /* ty=Tensor[(1, 128, 1024), int32] */;
    %16 = add(%15, %p14) /* ty=Tensor[(1, 128, 1024), int32] */;
    %17 = clip(%16, a_min=-2.14748e+09f, a_max=2.14748e+09f) /* ty=Tensor[(1, 128, 1024), int32] */;
    %18 = cast(%17, dtype="float32") /* ty=Tensor[(1, 128, 1024), float32] */;
    %19 = multiply(0.0119464f /* ty=float32 */, %18) /* ty=Tensor[(1, 128, 1024), float32] */;
    %20 = add(%19, 0.5f /* ty=float32 */) /* ty=Tensor[(1, 128, 1024), float32] */;
    %21 = floor(%20) /* ty=Tensor[(1, 128, 1024), float32] */;
    %22 = cast(%21, dtype="int32") /* ty=Tensor[(1, 128, 1024), int32] */;
    %23 = clip(%22, a_min=-128f, a_max=127f) /* ty=Tensor[(1, 128, 1024), int32] */;
    %24 = cast(%23, dtype="int8") /* ty=Tensor[(1, 128, 1024), int8] */;
    %25 = cast(%24, dtype="float32") /* ty=Tensor[(1, 128, 1024), float32] */;
    %26 = cast(%p21, dtype="float32") /* ty=Tensor[(1, 128, 1024), float32] */;
    %27 = multiply(%25, 0.0224242f /* ty=float32 */) /* ty=Tensor[(1, 128, 1024), float32] */;
    %28 = multiply(%26, 0.115698f /* ty=float32 */) /* ty=Tensor[(1, 128, 1024), float32] */;
    add(%27, %28) /* ty=Tensor[(1, 128, 1024), float32] */
  };
  %5095 = %5094(%5093, meta[relay.Constant][530] /* ty=Tensor[(1024), int32] */, %5085) /* ty=Tensor[(1, 128, 1024), float32] */;
  %5096 = fn (%p0728: Tensor[(1, 128, 1024), float32], Primitive=1, hash="2c2db313332ac77e") -> Tensor[(1, 128, 1), float32] {
    mean(%p0728, axis=[-1], keepdims=True) /* ty=Tensor[(1, 128, 1), float32] */
  };
  %5097 = %5096(%5095) /* ty=Tensor[(1, 128, 1), float32] */;
  %5098 = fn (%p05: Tensor[(1, 128, 1024), float32], %p13: Tensor[(1, 128, 1), float32], Primitive=1, hash="d63ceec029ccca0c") -> Tensor[(1, 128, 1024), float32] {
    subtract(%p05, %p13) /* ty=Tensor[(1, 128, 1024), float32] */
  };
  %5099 = %5098(%5095, %5097) /* ty=Tensor[(1, 128, 1024), float32] */;
  %5100 = fn (%p04: Tensor[(1, 128, 1024), float32], Primitive=1, hash="1f22efdffe5555e9") -> Tensor[(1, 128, 1), float32] {
    %14 = power(%p04, 2f /* ty=float32 */) /* ty=Tensor[(1, 128, 1024), float32] */;
    mean(%14, axis=[-1], keepdims=True) /* ty=Tensor[(1, 128, 1), float32] */
  };
  %5101 = %5100(%5099) /* ty=Tensor[(1, 128, 1), float32] */;
  %5102 = fn (%p03: Tensor[(1, 128, 1), float32], %p12: Tensor[(1, 128, 1024), float32], %p2: Tensor[(1024), float32], %p3: Tensor[(1024), float32], Primitive=1, hash="9dc154fae30c253c") -> Tensor[(128, 1024), float32] {
    %3 = add(%p03, 1e-12f /* ty=float32 */) /* ty=Tensor[(1, 128, 1), float32] */;
    %4 = sqrt(%3) /* ty=Tensor[(1, 128, 1), float32] */;
    %5 = divide(%p12, %4) /* ty=Tensor[(1, 128, 1024), float32] */;
    %6 = multiply(%5, %p2) /* ty=Tensor[(1, 128, 1024), float32] */;
    %7 = add(%6, %p3) /* ty=Tensor[(1, 128, 1024), float32] */;
    %8 = divide(%7, 0.0240934f /* ty=float32 */) /* ty=Tensor[(1, 128, 1024), float32] */;
    %9 = clip(%8, a_min=-128f, a_max=127f) /* ty=Tensor[(1, 128, 1024), float32] */;
    %10 = round(%9) /* ty=Tensor[(1, 128, 1024), float32] */;
    %11 = cast(%10, dtype="int8") /* ty=Tensor[(1, 128, 1024), int8] */;
    %12 = reshape(%11, newshape=[-1, 1024]) /* ty=Tensor[(128, 1024), int8] */;
    %13 = cast(%12, dtype="float32") /* ty=Tensor[(128, 1024), float32] */;
    multiply(%13, 0.0240934f /* ty=float32 */) /* ty=Tensor[(128, 1024), float32] */
  };
  %5103 = %5102(%5101, %5099, meta[relay.Constant][531] /* ty=Tensor[(1024), float32] */, meta[relay.Constant][532] /* ty=Tensor[(1024), float32] */) /* ty=Tensor[(128, 1024), float32] */;
  %5104 = fn (%p02: Tensor[(128, 1024), float32], %p11: Tensor[(1, 1024, 2), float32], Primitive=1, hash="9fa084bd4a8ba9ca", weight_layout="NC2n") -> Tensor[(128, 2), float32] {
    nn.contrib_dense_pack(%p02, %p11, units=None, out_dtype="float32", weight_layout="NC2n") /* ty=Tensor[(128, 2), float32] */
  };
  %5105 = %5104(%5103, meta[relay.Constant][533] /* ty=Tensor[(1, 1024, 2), float32] */) /* ty=Tensor[(128, 2), float32] */;
  %5106 = fn (%p01: Tensor[(128, 2), float32], %p1: Tensor[(2), float32], Primitive=1, hash="ce927f53b5401609") -> (Tensor[(1, 128, 1), float32], Tensor[(1, 128, 1), float32]) {
    %1 = reshape(%p01, newshape=[1, 128, 2]) /* ty=Tensor[(1, 128, 2), float32] */;
    %2 = add(%1, %p1) /* ty=Tensor[(1, 128, 2), float32] */;
    split(%2, indices_or_sections=[1], axis=-1) /* ty=(Tensor[(1, 128, 1), float32], Tensor[(1, 128, 1), float32]) */
  };
  %5107 = %5106(%5105, meta[relay.Constant][534] /* ty=Tensor[(2), float32] */) /* ty=(Tensor[(1, 128, 1), float32], Tensor[(1, 128, 1), float32]) */;
  %5108 = fn (%p0: (Tensor[(1, 128, 1), float32], Tensor[(1, 128, 1), float32]), Primitive=1, hash="058bddb50540b186") -> Tensor[(1, 128), float32] {
    %0 = %p0.0;
    squeeze(%0, axis=[2]) /* ty=Tensor[(1, 128), float32] */
  };
  %5110 = fn (%p0729: (Tensor[(1, 128, 1), float32], Tensor[(1, 128, 1), float32]), Primitive=1, hash="7a3ffef78d74cbfe") -> Tensor[(1, 128), float32] {
    %5109 = %p0729.1;
    squeeze(%5109, axis=[2]) /* ty=Tensor[(1, 128), float32] */
  };
  %5111 = %5108(%5107) /* ty=Tensor[(1, 128), float32] */;
  %5112 = %5110(%5107) /* ty=Tensor[(1, 128), float32] */;
  (%5111, %5112)
}

